DQN_Agent/Models_Saved/multi_task_DQN_gamma0.1.pth (torch, 84274 bytes, 11 tensors)

main_trunk.0.weight f4 [128, 27]
-0.0071707624 0.027333837 -0.18106233 -0.11946189 0.057982158 0.040798113 -0.043014105 0.051183872
-0.045013245 -0.121298596 0.101630054 -0.08558321 0.117990255 0.029627496 0.11890527 0.09102273
0.1093248 -0.15589334 -0.077535674 -0.18027437 -0.10675841 -0.050025392 0.1267695 0.02785056
0.014393095 -0.12815689 0.111861706 0.18956499 0.06640807 -0.06419716 0.121501215 -0.13228214
0.18101132 -0.17599823 -0.055917863 0.15196685 0.08892284 -0.05544728 0.096528426 0.108788595
-0.08946867 0.08937785 0.080442436 -0.0678863 0.1501858 0.029532433 0.17789887 -0.071336225
-0.16438808 -0.18251221 0.12808502 -0.09169043 0.061177097 -0.1484377 -0.060018994 -0.11708657
0.09179353 -0.17714715 -0.15975648 0.16750865 -0.10466879 -0.10842953 0.17947777 0.08978417
0.1768319 -0.19042346 0.004637211 -0.15343022 -0.06031423 -0.012667084 -0.06731397 -0.18928644
0.136578 -0.034934938 0.039807487 0.09962642 -0.14502771 -0.14111911 0.19053948 0.090018086
-0.12538008 -0.017172564 -0.121114336 -0.07001153 -0.08198398 -0.13515021 -0.13696931 -0.21630614
-0.046111684 -0.23892696 -0.24729636 -0.022973232 -0.26349804 0.027600283 -0.10407289 0.086415574
0.033415277 0.0762275 -0.08249291 -0.0005045993 -0.22587687 -0.025624944 0.017116606 -0.043299984
-0.080526285 -0.06857268 -0.09985393 0.050322548 0.27394718 -0.0733981 0.077672265 0.102635644
0.0824218 -0.06881164 0.2510866 -0.0031951123 0.07280413 0.1124478 0.23613735 0.030190025
0.08150571 0.07823013 0.22502927 0.2801106 -0.044790722 0.26998016 0.041505627 0.2933327
0.13854386 0.22557567 0.20731805 0.22660042 0.12772334 -0.0396606 0.057744194 -0.056357864
0.07785347 0.1301295 -0.18930444 0.0042961575 0.0013082125 0.09398227 0.1591934 -0.0032134634
0.011501088 -0.06398171 0.053546894 -0.025791857 -0.13683382 -0.010382053 -0.103012525 -0.0871529
0.0055742017 0.13076967 0.16556501 0.10690936 -6.201179e-05 -0.024698678 0.12779927 0.13385256
0.044403676 -0.09595447 0.10948964 -0.08233408 0.023577815 -0.027954621 0.078728795 0.14681017
0.0918272 0.19874322 0.27628827 0.09179323 -0.077987 0.13028508 0.12577899 0.2769031
-0.032287333 -0.06151872 0.26775643 -0.003372201 0.0030447955 0.010530177 0.107384734 -0.02006488
0.1199735 0.27304968 0.1225001 0.18588796 0.12402585 0.012298141 0.055331327 0.104099855
0.20607536 0.1963252 -0.017967189 0.015038488 -0.015338077 0.13782467 0.17451562 0.05804782
-0.040658377 0.27290082 0.18193765 0.26813203 0.07565961 0.1457506 0.17483206 0.23195095
0.05215372 0.30591133 -0.064103074 0.21196388 0.24232958 -0.02320344 0.06075066 0.14269689
0.00030379114 0.094672374 0.26002574 0.034553632 0.10166779 0.1679412 0.09086961 0.24288864
0.14750448 0.1828409 0.30238676 0.2827017 0.30072448 0.26509973 9.639404e-05 0.12973674
0.28317538 -0.010237213 0.0881036 0.2787421 0.07718101 -0.05809836 0.052962292 -0.050106622
-0.04856524 0.22504112 0.007389731 0.079330795 0.09656165 -0.10346356 -0.16993004 -0.012902821
-0.010195311 -0.26358542 0.03745765 -0.09455562 -0.11080063 -0.014436317 -0.25872418 -0.049386688
00000000: b7f8 eabb 36eb df3c 6768 39be 6fa8 f4bd
00000010: b37e 6d3d ec1b 273d 8f2f 30bd 2ea6 513d
00000020: cf5f 38bd 666b f8bd 6b23 d03d 4046 afbd
00000030: e0a4 f13d 5db5 f23c 9b84 f33d 206a ba3d
00000040: aee5 df3d 81a2 1fbe 06cb 9ebd d899 38be
00000050: 27a4 dabd 6de7 4cbd ddcf 013e dc26 e43c
00000060: 04d1 6b3c 8f3b 03be c017 e53d 531d 423e
00000070: f400 883d cd79 83bd a1d5 f83d f874 07be
00000080: 085b 393e e138 34be 210a 65bd 339d 1b3e
00000090: 2e1d b63d b01c 63bd b2b0 c53d 8ecc de3d
000000a0: 5a3b b7bd bc0b b73d 01bf a43d f907 8bbd
000000b0: 4eca 193e 00ee f13c 1f2b 363e ba18 92bd
000000c0: 5955 28be 7be4 3abe b828 033e 31c8 bbbd
000000d0: d694 7a3d 0d00 18be 7ad6 75bd 15cb efbd
000000e0: 3ffe bb3d 1066 35be 3497 23be 6387 2b3e
000000f0: 975c d6bd 4d10 debd 05c9 373e c3e0 b73d
00000100: 6c13 353e 5efe 42be bff3 973b d01c 1dbe
00000110: 0e0c 77bd 9a89 4fbc e8db 89bd 4ed4 41be
00000120: 1adb 0b3e f017 0fbd 2d0d 233d f008 cc3d
00000130: 2582 14be 8781 10be c81c 433e 675b b83d
00000140: a363 00be 7aad 8cbc cb0a f8bd 3462 8fbd
00000150: 38e7 a7bd d164 0abe af41 0cbe 5b7f 5dbe
00000160: 9bdf 3cbd 45a9 74be 423b 7dbe 5c32 bcbc
00000170: 37e9 86be fd19 e23c 2b24 d5bd a6fa b03d
00000180: 75de 083d 2a1d 9c3d 0bf2 a8bd 1647 04ba
00000190: 444c 67be 67eb d1bc 2038 8c3c 535b 31bd
000001a0: f7ea a4bd d56f 8cbd 3880 ccbd 041f 4e3d
000001b0: ce42 8c3e be51 96bd a312 9f3d a332 d23d
000001c0: c3cc a83d 1eed 8cbd 6c8e 803e 1765 51bb
000001d0: 551a 953d 084b e63d fdcd 713e 1251 f73c
000001e0: 77ec a63d 1e37 a03d 136e 663e a86a 8f3e
000001f0: 7a76 37bd d73a 8a3e ce01 2a3d b42f 963e
00000200: 71de 0d3e 4ffd 663e 2f4b 543e f109 683e
00000210: e8c9 023e 2773 22bd 2d85 6c3d 81d7 66bd
00000220: a471 9f3d ab40 053e 06d9 41be c8c6 8c3b
00000230: 5478 ab3a c779 c03d 9803 233e f898 52bb
00000240: 0f6f 3c3c d808 83bd fd53 5b3d 7249 d3bc
00000250: 2a1e 0cbe 7d19 2abc 3bf8 d2bd 387d b2bd
00000260: cba7 b63b 7ce8 053e e089 293e 4bf3 da3d
00000270: 540c 82b8 e254 cabc d0dd 023e a510 093e
00000280: a1e0 353d c783 c4bd 1b3c e03d c59e a8bd
00000290: 4326 c13c 1701 e5bc 903c a13d 6855 163e
000002a0: e60f bc3d 5883 4b3e a875 8d3e 17fe bb3d
000002b0: a6b7 9fbd 7469 053e 35cc 003e 3ec6 8d3e
000002c0: b93f 04bd 0efb 7bbd 5f17 893e 2500 5dbb
000002d0: 318b 473b c386 2c3c 87ec db3d 1a5f a4bc
000002e0: abb4 f53d 2bcd 8b3e 55e1 fa3d 6a59 3e3e
000002f0: 4401 fe3d 247e 493c 1aa3 623d 4e32 d53d
00000300: 6b05 533e 7909 493e ed2f 93bc fe63 763c
00000310: 8f4c 7bbc e921 0d3e 39b4 323e 8dc3 6d3d
00000320: 6689 26bd a8b9 8b3e dd4d 3a3e 9a48 893e
00000330: 6df3 9a3d a53f 153e 2d07 333e 8d84 6d3e
00000340: 249f 553d 69a0 9c3e 7948 83bd 0f0d 593e
00000350: 3f25 783e 2415 bebc afd5 783d 221f 123e
00000360: 2846 9f39 97e3 c13d 1822 853e 1c88 0d3d
00000370: 3437 d03d c7f8 2b3e d919 ba3d cdb7 783e
00000380: 6a0b 173e a53a 3b3e 70d2 9a3e 47be 903e
00000390: 8ff8 993e 27bb 873e 2827 ca38 b5d9 043e
000003a0: 5dfc 903e fcb9 27bc a96f b43d 49b7 8e3e
000003b0: 1411 9e3d 8cf8 6dbd fdee 583d 9a3c 4dbd
000003c0: 58ec 46bd 2e71 663e 8e25 f23b 2f78 a23d
000003d0: 1dc2 c53d b4e4 d3bd 2402 2ebe 5b66 53bc
000003e0: 3c0a 27bc abf4 86be 316d 193d 60a6 c1bd
000003f0: 71eb e2bd 4d86 6cbc 7f77 84be b249 4abd

main_trunk.0.bias f4 [128]
-0.1012797 -0.00932393 -0.09305333 -0.029557874 0.056534722 0.0017810437 0.116324805 0.19565576
0.06901665 -0.20757876 0.14019762 0.046750035 0.18894885 0.008051297 0.07366757 -0.095569625
-0.09513619 0.036376026 -0.1739126 0.036590274 0.052916452 0.07883271 0.043812834 0.20407973
0.10560266 -0.055218123 0.17944449 0.065578595 -0.0330273 -0.022447357 -0.01677154 0.024925647
-0.16769427 0.044948522 -0.15960154 0.05955947 0.10566274 0.026981927 0.0854171 0.27905145
0.16849431 -0.13034193 -0.0613866 0.17655686 -0.13906129 0.094539076 -0.1408215 0.30554467
0.10684233 0.09432142 0.14935005 -0.0186173 0.10373861 -0.0027232342 -0.16776805 0.21430108
-0.16576256 -0.07344747 0.11191881 -0.15616386 0.12198086 0.18737909 -0.11217794 0.0830647
0.12515406 -0.009435491 0.0421657 0.010786106 -0.21558525 0.029193405 -0.013758621 0.049567547
0.3063619 0.19769976 0.23687226 -0.020623706 -0.075883806 -0.12483611 0.058595728 0.05185622
-0.20170069 -0.087283015 0.0980789 0.0766413 0.028954064 -0.07892596 -0.13628659 -0.08262992
-0.08206762 0.2792145 0.16173723 0.17424579 -0.009798692 -0.14198875 -0.0019276192 -0.017647183
0.17348714 0.23522055 -0.10516075 -0.17872463 0.014472767 -0.113353536 0.1664526 -0.13040096
0.16866502 -0.05708347 -0.18894121 0.13118404 -0.005748737 0.21716103 0.12827753 0.117537096
0.11080793 -0.041638426 0.013369005 -0.18086857 -0.027949078 -0.007569851 0.0057287947 -0.12451669
0.11481849 0.0033396897 0.11982553 -0.07527688 0.0923889 0.14421041 0.27895465 -0.015844401
00000000: bb6b cfbd 66c3 18bc bf92 bebd 5b23 f2bc
00000010: f490 673d e971 e93a b33b ee3d fc59 483e
00000020: 9a58 8d3d 878f 54be f78f 0f3e f77c 3f3d
00000030: cf7b 413e 96e9 033c 06df 963d 02ba c3bd
00000040: c3d6 c2bd 07ff 143d 2516 32be afdf 153d
00000050: ecbe 583d 0b73 a13d 1675 333d 47fa 503e
00000060: 3546 d83d 662c 62bd 4cc0 373e 124e 863d
00000070: a247 07bd 85e3 b7bc 7864 89bc df30 cc3c
00000080: 0cb8 2bbe f11b 383d 966e 23be a1f4 733d
00000090: b565 d83d 3409 dd3c 29ef ae3d d5df 8e3e
000000a0: c689 2c3e 5b78 05be 8470 7bbd 52cb 343e
000000b0: 1566 0ebe b49d c13d 8333 10be 5a70 9c3e
000000c0: 27d0 da3d 972b c13d 38ef 183e 4f83 98bc
000000d0: e974 d43d 4a78 32bb 63cb 2bbe be71 5b3e
000000e0: a9bd 29be a16b 96bd b035 e53d 6be9 1fbe
000000f0: 1ad1 f93d 4ee0 3f3e 8cbd e5bd d31d aa3d
00000100: 6328 003e 5197 1abc f1b5 2c3d 35b8 303c
00000110: 61c2 5cbe 0227 ef3c d76b 61bc 5707 4b3d
00000120: 78db 9c3e ce71 4a3e a48e 723e 0cf3 a8bc
00000130: f868 9bbd 13aa ffbd 1302 703d 3067 543d
00000140: a08a 4ebe 70c1 b2bd 97dd c83d 1df6 9c3d
00000150: 1331 ed3c efa3 a1bd b68e 0bbe e039 a9bd
00000160: 1113 a8bd 34f5 8e3e 729e 253e 7d6d 323e
00000170: b18a 20bc 8065 11be 2ba8 fcba d390 90bc
00000180: 9da6 313e a8dd 703e 855e d7bd 9703 37be
00000190: 2f1f 6d3c e625 e8bd 8d72 2a3e d487 05be
000001a0: 86b6 2c3e 5bd0 69bd ce79 41be 1c55 063e
000001b0: e75f bcbb 765f 5e3e 2f5b 033e 4ab7 f03d
000001c0: 45ef e23d 0e8d 2abd ac09 5b3c 9c35 39be
000001d0: 77f5 e4bc 830c f8bb 9db8 bb3b 9b02 ffbd
000001e0: f525 eb3d b2de 5a3b 1667 f53d c42a 9abd
000001f0: 6436 bd3d e5ab 133e 25d3 8e3e 1ecc 81bc

main_trunk.2.weight f4 [64, 128]
-0.068037905 0.07805596 0.07927821 0.027280312 0.06966084 0.017242465 -0.035421696 0.006937257
0.042147793 0.07448016 -0.034680407 0.057561774 -0.035222944 -0.009839234 0.08713797 -0.01300068
0.021742167 0.08069737 0.039637897 0.08025254 -0.057576187 -0.025508592 -0.02379706 0.05609066
-0.04584153 0.08911341 0.08702683 0.0028972914 0.0840595 -0.0298427 -0.047727637 0.071257666
0.061988574 -0.01871712 0.086492695 0.055078313 0.038978785 0.07156424 -0.06894389 0.084365584
-0.029726794 -0.02369757 0.073219664 0.004756364 0.022648262 -0.06622514 -0.07860975 -0.049778424
-0.037949823 -0.04136949 0.01911574 -0.045578003 -0.012502346 -0.019944517 0.026139116 0.041031003
-0.06791342 -0.085668154 0.003466323 0.008766327 -0.0028162312 0.04508936 -0.003764052 0.029113906
-0.07418709 -0.026490128 -0.02097875 0.05337695 -0.029693114 -0.032586776 -0.074260004 0.011735235
0.08202482 -0.007671659 -0.06452701 -0.05410518 0.06798057 0.015289138 -0.022975707 -0.023815434
0.05433317 -0.0076633715 -0.0045470065 0.089316376 0.084280506 0.033741187 -0.043974366 0.0034979777
0.060989525 0.07204685 0.032721564 -0.06930872 0.048582062 -0.035184093 -0.0788566 -0.052067783
-0.02718241 -0.055784155 0.064613886 0.013854185 -0.0069831847 0.06238604 0.045118455 -0.024281926
0.025275918 0.0023958164 0.033717036 -0.054805007 -0.015363007 0.032234047 0.087259896 -0.01365265
-0.022596864 0.022545034 0.015517443 0.04465627 -0.012317802 0.012115181 -0.07491081 -0.025220674
0.014855404 -0.04019891 0.011474353 0.0400141 0.08996418 0.06822795 -0.077487685 0.02567261
0.008630663 -0.005517286 0.024173008 0.020862427 -0.023832904 0.054063994 0.065229096 -0.06759148
0.007746791 -0.03381192 0.050047033 -0.0028136182 0.021301934 -0.025221875 0.035364334 0.044167746
0.082224004 -0.02673499 -0.007899099 -0.07629759 -0.07674231 -0.041623816 0.082510255 -0.06960847
-0.011475322 0.0070008654 -0.07785539 -0.013943042 0.058047727 0.058563497 -0.0017775644 -0.06731259
-0.0056964415 0.029574886 -0.035156086 0.08699193 -0.0702129 0.022349168 0.072152875 -0.005669794
-0.0026615313 0.06583808 0.05872237 0.023818342 -0.055869736 -0.083088145 0.047096815 -0.07084017
-0.015668143 -0.06937682 -0.08261361 -0.07503608 0.0092640985 0.052468717 0.027527055 0.039454192
0.012889728 -0.018302754 -0.04415897 0.0126311155 0.041021716 0.036476623 -0.06827955 0.0594511
0.07657734 -0.07254797 -0.046539962 0.010921828 0.0451696 -0.011076286 -0.07331495 -0.048821993
-0.0068061682 0.07927589 -0.065115176 0.0037191855 0.047974356 -0.0784345 -0.00530907 -0.075886
0.0739927 0.0173847 0.006743717 0.05856962 0.009062921 0.037222672 -0.08835187 0.06819461
0.007839967 0.08073827 0.00059061433 0.03793204 0.03823952 -0.008314267 0.00090242724 0.051717848
0.074782245 -0.013657433 -0.046151653 -0.010284379 0.08565617 -0.032465898 -0.0127157355 -0.026752817
0.011268918 -0.021210063 -0.0342558 -0.08133735 0.0010030634 -0.086343125 -0.03925453 -0.033367712
-0.0558638 0.016699761 0.065577805 0.005939555 -0.026128232 0.059509557 -0.022072947 0.027292497
-0.028107911 0.037653666 0.08053185 0.08659157 -0.06012453 -0.031074882 -0.026953014 0.011149316
00000000: 7557 8bbd cedb 9f3d 9d5c a23d f67a df3c
00000010: 58aa 8e3d 1240 8d3c 5716 11bd ee51 e33b
00000020: 2aa3 2c3d 0e89 983d 0b0d 0ebd e5c5 6b3d
00000030: ef45 10bd bd34 21bc 6475 b23d ce00 55bc
00000040: a11c b23c aa44 a53d 595b 223d 725b a43d
00000050: 02d5 6bbd 65f7 d0bc 0df2 c2bc 52bf 653d
00000060: 54c4 3bbd 1781 b63d 1f3b b23d 7ce0 3d3b
00000070: 6327 ac3d ae78 f4bc 0e7e 43bd 8aef 913d
00000080: bbe7 7d3d a554 99bc 1523 b13d cc99 613d
00000090: 38a8 1f3d 4690 923d 7432 8dbd ddc7 ac3d
000000a0: 9b85 f3bc 6821 c2bc 31f4 953d 46db 9b3b
000000b0: d988 b93c 0ca1 87bd 26fe a0bd 76e4 4bbd
000000c0: 4671 1bbd 0e73 29bd 9d98 9c3c 00b0 3abd
000000d0: a4d6 4cbc af62 a3bc b321 d63c 2010 283d
000000e0: 3116 8bbd c972 afbd 402b 633b a4a0 0f3c
000000f0: 8590 38bb 9faf 383d 50ae 76bb 4980 ee3c
00000100: 67ef 97bd d301 d9bc a1db abbc caa1 5a3d
00000110: f93e f3bc b679 05bd a115 98bd 2545 403c
00000120: a1fc a73d 8a62 fbbb bd26 84bd 659d 5dbd
00000130: 6639 8b3d 4b7f 7a3c 8d37 bcbc 9618 c3bc
00000140: 758c 5e3d 051d fbbb 0eff 94bb 81eb b63d
00000150: 429b ac3d 3334 0a3d 771e 34bd 543e 653b
00000160: 27d0 793d 4d8d 933d 0c07 063d bbf1 8dbd
00000170: fcfd 463d 321d 10bd 927f a1bd 0745 55bd
00000180: a5ad debc ed7d 64bd 4954 843d aafc 623c
00000190: 33d3 e4bb 8188 7f3d 21ce 383d e4ea c6bc
000001a0: 710f cf3c 2103 1d3b e01a 0a3d 377b 60bd
000001b0: 1fb5 7bbc d907 043d 51b5 b23d 5daf 5fbc
000001c0: 0f1d b9bc 5db0 b83c e03c 7e3c 7ee9 363d
000001d0: 9bd0 49bc c17e 463c d76a 99bd 969b cebc
000001e0: 1564 733c 9da7 24bd edfe 3b3c d3e5 233d
000001f0: 243f b83d 18bb 8b3d ddb1 9ebd 5e4f d23c
00000200: a067 0d3c 59ca b4bb 7906 c63c aee7 aa3c
00000210: 393d c3bc 3572 5d3d d596 853d 676d 8abd
00000220: cbd8 fd3b 5e7e 0abd 1efe 4c3d ae64 38bb
00000230: 6581 ae3c 1b9e cebc 31da 103d 3de9 343d
00000240: 0f65 a83d 5603 dbbc 396b 01bc e941 9cbd
00000250: 122b 9dbd bc7d 2abd 23fb a83d e38e 8ebd
00000260: fd02 3cbc 8467 e53b a672 9fbd 5b71 64bc
00000270: 74c3 6d3d 47e0 6f3d 2afd e8ba 2fdb 89bd
00000280: 37a9 babb 0847 f23c d4ff 0fbd d328 b23d
00000290: c8cb 8fbd 9a15 b73c e3c4 933d aec9 b9bb
000002a0: 166d 2ebb 1ed6 863d de86 703d af1e c33c
000002b0: aad7 64bd 1e2a aabd 97e8 403d a714 91bd
000002c0: 7a5a 80bc 6f15 8ebd 5331 a9bd 84ac 99bd
000002d0: 72c8 173c 70e9 563d 6b80 e13c b89a 213d
000002e0: 702f 533c a8ef 95bc 09e0 34bd bdf2 4e3c
000002f0: 6306 283d 8368 153d 26d6 8bbd ff82 733d
00000300: 95d4 9c3d 0894 94bd b0a0 3ebd 78f1 323c
00000310: c203 393d 5079 35bc 2626 96bd 92f9 47bd
00000320: 4706 dfbb 665b a23d 1b5b 85bd 94bd 733b
00000330: c280 443d 44a2 a0bd b5f7 adbb 1f6a 9bbd
00000340: 7c89 973d 5c6a 8e3c 66fa dc3b b3e6 6f3d
00000350: a57c 143c cd76 183d d3f1 b4bd 9ea9 8b3d
00000360: 3473 003c 1b5a a53d 75d3 1a3a a05e 1b3d
00000370: 0ba1 1c3d 9038 08bc de90 6c3a 18d6 533d
00000380: 6f27 993d 6dc3 5fbc 8409 3dbd d07f 28bc
00000390: 816c af3d f6fa 04bd a955 50bc b928 dbbc
000003a0: 45a1 383c bac0 adbc cf4f 0cbd 3294 a6bd
000003b0: 3979 833a aad4 b0bd 5cc9 20bd 95ac 08bd
000003c0: 71d1 64bd f0cd 883c a84d 863d 99a0 c23b
000003d0: e00a d6bc 4bc0 733d 53d2 b4bc 8494 df3c
000003e0: 9042 e6bc bb3a 1a3d e2ed a43d ec56 b13d
000003f0: 2445 76bd c090 febc 91cc dcbc 9fab 363c

main_trunk.2.bias f4 [64]
-0.061782062 -0.08821068 -0.18737069 0.09503478 0.0479285 0.020434065 0.06111727 0.054313708
-0.06294075 0.06926835 0.08803988 0.04355528 -0.07809471 0.05569277 -0.001003151 -0.087447025
0.013677337 -0.1747614 0.06597843 -0.018119937 0.048621133 -0.0709763 -0.042909034 0.13112505
0.00575443 0.048526436 0.007210936 0.12379418 -0.044021327 0.071281746 -0.056506325 0.0053311866
0.03922859 0.06652515 0.10311035 -0.0593174 0.0391952 -0.015052452 0.03368747 0.0736405
-0.03978173 0.038454045 0.050131064 -0.029318761 0.090699315 0.16118285 0.06861279 0.177162
0.12805848 0.18088748 0.023446763 0.16228734 0.019582354 -0.011252594 -0.16475193 -0.065477215
-0.10183425 0.06721899 -0.12704307 0.0031736365 -0.07217246 0.026523653 0.0848008 0.054991394
00000000: 300f 7dbd cda7 b4bd 1ade 3fbe 98a1 c23d
00000010: ad50 443d 5765 a73c 1a56 7a3d 0d78 5e3d
00000020: 14e7 80bd 91dc 8d3d 414e b43d 0567 323d
00000030: 1ff0 9fbd 1a1e 643d 297c 83ba 6d17 b3bd
00000040: e916 603c a7f4 32be b31f 873d 4370 94bc
00000050: f426 473d 065c 91bd 62c1 2fbd a545 063e
00000060: a88f bc3b a8c3 463d b749 ec3b ce87 fd3d
00000070: b54f 34bd 2afc 913d 2d73 67bd 3cb1 ae3b
00000080: 28ae 203d 563e 883d 852b d33d cdf6 72bd
00000090: 258b 203d 8f9e 76bc dffb 093d d5d0 963d
000000a0: 2bf2 22bd fd81 1d3d 3b56 4d3d e62d f0bc
000000b0: 90c0 b93d 1e0d 253e dd84 8c3d f569 353e
000000c0: c321 033e 913a 393e 6d13 c03c a72e 263e
000000d0: 2c6b a03c cd5c 38bc bbb4 28be eb18 86bd
000000e0: 7a8e d0bd 1caa 893d 9417 02be c9fc 4f3b
000000f0: 28cf 93bd 2248 d93c 0bac ad3d a83e 613d

keyword_head.0.weight f4 [64, 64]
-0.0124464035 -0.115508854 -0.051768273 -0.033451498 -0.08479896 0.032243222 0.006633267 0.0565646
0.018538982 -0.02608779 -0.013418406 0.12494159 0.01075536 0.03095454 0.098666176 -0.037934497
-0.07014139 0.029152423 0.007491827 -0.011114091 0.09256317 -0.07863721 0.11437094 0.04267089
0.10083783 -0.1009012 -0.07041922 -0.034252122 -0.097510085 -0.12190688 -0.033842534 -0.029352441
0.11720425 -0.09792805 0.05800599 0.11381936 0.10529707 0.041729823 0.08600369 -0.105797544
0.0013505667 -0.08400032 -0.07111831 -0.071412295 -0.06449115 -0.043813318 0.11044015 -0.11437309
-0.112970605 0.078079835 -0.008617133 0.06898837 0.058843136 0.10620244 0.05544485 -0.089249924
-0.05548297 0.06732458 -0.027478173 0.10688792 0.047425643 0.07018556 -0.0865743 0.00854364
0.1071407 -0.10206467 0.05999075 0.01224421 0.028496873 0.076077335 0.095047936 0.028539803
0.09789192 -0.012901366 -0.109822385 -0.0827161 -0.09952217 0.110679716 -0.11949851 -0.08645076
0.08753407 0.009164204 0.03320754 0.1006778 0.08449261 -0.05196677 0.098024026 -0.100679
0.08078432 0.088776335 0.100272074 0.00056387484 0.11231847 -0.1142834 -0.11623695 0.05529085
-0.032333374 -0.037865713 -0.09751439 0.12204225 -0.072779864 -0.110256866 0.0772753 -0.009247589
-0.12656596 0.06983648 0.0011392385 0.042377766 -0.060559183 -0.03429731 0.055449203 -0.014908412
-0.11784337 0.106817186 -0.064335085 -0.018245725 -0.12022443 -0.09039914 -0.05565134 -0.10430345
-0.08667686 0.013402358 -0.032759335 -0.058505 0.10423536 0.004013151 -0.09897534 -0.079332665
0.013885068 -0.049124435 0.07402604 -0.08149994 -0.119900346 -0.07498259 -0.065592796 -0.044890407
0.103281714 0.10877375 -0.0993992 -0.016307402 -0.07870163 0.08155857 -0.08613059 0.016659494
0.08941363 0.12401729 -0.10749632 0.029390275 0.106158495 -0.10334046 -0.055280976 -0.026545752
-0.0065056505 -0.11618953 0.022890687 -0.08365305 -0.11501272 -0.11304191 0.08060534 0.082801506
-0.02893664 -0.115517154 -0.010606645 -0.07220031 0.0861257 0.01808247 0.05722004 -0.10566676
-0.011060491 -0.011144593 -0.08618763 -0.055014864 -0.010478492 0.08595628 0.057093635 0.04914646
0.0105813565 -0.0023813376 -0.029421182 -0.020285225 0.12121013 -0.09044879 -0.028883832 0.1150385
0.0515415 0.08470169 -0.05485462 -0.0041757077 0.045605082 0.06556466 -0.071241446 -0.062287062
0.0922775 0.10009119 0.09279667 0.0807877 0.07310334 -0.05381148 -0.045857012 -0.12039491
-0.13786863 -0.016568318 -0.124275 -0.031133793 -0.12311589 -0.07346493 0.05267816 -0.0382032
-0.09679207 0.049457744 0.044320967 0.039239336 -0.04395324 -0.11351287 -0.086361624 -0.118602365
0.057826452 0.074411884 0.0855934 0.03898163 0.10901688 0.035064574 -0.03292494 0.12003337
0.104785025 0.0787064 -0.11151738 -0.082020536 0.012566909 0.05275318 0.016345551 -0.029010653
-0.028455168 -0.11713603 -0.07628016 -0.07942593 0.05592534 -0.11561143 0.031580195 0.009077059
-0.057844818 0.02076319 -0.06253368 -0.08027272 0.12319161 0.054225948 0.10352283 0.04303275
-0.078362085 -0.06725317 -0.0026298095 0.015060872 0.091906756 -0.10142717 -0.047636896 -0.10497755
00000000: 00ec 4bbc e88f ecbd f80a 54bd 7004 09bd
00000010: 14ab adbd 7811 043d e05b d93b 48b0 673d
00000020: 10df 973c 10b6 d5bc e0d8 5bbc 60e1 ff3d
00000030: 4037 303c 6094 fd3c 7e11 ca3d 3461 1bbd
00000040: 4aa6 8fbd 10d1 ee3c 007e f53b e017 36bc
00000050: c291 bd3d 8c0c a1bd 503b ea3d acc7 2e3d
00000060: 1084 ce3d 4aa5 cebd f437 90bd f44b 0cbd
00000070: 5eb3 c7bd 50aa f9bd 789e 0abd 8874 f0bc
00000080: c808 f03d 808e c8bd b097 6d3d 201a e93d
00000090: fea5 d73d e4ec 2a3d b422 b03d 62ac d8bd
000000a0: 8005 b13a 5c08 acbd 7aa6 91bd 9c40 92bd
000000b0: f013 84bd 9875 33bd 722e e23d 703c eabd
000000c0: 225d e7bd 52e8 9f3d e02e 0dbc c649 8d3d
000000d0: 8005 713d aa80 d93d 241a 633d aac8 b6bd
000000e0: 1c42 63bd 78e1 893d e819 e1bc 0ee8 da3d
000000f0: 6441 423d 72bd 8f3d de4d b1bd a0fa 0b3c
00000100: 956c db3d 4807 d1bd dcb8 753d f09b 483c
00000110: 4672 e93c 6fce 9b3d 7ea8 c23d 4ecc e93c
00000120: 8f7b c83d 4060 53bc 8fea e0bd 0f67 a9bd
00000130: 48d2 cbbd 0cac e23d a3bb f4bd 190d b1bd
00000140: 1045 b33d 7525 163c a104 083d 2a30 ce3d
00000150: 760a ad3d 1cdb 54bd d2c0 c83d cb30 cebd
00000160: 4072 a53d 5ed0 b53d 725b cd3d 00d1 133a
00000170: 3a07 e63d 6a0d eabd a30d eebd a978 623d
00000180: 0070 04bd 1419 1bbd a0b5 c7bd 4af1 f93d
00000190: 9c0d 95bd 5ace e1bd 8342 9e3d 3383 17bc
000001a0: 829a 01be 6e06 8f3d 8052 953a 4f94 2d3d
000001b0: e80c 78bd 567b 0cbd b41e 633d 6942 74bc
000001c0: dd57 f1bd f8c2 da3d 1dc2 83bd 0f78 95bc
000001d0: 3a38 f6bd 2f23 b9bd a9f2 63bd 0c9d d5bd
000001e0: a383 b1bd 9095 5b3c a72e 06bd f0a2 6fbd
000001f0: 5979 d53d c080 833b 95b3 cabd 2a79 a2bd
00000200: 327e 633c b436 49bd f79a 973d 71e9 a6bd
00000210: 508e f5bd 7990 99bd 8455 86bd 01df 37bd
00000220: 5d85 d33d c6c4 de3d cf91 cbbd 1a97 85bc
00000230: 522e a1bd 2e08 a73d 3c65 b0bd 7e79 883c
00000240: 7e1e b73d c7fc fd3d 0827 dcbd e0c3 f03c
00000250: a069 d93d 2aa4 d3bd 4e6e 62bd 7a76 d9bc
00000260: 5a2d d5bb c7f4 edbd 4085 bb3c 4a52 abbd
00000270: ca8b ebbd 8482 e7bd 6a14 a53d d693 a93d
00000280: 880c edbc 4294 ecbd 7ec7 2dbc c2dd 93bd
00000290: ac62 b03d b021 943c 905f 6a3d d067 d8bd
000002a0: 1037 35bc d097 36bc 2483 b0bd 4457 61bd
000002b0: fbad 2bbc d909 b03d 04db 693d cc4d 493d
000002c0: 6d5d 2d3c 3710 1cbb b104 f1bc 332d a6bc
000002d0: 043d f83d 373d b9bd c99d ecbc 4e99 eb3d
000002e0: 2e1d 533d 1478 ad3d 3daf 60bd 60d4 88bb
000002f0: 65cc 3a3d c446 863d 09e7 91bd b820 7fbd
00000300: fcfb bc3d 9cfc cc3d 2e0c be3d 0674 a53d
00000310: 34b7 953d 6d69 5cbd 90d4 3bbd 9b91 f6bd
00000320: 6f2d 0dbe 48ba 87bc e483 febd 4c0c ffbc
00000330: 2f24 fcbd c874 96bd 0ec5 573d f57a 1cbd
00000340: ec3a c6bd 3494 4a3d e789 353d 6db9 203d
00000350: 5008 34bd 7079 e8bd 5dde b0bd cce5 f2bd
00000360: 6edb 6c3d 4265 983d 984b af3d 34ab 1f3d
00000370: 3e44 df3d df9f 0f3d 4ddc 06bd 0ed4 f53d
00000380: 8899 d63d d230 a13d 3963 e4bd 62fa a7bd
00000390: 70e5 4d3c b813 583d 1be7 853c c0a7 edbc
000003a0: d01a e9bc 04e5 efbd c638 9cbd 10aa a2bd
000003b0: f811 653d afc5 ecbd 3c5a 013d f2b7 143c
000003c0: b0ee 6cbd 9117 aa3c a811 80bd 0666 a4bd
000003d0: e24b fc3d 071c 5e3d c703 d43d 1c43 303d
000003e0: 4d7c a0bd 08bc 89bd e258 2cbb e0c1 763c
000003f0: 9c39 bc3d 0cb9 cfbd e81e 43bd 78fe d6bd

keyword_head.0.bias f4 [64]
0.09103678 0.10452915 0.06540833 0.08752624 0.033266395 0.087781355 0.0028311908 -0.08437293
0.008963704 0.02884489 0.08602267 -0.012416327 -0.03671515 -0.089362025 0.10890487 0.07046595
-0.07729883 -0.035434235 0.06305539 0.14389277 0.075286396 -0.023619123 0.084313884 0.10982567
0.0064695645 -0.10899229 0.13163392 0.1750429 -0.1224332 0.10546948 -0.001282379 -0.011818144
0.2189312 0.05271007 -0.06720127 0.051131815 -0.094649315 -0.048954014 -0.11546276 -0.011598648
0.07045398 0.07784561 0.031174032 -0.13429528 -0.063880384 -0.09329362 0.035124276 0.053011775
0.011726371 0.10609704 -0.056410793 0.09305978 0.009755805 0.21692656 0.14998946 -0.031339053
0.040581703 -0.034493253 0.0125047015 -0.0022860933 0.22121726 0.21712492 -0.09850994 0.09696301
00000000: 7e71 ba3d 6113 d63d cdf4 853d f540 b33d
00000010: 5842 083d b6c6 b33d 808b 393b b7cb acbd
00000020: 80dc 123c 1e4c ec3c a72c b03d da6d 4bbc
00000030: a062 16bd 7003 b7bd 8409 df3d 7450 903d
00000040: d94e 9ebd 7d23 11bd 2f23 813d a058 133e
00000050: c12f 9a3d e47c c1bc c2ac ac3d 48ec e03d
00000060: a4fe d33b 5a37 dfbd 0bcb 063e 723e 333e
00000070: 42be fabd 6200 d83d 8015 a8ba e3a0 41bc
00000080: 802f 603e 84e6 573d d2a0 89bd 986f 513d
00000090: 80d7 c1bd 0184 48bd bd77 ecbd 4108 3ebc
000000a0: 2d4a 903d 856d 9f3d af60 ff3c b484 09be
000000b0: b8d3 82bd ba10 bfbd 79de 0f3d e022 593d
000000c0: f71f 403c 6849 d93d 010f 67bd 2096 be3d
000000d0: d0d6 1f3c ff21 5e3e d696 193e 615d 00bd
000000e0: 0039 263d cc48 0dbd 85e0 4c3c 48d2 15bb
000000f0: c786 623e ff55 5e3e 94bf c9bd 8b94 c63d

keyword_head.2.weight f4 [27, 64]
0.009307444 -0.12345127 -0.041353017 0.06571589 0.059826985 0.053917058 -0.022411406 -0.1253262
0.1152119 -0.0048800707 -0.08140939 -0.12782541 -0.08901805 -0.08975454 -0.057637736 -0.013168246
-0.0075763525 -0.07159965 -0.08531725 0.003526398 0.002233699 0.10655776 -0.06852148 0.0074248016
-0.05559076 0.042169183 -0.10664596 -0.11282277 0.10426119 0.0919464 0.052940518 0.11338583
0.060988374 0.0545187 0.12110907 0.052452877 0.049626425 -0.064693354 -0.04396613 0.07937678
0.045332234 0.114022106 0.023345878 0.08835899 -0.06790333 -0.062126424 -0.12290752 -0.10095778
-0.017618243 0.031619165 -0.01856444 -0.10599109 -0.061685786 -0.030493163 0.03258963 -0.0019353419
-0.093089566 -0.033114135 -0.026065644 0.054044202 -0.018237984 -0.1367359 0.0728703 -0.008492301
-0.03069374 0.120593615 0.10832974 -0.013162218 0.10662538 0.07973378 -0.012399241 0.10551367
0.0034978564 -0.12452677 0.08026222 0.043879677 -0.03254004 -0.05949053 -0.028151706 -0.061970666
-0.023659965 0.06887366 -0.117430024 -0.122862116 0.04985711 -0.059378006 -0.1230162 0.0851478
0.046430532 0.039244257 -0.09374316 -0.10136282 -0.04137145 -0.11793314 0.0685277 0.088601254
-0.0620547 0.085909575 0.09684144 -0.01793459 0.008201346 0.05157388 -0.053669468 -0.081714325
0.051269967 -0.05704052 0.020727325 0.112005696 -0.061028376 0.0863114 -0.12526157 0.028719738
0.02793013 0.02655931 0.10482127 -0.12689814 0.0015750974 -0.032683287 0.028407678 0.003354788
0.01990372 -0.051392198 -0.12382524 0.105139524 -0.07642654 -0.08613041 -0.004559085 -0.079211935
-0.11691716 0.034020264 0.036707938 0.08767943 -0.07206756 0.04177419 -0.115399316 -0.045755394
0.017554514 0.07318341 -0.102397114 0.04914989 -0.036583424 -0.030672923 0.0055556595 -0.019874409
0.09717356 -0.07309842 0.04281145 -0.13883123 0.09413035 -0.07530905 0.021192456 0.021718886
-0.030953925 0.019904759 -0.005565976 -0.10741047 -0.003790155 -0.05781251 -0.105098635 0.1051684
-0.012331433 0.0977699 -0.05028595 -0.01705657 0.04905063 0.07155465 0.05678825 -0.053570807
-0.07364198 -0.08187058 -0.024628289 0.054038335 -0.07044438 -0.1337895 -0.1219896 0.032200232
-0.008802509 -0.0627528 -0.09742708 -0.113905534 -0.059000418 0.099915355 -0.12631188 -0.010529823
-0.0058781505 0.013534039 -0.07639859 0.02136797 -0.07554819 0.05294609 0.092752114 -0.04196359
0.104775965 0.1086348 0.03316097 0.109769754 0.006903544 -0.057994634 -0.02561064 -0.12849659
-0.08301776 0.0490942 -0.12489275 -0.103942394 -0.041730076 0.07299209 0.12114924 -0.06991467
-0.018911632 -0.08894369 -0.14281268 -0.055890013 0.062873214 -0.093281925 0.017635055 0.0607119
-0.042858064 -0.08907043 0.052616477 -0.008088707 -0.019768119 0.05982326 0.10758485 -0.07040794
0.041493546 0.045809552 0.02889125 0.0050143152 0.09145978 0.0754865 -0.036355525 -0.009517649
-0.09229424 -0.045797423 0.0010584767 0.010519117 -0.0021204802 -0.043279096 -0.014308176 0.09837122
0.089777075 0.027875856 -0.05791932 0.000498351 -0.032972157 -0.053902317 -0.02318983 0.038742423
-0.099926606 0.055185065 0.045445703 -0.096188046 -0.04972516 -0.076357216 -0.026166081 -0.06433894
00000000: 407e 183c 05d4 fcbd c861 29bd 0d96 863d
00000010: 240d 753d 22d8 5c3d 2098 b7bc 8355 00be
00000020: 37f4 eb3d 00e9 9fbb f7b9 a6bd aae4 02be
00000030: 184f b6bd 3ad1 b7bd 8c15 6cbd a0bf 57bc
00000040: 0d43 f8bb d6a2 92bd cfba aebd 241b 673b
00000050: 4063 123b f43a da3d fd54 8cbd c04b f33b
00000060: 23b3 63bd 98b9 2c3d 3269 dabd a00f e7bd
00000070: e486 d53d 654e bc3d 28d8 583d d436 e83d
00000080: f2ce 793d 004f 5f3d 0808 f83d d4d8 563d
00000090: 1445 4b3d f37d 84bd d415 34bd 4b90 a23d
000000a0: 4bae 393d 6c84 e93d db3f bf3c 8ff5 b43d
000000b0: e710 8bbd 4778 7ebd f0b6 fbbd f4c2 cebd
000000c0: 2254 90bc 1983 013d 7414 98bc db11 d9bd
000000d0: 3caa 7cbd cccc f9bc b47c 053d 4cab fdba
000000e0: bea5 bebd b0a2 07bd 9e87 d5bc 745d 5d3d
000000f0: d367 95bc 7f04 0cbe 063d 953d 4b23 0bbc
00000100: 7071 fbbc c9f9 f63d fcdb dd3d 58a6 57bc
00000110: 685e da3d 774b a33d 3026 4bbc 8d17 d83d
00000120: 4b3c 653b e407 ffbd 8560 a43d 2dbb 333d
00000130: b448 05bd 58ac 73bd 689e e6bc f4d4 7dbd
00000140: 8bd2 c1bc a20d 8d3d 277f f0bd 229f fbbd
00000150: f836 4c3d 5a36 73bd ebef fbbd f861 ae3d
00000160: f12d 3e3d 96be 203d 6afc bfbd 4f97 cfbd
00000170: 1c75 29bd ee86 f1bd 4058 8c3d 9374 b53d
00000180: 122d 7ebd 5cf1 af3d ce54 c63d 90eb 92bc
00000190: f05e 063c 223f 533d 84d4 5bbd d759 a7bd
000001a0: 7500 523d 52a3 69bd 5acc a93c 3e63 e53d
000001b0: e4f8 79bd 08c4 b03d 9244 00be a845 eb3c
000001c0: bacd e43c e992 d93c 89ac d63d 96f1 01be
000001d0: 8073 ce3a e9de 05bd 38b7 e83c 01dc 5b3b
000001e0: 200d a33c a080 52bd 1698 fdbd 6453 d73d
000001f0: 8585 9cbd 2465 b0bd 6064 95bb de39 a2bd
00000200: 4472 efbd d558 0b3d 105b 163d 4691 b33d
00000210: 2898 93bd 6a1b 2b3d 7a56 ecbd 026a 3bbd
00000220: 7cce 8f3c 2fe1 953d 94b5 d1bd 6551 493d
00000230: 80d8 15bd c845 fbbc 400c b63b a8cf a2bc
00000240: ee02 c73d a0b4 95bd 0f5b 2f3d c629 0ebe
00000250: 6ac7 c03d a23b 9abd cd9b ad3c ceeb b13c
00000260: 1693 fdbc 4e0f a33c ca62 b6bb 05fa dbbd
00000270: 4064 78bb cfcc 6cbd f43d d7bd 8862 d73d
00000280: c709 4abc 963b c83d a4f8 4dbd 38ba 8bbc
00000290: 50e9 483d 3f8b 923d cc9a 683d 106d 5bbd
000002a0: 9bd1 96bd c3ab a7bd 44c1 c9bc 4d57 5d3d
000002b0: 2545 90bd 1d00 09be afd5 f9bd 64e4 033d
000002c0: 6638 10bc 8a84 80bd d987 c7bd 4e47 e9bd
000002d0: 6caa 71bd 6ca0 cc3d e757 01be 4785 2cbc
000002e0: 809d c0bb e0bd 5d3c dd76 9cbd e20b af3c
000002f0: 02b9 9abd 00de 583d d2f4 bd3d 03e2 2bbd
00000300: c894 d63d ec7b de3d ccd3 073d f7ce e03d
00000310: 2037 e23b c88b 6dbd 68cd d1bc 9c94 03be
00000320: 3705 aabd 0017 493d c5c7 ffbd c0df d4bd
00000330: 28ed 2abd e07c 953d 181d f83d 6c2f 8fbd
00000340: 91ec 9abc 1c28 b6bd 7d3d 12be edec 64bd
00000350: acc3 803d 980a bfbd 6477 903c 0bad 783d
00000360: f08b 2fbd 8f6a b6bd 6084 573d 7f86 04bc
00000370: c0f0 a1bc 3c09 753d 7255 dc3d 0a32 90bd
00000380: 23f5 293d cca2 3b3d 58ad ec3c 204f a43b
00000390: 444f bb3d ab98 9a3d 88e9 14bd eaef 1bbc
000003a0: c304 bdbd 1496 3bbd 96bc 8a3a 6058 2c3c
000003b0: c1f7 0abb 6c45 31bd d76c 6abc da76 c93d
000003c0: 0bdd b73d e85b e43c cf3c 6dbd c5a3 023a
000003d0: d00d 07bd adc8 5cbd 99f8 bdbc 60b0 1e3d
000003e0: 52a6 ccbd bc09 623d 4625 3a3d 3dfe c4bd
000003f0: 9cac 4bbd 2c61 9cbd 405a d6bc 22c4 83bd

keyword_head.2.bias f4 [27]
-0.18137966 0.030299814 -0.12528315 0.02910615 -0.08108377 -0.19234747 -0.033523392 -0.107996
0.039623037 -0.08135208 -0.18399435 -0.03263841 -0.17492901 0.014707998 -0.18664363 -0.023887405
-0.12528668 -0.13017093 -0.06966123 -0.19817838 0.038495455 -0.130526 0.021125272 -0.08769774
0.029805321 -0.091192596 -0.12651622
00000000: 97bb 39be 5137 f83c 3a4a 00be 0570 ee3c
00000010: 3f0f a6bd bcf6 44be d34f 09bd 022d ddbd
00000020: c44b 223d eb9b a6bd 0469 3cbe daaf 05bd
00000030: 9720 33be d1f9 703c 821f 3fbe 85af c3bc
00000040: 274b 00be 874b 05be 8caa 8ebd 46ef 4abe
00000050: 69ad 1d3d 9ca8 05be e80e ad3c df9a b3bd
00000060: 4a2a f43c 2fc3 babd 788d 01be

price_head.0.weight f4 [32, 64]
0.06129847 0.049520805 -0.016426202 0.11551748 0.120420136 0.10865375 0.015233234 0.043144677
-0.048709042 0.07199213 0.09743229 0.089560695 0.0200424 0.11440596 -0.0011375231 0.025966933
0.060085848 -0.0528594 0.05372703 0.090189144 -0.08336027 0.08118111 -0.052962683 0.06328286
-0.10847159 0.019019756 0.10576087 -0.059515 -0.00036124885 0.007357647 0.10734488 -0.02382236
-0.01085332 -0.01585184 0.1120941 -0.10060859 -0.11390756 0.09686068 -0.12288258 0.10491862
-0.07917023 -0.0052613616 0.116526976 0.059174273 0.03849679 0.012833114 0.022069529 0.1056391
-0.0881884 0.054946985 -0.09572891 -0.020227266 -0.08846989 0.02226399 -0.055401508 0.022191957
-0.08051407 -0.11083618 -0.053553317 -0.110758394 -0.04567652 -0.08034682 -0.08068111 -0.056723267
0.092194974 0.09141196 -0.04074847 0.0037396632 0.016189601 0.07163413 -0.050895706 -0.11491399
-0.060362436 -0.09156743 0.0059031085 0.07157958 -0.0053680884 0.021434918 0.043727323 -0.00810169
0.0420437 0.09001847 0.091926955 -0.020890266 -0.0958408 0.06287953 -0.06357985 0.07417444
0.0760046 -0.106339954 0.0056975484 -0.041349676 -0.10180864 -0.020240393 -0.06572239 0.025931638
0.023298293 0.009755895 0.034377478 0.08657409 -0.036038786 0.08493289 0.027206628 0.108817145
0.0317061 -0.0076438785 -0.08632101 0.12494643 0.04860248 -0.081842035 0.036995023 -0.122434855
-0.08455331 0.06250371 -0.014129839 -0.07918221 0.062173426 0.12056365 0.086136274 -0.018342257
0.004897033 0.041390836 -0.10977212 -0.017155558 -0.040466454 -0.044336632 -0.04484857 0.0074557513
0.10180333 -0.06476964 0.12119907 -0.09370226 0.00084652007 0.015463516 0.025793612 -0.10302472
-0.111766905 -0.10249384 0.0068816245 -0.010516524 -0.07230957 0.107561484 -0.035434425 0.004181564
-0.09137456 -0.05886893 -0.083593965 -0.06636892 -0.11176027 0.005323991 -0.0047857165 0.106113866
0.12468073 -0.071373 -0.11829217 0.09661646 -0.017671853 0.11121276 0.016603455 0.12310737
0.07997261 0.037581787 0.08169755 0.07233474 0.04806307 0.09537889 -0.11301488 -0.10260524
0.07580933 0.10603924 0.049451306 0.1098827 -0.057794496 -0.122068286 0.009886384 -0.06289992
-0.053144768 -0.009313956 -0.063081324 -0.02032289 -0.021207646 0.044826224 -0.04333435 0.007276401
0.0124641955 0.055084065 0.088262185 -0.009960741 -0.12145804 -0.07209197 -0.123491004 0.02139841
-0.059705384 -0.113383636 -0.017002765 -0.010876387 -0.013803052 -0.046719052 -0.09256147 -0.09275192
-0.043402594 -0.009894848 -0.0925293 -0.032061443 -0.006444041 -0.12425864 0.03628704 0.00044207452
0.06501636 -0.06709526 -0.042441953 0.0300162 0.07743813 -0.03381735 0.11587494 0.02512202
0.07880359 -0.040886786 0.078590274 -0.06988287 0.070075154 0.007107532 0.050482754 -0.119852014
0.07383163 -0.10010637 -0.017981635 0.042428076 -0.04611051 0.12332615 0.096859396 -0.10404988
0.094059564 0.10334487 0.0054941624 0.09142807 0.09604575 -0.07474111 0.10420512 0.0150295
0.058874503 -0.059099603 -0.0029410783 0.11467047 -0.10712859 -0.07444007 0.07756361 -0.049789995
-0.05675801 0.047661796 0.11910457 -0.034337044 0.101739444 0.08409239 -0.0019423848 -0.07869184
00000000: 1b14 7b3d 54d6 4a3d 3e90 86bc 6e94 ec3d
00000010: d59e f63d db85 de3d d094 793c 79b8 303d
00000020: 2283 47bd 9c70 933d 958a c73d 996b b73d
00000030: f62f a43c ac4d ea3d f118 95ba 9bb8 d43c
00000040: 941c 763d 1983 58bd e010 5c3d 16b5 b83d
00000050: cab8 aabd 4842 a63d 66ef 58bd 729a 813d
00000060: 5a26 debd 52cf 9b3c 2899 d83d 00c6 73bd
00000070: 0066 bdb9 6b18 f13b a2d7 db3d 1c27 c3bc
00000080: 20d2 31bc b8db 81bc 9791 e53d e00b cebd
00000090: 5e48 e9bd e45e c63d dda9 fbbd 93df d63d
000000a0: 0024 a2bd 8067 acbb b2a5 ee3d b960 723d
000000b0: cfae 1d3d fb41 523c 28cb b43c 5059 d83d
000000c0: 1f9c b4bd 1710 613d 850d c4bd a7b3 a5bc
000000d0: b42f b5bd f962 b63c b1ec 62bd e8cb b53c
000000e0: 90e4 a4bd 14fe e2bd b95a 5bbd 4cd5 e2bd
000000f0: 4d17 3bbd e08c a4bd 233c a5bd a856 68bd
00000100: b8d0 bc3d 3236 bb3d dee7 26bd 2315 753b
00000110: 0ea0 843c eab4 923d 0478 50bd 0758 ebbd
00000120: 9a3e 77bd b487 bbbd dd6e c13b 5198 923d
00000130: cae6 afbb 4898 af3c 6c1b 333d f3bc 04bc
00000140: 0436 2c3d 9b5b b83d 3344 bc3d 1022 abbc
00000150: 2e48 c4bd fcc6 803d 2736 82bd c5e8 973d
00000160: 4da8 9b3d c3c8 d9bd 80b2 ba3b 475e 29bd
00000170: 0c81 d0bd 2ecf a5bc 7699 86bd 966e d43c
00000180: 10dc be3c 30d7 1f3c 66cf 0c3d c24d b13d
00000190: 689d 13bd 4cf1 ad3d 6fe0 de3c 86db de3d
000001a0: 41de 013d 8079 fabb 12c9 b0bd eae3 ff3d
000001b0: 6513 473d cc9c a7bd 1888 173d 20bf fabd
000001c0: 492a adbd f201 803d d780 67bc 482a a2bd
000001d0: 90a9 7e3d 13ea f63d 3768 b03d 8042 96bc
000001e0: 4a77 a03b 7089 293d 35d0 e0bd d089 8cbc
000001f0: 27c0 25bd 549a 35bd 22b3 37bd 604f f43b
00000200: 447e d03d f2a5 84bd 3837 f83d f8e6 bfbd
00000210: 00e9 5d3a b05a 7d3c 204d d33c a0fe d2bd
00000220: 0ce6 e4bd 4ae8 d1bd 407f e13b 804d 2cbc
00000230: 0a17 94bd 3249 dc3d b023 11bd 8005 893b
00000240: 9622 bbbd 8c20 71bd 5033 abbd 6eec 87bd
00000250: 92e2 e4bd e074 ae3b 80d1 9cbb 3a52 d93d
00000260: 9c58 ff3d 022c 92bd 2a43 f2bd dade c53d
00000270: 90c4 90bc 84c3 e33d f803 883c b81f fc3d
00000280: aec8 a33d 5cef 193d 0c51 a73d 3c24 943d
00000290: c8dd 443d 0256 c33d 5874 e7bd b222 d2bd
000002a0: ec41 9b3d 1a2b d93d 748d 4a3d 2e0a e13d
000002b0: ecb9 6cbd f0fe f9bd 80fa 213c acd1 80bd
000002c0: 54ae 59bd 9099 18bc c830 81bd 307c a6bc
000002d0: a8bb adbc b49b 373d 5c7f 31bd e06e ee3b
000002e0: a036 4c3c d49f 613d cec2 b43d 6032 23bc
000002f0: febe f8bd f4a4 93bd dae8 fcbd b84b af3c
00000300: a28d 74bd ae35 e8bd 6249 8bbc e032 32bc
00000310: 3226 62bc 7a5c 3fbd de90 bdbd b8f4 bdbd
00000320: ebc6 31bd 001e 22bc 0080 bdbd dc52 03bd
00000330: 8928 d3bb 507b febd b8a1 143d 3dc6 e739
00000340: 4c27 853d 3d69 89bd 9dd7 2dbd 89e4 f53c
00000350: e297 9e3d 1084 0abd d74f ed3d b2cc cd3c
00000360: c763 a13d e778 27bd f0f3 a03d c01e 8fbd
00000370: 9083 8f3d 4de6 e83b 01c7 4e3d f974 f5bd
00000380: 0a35 973d 9204 cdbd 394e 93bc 10c9 2d3d
00000390: 60de 3cbd 6c92 fc3d 385e c63d 1a18 d5bd
000003a0: 4da2 c03d 7aa6 d33d 6008 b43b a43e bb3d
000003b0: a2b3 c43d de11 99bd 7e69 d53d 4b3e 763c
000003c0: 6426 713d 6d12 72bd 1bbf 40bb 5ad8 ea3d
000003d0: 3c66 dbbd 0974 98bd acd9 9e3d 98f0 4bbd
000003e0: 167b 68bd 0439 433d 19ed f33d 00a5 0cbd
000003f0: c55c d03d a238 ac3d 9e97 feba 3029 a1bd

price_head.0.bias f4 [32]
-0.018397834 0.0362779 0.03234476 -0.105780855 -0.09148069 -0.035035387 0.036757194 0.059012398
-0.051128566 -0.05078278 0.013811035 0.17247257 -0.0677312 0.17051175 -0.094797015 0.10215315
0.06399559 0.24399088 0.018139483 0.032067597 0.08512318 0.002254984 0.032560814 0.040374804
0.056947507 0.04206516 0.0024306164 -0.231615 -0.02148661 0.007882735 -0.016078547 -0.009708896
00000000: 0eb7 96bc 2398 143d f07b 043d a2a3 d8bd
00000010: 3a5a bbbd 4481 0fbd b68e 163d fcb6 713d
00000020: 306c 51bd 9b01 50bd ae47 623c a69c 303e
00000030: a8b6 8abd a29a 2e3e f024 c2bd ac35 d13d
00000040: 1f10 833d bfd8 793e 4199 943c 5059 033d
00000050: 1055 ae3d 5bc8 133b 7d5e 053d 0d60 253d
00000060: ca41 693d 844c 2c3d fa4a 1f3b 7c2c 6dbe
00000070: b004 b0bc 9626 013c 28b7 83bc 1012 1fbc

price_head.2.weight f4 [1, 32]
-0.024843019 -0.13030317 -0.10043704 -0.13192628 -0.16684325 0.016242754 0.09620297 0.012535423
-0.081096195 -0.041757025 -0.16391696 0.17671432 -0.06913748 0.024196541 0.09694276 0.07225036
0.101822734 0.00977852 -0.053574286 0.0880804 -0.14443329 -0.07146206 -0.13467036 -0.056691766
0.07971504 -0.06344595 0.05094638 -0.08701549 -0.012063776 -0.032979935 -0.088397704 -0.00081153755
00000000: 9683 cbbc 326e 05be efb1 cdbd af17 07be
00000010: f5d8 2abe 860f 853c 1006 c53d 6061 4d3c
00000020: c315 a6bd 6a09 2bbd d9d9 27be 99f4 343e
00000030: f397 8dbd d337 c63c ed89 c63d fff7 933d
00000040: 7088 d03d 1636 203c b670 5bbd 7f63 b43d
00000050: 52e6 13be b35a 92bd 07e7 09be a035 68bd
00000060: a441 a33d f3ef 81bd 27ad 503d 2d35 b2bd
00000070: 25a7 45bc f815 07bd db09 b5bd 5dbd 54ba
