DQN_Agent/Models_Saved/multi_task_DQN.pth (torch, 84066 bytes, 11 tensors)

main_trunk.0.weight f4 [128, 27]
0	0x3cd65ddd	0.026167804
1	0xbe1ad9c6	-0.15122136
2	0xbd8885ca	-0.06666143
3	0x3e113042	0.14178565
4	0xbc610c70	-0.0137358755
5	0xbdcf914f	-0.10135137
6	0xbdcfbd46	-0.10143523
7	0xbe3dbe4a	-0.18529621
8	0x3d082d28	0.03324619
9	0xbd9881b9	-0.07446618
10	0xbd6aff71	-0.057372514
11	0x3dd378df	0.10325789
12	0x3e0725a0	0.13197947
13	0xbe35f4a8	-0.1776911
14	0xbe18c0dc	-0.1491732
15	0x3e4264ce	0.18983766
16	0xbd879b88	-0.06621462
17	0xbe2371f2	-0.15961435
18	0x3dc253d8	0.09488648
19	0x3df16c0c	0.117881864
20	0xbde01cb7	-0.10942977
21	0x3e41fbee	0.1894376
22	0xbe3e2054	-0.1856702
23	0xbe1f82ac	-0.15577191
24	0xbe313c27	-0.17308103
25	0x3d4ddd85	0.050260086
26	0xbde4de43	-0.111752056
27	0xbe2f4e63	-0.17119746
28	0x3e2ac2c6	0.16675863
29	0xbafa2189	-0.0019083481
30	0xbd8ee621	-0.06977487
31	0x3b56410c	0.003269258
32	0xbe0c8682	-0.13723186
33	0xbdb4e419	-0.08832569
34	0xb9ccabb1	-0.00039037832
35	0x3cd48199	0.025940703
36	0xbc612e80	-0.013743997
37	0x3e1fdcca	0.15611568
38	0x3e125580	0.14290428
39	0xbdd263f9	-0.102729745
40	0xbe11c203	-0.14234166
41	0xbe2c71b3	-0.16840248
42	0x3dfb5b7e	0.1227331
43	0xbe1ba267	-0.1519867
44	0x3e10d52a	0.14143816
45	0x3da6516e	0.08121
46	0x3e1a0d53	0.15044145
47	0x3d5b252d	0.05350225
48	0xbda49902	-0.080369964
49	0xbe1ddf52	-0.15417221
50	0xbced816e	-0.028992381
51	0xbe329e18	-0.1744312
52	0x3da556e5	0.080732144
53	0xbe3c9593	-0.18416433
54	0xc063270b	-3.549258
55	0xc04c742c	-3.1945906
56	0xc0471b66	-3.1110473
57	0xc068697a	-3.6314378
58	0xc06295e2	-3.5403981
59	0xc06064c8	-3.5061512
60	0xc058e273	-3.3888214
61	0xc05a0d75	-3.4070714
62	0xc05f161e	-3.485725
63	0xc05976de	-3.39788
64	0xc066c321	-3.6056597
65	0xc0608bc5	-3.5085309
66	0xc060e245	-3.5138104
67	0xc05d9426	-3.4621673
68	0xc042e36b	-3.0451305
69	0xc05e39c4	-3.4722757
70	0xc0614204	-3.5196543
71	0xc062bf13	-3.5429122
72	0xc06562d3	-3.5841568
73	0xc058b06d	-3.3857682
74	0xc062f965	-3.5464718
75	0xc0581e16	-3.3768363
76	0xc0580358	-3.375204
77	0xc05af6c8	-3.4213123
78	0xc05bd84b	-3.4350765
79	0xc05b3719	-3.425238
80	0x3c693cd0	0.01423569
81	0x3e0a184d	0.13485833
82	0x3e115cb9	0.14195527
83	0xbe042440	-0.12904453
84	0xbdb0741d	-0.08615897
85	0x3d07e78f	0.033179816
86	0xbe2b2b04	-0.16715628
87	0x3d6c4894	0.057686403
88	0xbe20cdd4	-0.15703517
89	0xbd64b53c	-0.0558369
90	0x3e126720	0.14297152
91	0x3d72d226	0.059282444
92	0xbe274fed	-0.16339083
93	0xbe1eba79	-0.15500821
94	0xbe210db7	-0.15727888
95	0xbe224ef6	-0.15850434
96	0x3e4151f4	0.18878919
97	0xbcec8ba0	-0.028875172
98	0x3d89f892	0.06736864
99	0x3dbe2cb0	0.09285867
100	0xbe2f45e7	-0.1711651
101	0x3dc04469	0.09388048
102	0xbe19f352	-0.15034226
103	0x3d44cd26	0.048047207
104	0xbd2f5ac4	-0.04281117
105	0x3c211211	0.0098309675
106	0xbe2fb9c5	-0.17160709
107	0xbcb5b5e2	-0.022181455
108	0xbf4713e0	-0.777647
109	0xbfea7b4c	-1.8318877
110	0xc0041df7	-2.064329
111	0xbf9bde82	-1.2177279
112	0xbf662f37	-0.89915794
113	0xbf4cf3c1	-0.8005944
114	0xbf54d4be	-0.8313712
115	0xbf48d5cd	-0.78451234
116	0xbf79237f	-0.9731979
117	0xbf71d94f	-0.9447221
118	0xbf7223f2	-0.945861
119	0xbf2107de	-0.6290263
120	0xbf77823a	-0.96683085
121	0xbf8c835c	-1.0977588
122	0xbf921603	-1.1412967
123	0xbf32cc61	-0.6984311
124	0xbf15725c	-0.58377624
125	0xbf7acf3b	-0.9797246
126	0xbf5e31fd	-0.86795026
127	0xbf2e2d04	-0.6803744
128	0xbf84deef	-1.0380534
129	0xbf4329da	-0.76235735
130	0xbf4e9cd5	-0.80708057
131	0xbf21f9df	-0.632719
132	0xbf36a5a6	-0.7134651
133	0xbf6a3f37	-0.9150271
134	0xb8c40588	-9.3470386e-05
135	0xbd07e0e6	-0.033173464
136	0xbc1f30c0	-0.009716213
137	0xbddec4e7	-0.108774
138	0xbbb9165e	-0.0056484183
139	0x3d9ff995	0.07811276
140	0xbbe130cf	-0.0068722735
141	0xbdd78506	-0.10523419
142	0x3d3ba173	0.045808267
143	0x3da12f40	0.0787034
144	0xbd96a663	-0.073559545
145	0x3e3f9df2	0.18712595
146	0xbe28d89e	-0.16488883
147	0xbe1c1de2	-0.15245774
148	0xbda57790	-0.08079445
149	0xbdb60f24	-0.088896066
150	0xbe2d7623	-0.16939597
151	0x3dae1cef	0.085016124
152	0x3c95b053	0.018272555
153	0xbd51ab64	-0.05118884
154	0x3e0e673b	0.13906567
155	0xbce1d44c	-0.027567051
156	0x3db8b1fb	0.09018322
157	0x3d9ea32e	0.07745968
158	0xba4fda24	-0.0007928929
159	0x3dfa5d6f	0.12224852
160	0x3d94fa73	0.07274332
161	0xbdfbf294	-0.123021275
162	0x406e074c	3.7191954
163	0x3f133c3b	0.5751378
164	0x40244558	2.5667324
165	0x3d48bcc3	0.049008142
166	0x3e2419ec	0.16025513
167	0xbedebae0	-0.4350195
168	0xbf37b067	-0.71753544
169	0x3f841812	1.0319846
170	0xbebad3a8	-0.36489606
171	0xbf0b28d1	-0.54359156
172	0x3e645cb2	0.22300985
173	0x3f0005be	0.5000876
174	0xbefe8bea	-0.4971612
175	0x3e7023df	0.23451184
176	0xbf905d20	-1.127842
177	0xbf2bcba9	-0.67107636
178	0x3e2b63f3	0.16737346
179	0xbee6282c	-0.44952524
180	0x3ef74942	0.4829808
181	0xbe16e544	-0.14735895
182	0x3ec98f93	0.3936735
183	0xbf14e384	-0.5815966
184	0xbe712ff5	-0.2355345
185	0xbea512b5	-0.32240835
186	0xbeaf7c85	-0.34274688
187	0x3f16a04d	0.5883835
188	0xbe478321	-0.19483615
189	0x3f9d3d13	1.2284263
190	0x4081ba84	4.054018
191	0x406fc1d6	3.7462058
192	0x3d877888	0.066147864
193	0xbf33d65c	-0.7024896
194	0xbcc8ebf6	-0.024526577
195	0x3efda9bb	0.49543557
196	0xbd4317ba	-0.04763005
197	0xbe4ea6b9	-0.20180787
198	0x3df1a054	0.11798158
199	0x3e22c90c	0.15897006
200	0x3f10b901	0.56532294
201	0xbe4e7ddc	-0.20165199
202	0x3f1b3723	0.60631007
203	0xc081247c	-4.0357037
204	0x3ed281bb	0.41114601
205	0xbf27402f	-0.6533231
206	0xbe1c5bac	-0.15269345
207	0xbc844100	-0.016144276
208	0x3e053420	0.13008165
209	0x3f244793	0.64171714
210	0xbeec5bc1	-0.46163753
211	0x3e9f3634	0.3109604
212	0x3f397eef	0.7245931
213	0x3e22759d	0.15865178
214	0x3d595ceb	0.05306713
215	0xbd642fac	-0.055709526
216	0x414fe8f3	12.994372
217	0x40608ea5	3.5087063
218	0x40402693	3.0023544
219	0xbf8f03e4	-1.1173062
220	0xbf9f22dd	-1.2432514
221	0xbf946fc4	-1.1596608
222	0xbfbf98a0	-1.4968452
223	0xbf8a280f	-1.0793475
224	0xbfac5f57	-1.3466595
225	0xbfbc9c6f	-1.473524
226	0xbf667687	-0.9002461
227	0xbf87c36e	-1.0606515
228	0xbfae0fbe	-1.3598554
229	0xbfc2cdd9	-1.521907
230	0x413fffdd	11.999967
231	0xbf8e0134	-1.1094117
232	0xbfa93b2e	-1.3221185
233	0xbfab34c8	-1.3375483
234	0xbf9926ae	-1.1964929
235	0xbf99d736	-1.2018802
236	0xbf7be4e7	-0.9839615
237	0xbf4c603b	-0.79834336
238	0xbf5e1f18	-0.86766195
239	0xbfb9a518	-1.4503508
240	0xbfadb068	-1.356946
241	0xbfae2ee6	-1.3608062
242	0x3b5d4b6c	0.0033766879
243	0xbf410109	-0.75392205
244	0xbf86fef8	-1.054656
245	0xbfdfbd1f	-1.747959
246	0xbf259b2b	-0.6468989
247	0xbf20af8d	-0.6276787
248	0xbf58f20d	-0.8474434
249	0xbf379e2a	-0.71725714
250	0xbe8775a9	-0.26456955
251	0xbf67a05f	-0.9047908
252	0xbf435ef2	-0.7631675
253	0xbf1a2f18	-0.6022811
254	0xbf0100cc	-0.5039184
255	0xbf1de379	-0.6167522

main_trunk.0.bias f4 [128]
0	0x3dee7659	0.11643667
1	0xbd98ee8b	-0.074673735
2	0xc08aa30d	-4.3324037
3	0x3e3faaf8	0.18717563
4	0xbfc70dc9	-1.5551082
5	0xbe3c9df6	-0.18419632
6	0x3edac9bc	0.42732036
7	0x3ef947ff	0.4868774
8	0x3eccc74c	0.399958
9	0xbf933414	-1.1500268
10	0x3dea4442	0.114388004
11	0x3f250394	0.64458585
12	0x3e0475e6	0.129356
13	0x3ff4241f	1.9073523
14	0x3f982aba	1.1888039
15	0xbe1f742b	-0.15571658
16	0x3e069529	0.13142838
17	0xbe0eaf09	-0.13933958
18	0xbdbf7af3	-0.093496226
19	0x3d2dd396	0.042438112
20	0xc08bfdaf	-4.374717
21	0x3c9a4fe5	0.018836925
22	0x3f0aa7c7	0.5416226
23	0xbe13b832	-0.14425734
24	0xc0905a6a	-4.511037
25	0xbf9d82c0	-1.2305527
26	0x3d94289b	0.072343074
27	0x3ee214d4	0.44156516
28	0xbf22939f	-0.635065
29	0x4008d502	2.138001
30	0x3f0c62bd	0.5483816
31	0x4052d11e	3.2940135
32	0x3e438efd	0.19097514
33	0xbfc4d487	-1.5377358
34	0x3e0790be	0.13238809
35	0xbdaa93ff	-0.08329009
36	0xbed19955	-0.40937296
37	0x3f0f73c9	0.5603605
38	0xbdf18bd0	-0.11794245
39	0xbd385314	-0.045001104
40	0x3f25a2ad	0.6470135
41	0xc09b0777	-4.844661
42	0xbf73d3c6	-0.95245016
43	0xbdf71fa0	-0.12066579
44	0x3c0ed366	0.0087173935
45	0x3e0a1cda	0.13487568
46	0xbfccbb20	-1.5994606
47	0x3e00fa53	0.12595491
48	0x3fb74aaa	1.4319661
49	0x3de9c3df	0.114143126
50	0xbdbb10a5	-0.09134034
51	0x3f5e1b80	0.8676071
52	0xc09456d1	-4.6355977
53	0xc07d4e71	-3.9579127
54	0x3f3a370d	0.7274025
55	0x3fdedb61	1.7410699
56	0xc086cf63	-4.2128158
57	0xbf9bfd46	-1.2186668
58	0x3f8ba7d4	1.0910592
59	0xbd7b28ed	-0.061318327
60	0x3d6a4396	0.05719336
61	0xbf9e92fb	-1.2388605
62	0xbe04d4de	-0.12971827
63	0x3dc956e3	0.098310255
64	0x3e0f38df	0.13986538
65	0x40699639	3.6497939
66	0x3dca3b37	0.098745756
67	0xbda1a8e7	-0.07893544
68	0x3b1543bc	0.0022775969
69	0xbd82c92e	-0.06386028
70	0x3f944986	1.1584938
71	0x40045770	2.0678368
72	0x3fe12ec0	1.7592392
73	0x3e07f3b7	0.13276564
74	0xc014f887	-2.327669
75	0x405f51ed	3.4893754
76	0xbf98280b	-1.188722
77	0xbf908edb	-1.1293596
78	0x3dcf6e4f	0.101284616
79	0xbd6de980	-0.05808401
80	0xbc86ae03	-0.016440397
81	0x3d66384d	0.056206036
82	0x40106ffe	2.2568355
83	0x3f92f8dc	1.1482196
84	0xbfa25d5f	-1.2684745
85	0x3ff4cb66	1.9124572
86	0x3daf3af6	0.08556168
87	0x3e1732f5	0.14765532
88	0x3e766230	0.24060893
89	0xbca9cca7	-0.020727469
90	0x406de7cc	3.7172728
91	0x3f8e0175	1.1094195
92	0xbd8c490d	-0.06849871
93	0xbe1f9968	-0.15585864
94	0xc05fe5cd	-3.498401
95	0x3f831829	1.0241748
96	0x3d8112c7	0.063024096
97	0x3fe4fa25	1.7888838
98	0x3f0b4b3f	0.5441169
99	0xbf991c75	-1.1961809
100	0xbdbc92b0	-0.09207666
101	0xc092ae15	-4.5837502
102	0x405105e0	3.2659836
103	0x3e36a6ba	0.17837039
104	0x3fda9f32	1.7079833
105	0xbfc859ee	-1.5652444
106	0x3e3556c5	0.17708881
107	0x405be374	3.4357576
108	0xbfaaab35	-1.3333498
109	0xbfc8981d	-1.5671421
110	0x3e1b2bf6	0.15153489
111	0x3e44b1c0	0.19208431
112	0x3f76491d	0.9620531
113	0xc04631ee	-3.0967975
114	0x401dd830	2.46632
115	0xbddc5803	-0.107589744
116	0x4080256f	4.0045695
117	0xbf9caa68	-1.2239504
118	0xbe2f935d	-0.17146058
119	0xc05f6320	-3.490425
120	0xbd54aab0	-0.051920593
121	0xbcea26dd	-0.028582985
122	0x4060b881	3.5112612
123	0x3d8e755a	0.06955977
124	0xbf04d6ca	-0.5189024
125	0xbf733cd7	-0.9501471
126	0x3da0e4de	0.07856153
127	0x3d898d01	0.067163475

main_trunk.2.weight f4 [64, 128]
0	0xbb0cff81	-0.0021514597
1	0xbc6bd954	-0.014395077
2	0x3ef70d2c	0.48252237
3	0x3c830f93	0.015998637
4	0xbda010be	-0.07815693
5	0xbd0b8369	-0.03406087
6	0x3d36e022	0.044647343
7	0x3e466504	0.19374472
8	0x3ea98162	0.33106524
9	0xbd0f03ea	-0.034915842
10	0xbd2fcc84	-0.04291965
11	0x3e97df67	0.2966263
12	0x3d13a0d9	0.03604207
13	0x3eb09a96	0.3449294
14	0xbdfef484	-0.124489814
15	0xbb396310	-0.0028287806
16	0xbd4188bd	-0.047249544
17	0x3bdfeb06	0.006833437
18	0xbd3b4461	-0.045719508
19	0xbc1f46ea	-0.009721497
20	0x3ef18d99	0.47178343
21	0x3d3cf489	0.046131644
22	0xbf416397	-0.7554259
23	0xbd3539a4	-0.044244424
24	0x3e71fe1f	0.23632096
25	0x3d0edc5b	0.034878116
26	0xbd9a0b8d	-0.075217344
27	0x3d94549d	0.07242701
28	0x3cbf487e	0.023349997
29	0x3e7846a3	0.24245696
30	0x3f8561cf	1.0420474
31	0xbc26b8d0	-0.010175899
32	0xbcdb7939	-0.026791202
33	0x3e0edfda	0.1395258
34	0xbbf11e88	-0.007358376
35	0x3daa23b6	0.083075926
36	0xbd8d122a	-0.0688823
37	0xbe9701d3	-0.2949358
38	0x3cc46537	0.023974044
39	0xbcfadd2f	-0.030623047
40	0xbf12ffa7	-0.57421345
41	0x3ed15f38	0.4089296
42	0x3b89cacb	0.004205083
43	0xbd7d59ab	-0.061853092
44	0xbda92c8e	-0.08260451
45	0xbb0538ff	-0.0020328162
46	0x3cdd6e4a	0.027030129
47	0xbd1bf8f0	-0.038079202
48	0xbed3e49d	-0.41385356
49	0xbc759ad4	-0.014990527
50	0x3ccb5bbe	0.02482402
51	0xbd3538a7	-0.04424348
52	0x3eb509bf	0.35358998
53	0x3e47c3de	0.19508311
54	0xbe992081	-0.2990761
55	0x3d085c34	0.033291057
56	0x3eb0b3b6	0.3451211
57	0x3d2d0e8c	0.0422502
58	0xbef59fb7	-0.47973415
59	0x3d6c0c4e	0.057628922
60	0x3cd02ee1	0.025412979
61	0xbcaeded2	-0.021346483
62	0xbd519c1d	-0.05117427
63	0x3bb3929a	0.0054801228
64	0xbce78ecb	-0.028266331
65	0xbece9342	-0.40346724
66	0x3d32554a	0.04353837
67	0x3d496eef	0.04917806
68	0x3c002d3f	0.0078232875
69	0x3cffc62d	0.031222427
70	0x3f1a9032	0.60376275
71	0x3d995b48	0.07488114
72	0x3d294689	0.041327033
73	0x3d5cda37	0.053919043
74	0x3dff19e9	0.12456114
75	0x3e889860	0.26678753
76	0x3d89759d	0.06711886
77	0xbd6422a1	-0.055697087
78	0xbdb3bfd3	-0.08776822
79	0x3cef3389	0.029199379
80	0x3da2c667	0.079479985
81	0x3d4073a4	0.046985283
82	0x3f31d42c	0.69464374
83	0xbcc51dde	-0.024062093
84	0x3d932af7	0.07185929
85	0xbed17372	-0.4090839
86	0xbda9f4d4	-0.082986504
87	0x3d7aee11	0.061262194
88	0xbe58b8ac	-0.21164197
89	0x3d8a0282	0.067387596
90	0xbed20698	-0.41020656
91	0xbcb646db	-0.022250583
92	0x3d948fcf	0.07253992
93	0xbd950967	-0.07277184
94	0x3e97e349	0.29665592
95	0xbef8c469	-0.4858735
96	0x3c2c3115	0.010509749
97	0xbe4d4d24	-0.20048958
98	0x3d9539ff	0.072864525
99	0xbd544433	-0.051822852
100	0xbd24d1f8	-0.040239304
101	0x3ed9196b	0.42402205
102	0xbe0e1e50	-0.13878751
103	0xbccbb9b8	-0.024868831
104	0x3f49a957	0.7877402
105	0x3d6169db	0.055032592
106	0xbd8a47a2	-0.06751944
107	0x3e43ef81	0.19134332
108	0x3dbb86e6	0.09156589
109	0x3d63999f	0.055566426
110	0x3da4bb4c	0.080435365
111	0xbd2cae5c	-0.04215847
112	0x3b36292d	0.0027795539
113	0x3eb378eb	0.3505319
114	0x3e87e40e	0.2654118
115	0x387aa00a	5.9753693e-05
116	0xbf036522	-0.5132619
117	0x3e09e0b5	0.13464625
118	0xbd8ff22a	-0.07028611
119	0x3e80c688	0.25151467
120	0x3d9859df	0.074390166
121	0x3d715427	0.058918145
122	0x3d88b0fb	0.06674381
123	0xbcc48355	-0.023988405
124	0x3cef084b	0.02917876
125	0x3d80b8a5	0.06285218
126	0x3e50f0af	0.20404314
127	0x3d0585e8	0.032598406
128	0x3dad65ba	0.084666684
129	0xbd133971	-0.035943452
130	0xbdd20378	-0.10254568
131	0x3cdc8116	0.026917022
132	0xbc016432	-0.007897424
133	0xbdb2be4a	-0.08727701
134	0x3c268ad4	0.010164935
135	0xbca58010	-0.020202667
136	0xbdbc4f27	-0.091947846
137	0x3d822c43	0.063560985
138	0xbab66845	-0.0013916573
139	0xbd2acd04	-0.041699424
140	0x3d4471a5	0.047959942
141	0xbd0aab60	-0.033854842
142	0xbd43fd53	-0.04784901
143	0xbd95801c	-0.072998255
144	0xbd589353	-0.052874874
145	0x3d54def3	0.051970433
146	0xbcf26318	-0.029588267
147	0xbda2c1d0	-0.07947123
148	0xbced6286	-0.028977644
149	0xbcef0e64	-0.029181667
150	0x3cc28ebe	0.023749705
151	0xbda9b419	-0.08286304
152	0xbd98512e	-0.07437359
153	0xbd1b7280	-0.037950993
154	0xbd6055d2	-0.054769345
155	0xbd2b4277	-0.041811433
156	0xbd6b0f8c	-0.057387874
157	0xbe150a4d	-0.1455471
158	0xbe470c5d	-0.1943831
159	0x3c3eb6fc	0.011640307
160	0xbd967ff0	-0.07348621
161	0xbd88d745	-0.066816844
162	0x3d174adb	0.036936622
163	0xbda8ea96	-0.08247869
164	0x3da2ff6a	0.079588726
165	0x3da31eda	0.07964869
166	0xbd38712a	-0.045029797
167	0x3d24e83e	0.040260546
168	0x3d8b6414	0.06806198
169	0x3d4ce019	0.050018404
170	0xbbad412f	-0.0052873115
171	0xbda96443	-0.082710765
172	0x3d50ada1	0.050946835
173	0xbcfde5b2	-0.030993316
174	0xbc39e2c8	-0.011345573
175	0xbc846527	-0.016161514
176	0xbd24c76b	-0.040229242
177	0xbb8aa961	-0.0042316173
178	0x3cd62c16	0.026144069
179	0xbdc867a6	-0.09785394
180	0xbd9b5eb7	-0.07586425
181	0xbce6f034	-0.02819071
182	0x3b9ab4c9	0.0047212583
183	0x3d9a09f8	0.07521433
184	0xbc425a15	-0.011862298
185	0x3da4f9f1	0.08055485
186	0xbd4eb77f	-0.050467964
187	0x3d1e3727	0.038626816
188	0xbd307ad5	-0.04308589
189	0x3ccddfea	0.025131185
190	0x3d715936	0.05892297
191	0xbd3a484c	-0.045479104
192	0x3d7b7b7c	0.06139706
193	0xbdfdb1d3	-0.12387433
194	0x3d969008	0.073516905
195	0x3d8458d2	0.06462254
196	0xbd5e1a09	-0.054224048
197	0xbd900f14	-0.07034126
198	0xbcd13498	-0.025537774
199	0xbdb3f0e4	-0.087861806
200	0xbda1420a	-0.07873924
201	0xbcf4cba6	-0.029882263
202	0x3cf3b6cb	0.029750248
203	0x3cf1d4c7	0.029520405
204	0x3d224c50	0.03962356
205	0xbd046398	-0.032321543
206	0xbd189050	-0.037247002
207	0xbda1ed51	-0.07906593
208	0x3d8a80a4	0.067628175
209	0xbd7dff08	-0.062010795
210	0xbd13699b	-0.035989385
211	0xbd8ab371	-0.06772507
212	0x3d37bea7	0.044859555
213	0xbd55388b	-0.052055877
214	0x3d2ac44d	0.041691113
215	0x3cf0a9af	0.029377786
216	0x3d1b7be1	0.037959937
217	0x3cc0263c	0.023455732
218	0xbda2593e	-0.07927178
219	0x3b46a6f1	0.0030311907
220	0x3d5e5122	0.054276593
221	0x3d35c1ca	0.044374265
222	0xbda0c630	-0.07850301
223	0x3da22cd8	0.079187095
224	0xbd883b4d	-0.06651936
225	0x3d3720a9	0.04470888
226	0xbd347335	-0.044055182
227	0xbd2aa788	-0.041663677
228	0xbc27aae2	-0.010233613
229	0x3d5f0fd7	0.054458465
230	0x3da75981	0.081713684
231	0x3d2317b7	0.039817538
232	0xbe073bbf	-0.13206385
233	0xbbe0533c	-0.00684586
234	0x3d3b762d	0.045766998
235	0xbd1f6849	-0.038917813
236	0xbd4e0c7f	-0.050304886
237	0xbd6cab4b	-0.057780545
238	0x3cc444ee	0.02395865
239	0xbd33de43	-0.043913137
240	0xbd670cd1	-0.056408707
241	0xbd42cc7b	-0.04755829
242	0x3cf94463	0.030428117
243	0xbd922298	-0.071355045
244	0xbce9855a	-0.02850597
245	0x3d955a1a	0.07292576
246	0xbcdba894	-0.026813783
247	0xbd8d7e4c	-0.06908855
248	0x3d8afd25	0.06786565
249	0x3ce05de3	0.027388519
250	0xbc173370	-0.009228572
251	0xbd9c1e32	-0.07622947
252	0x3d43dda9	0.047818813
253	0x3ce3b5d6	0.027796667
254	0x3d522465	0.05130424
255	0x3dafc006	0.085815474

main_trunk.2.bias f4 [64]
0	0xbfa760c7	-1.3076409
1	0xbcfbf6a9	-0.030757265
2	0xbdb99b57	-0.09062832
3	0xbf3293e3	-0.6975691
4	0x3d6336be	0.055472128
5	0x3fb2b3cd	1.3961121
6	0xbd3e32b8	-0.046435088
7	0xbcfac136	-0.030609708
8	0xbe29c4f1	-0.16579033
9	0xbc825a09	-0.015912073
10	0x3f8bc55e	1.0919607
11	0xbe76433a	-0.24049082
12	0xbf091f55	-0.53563434
13	0xbd47cdd6	-0.048780285
14	0x3f585110	0.8449869
15	0xbba87a63	-0.0051415428
16	0x404b64c8	3.1780262
17	0x3d057a66	0.03258743
18	0x3f254cb6	0.64570177
19	0x4066e06e	3.607448
20	0xc0aa979f	-5.3310084
21	0xbe5b95bd	-0.2144384
22	0x3d122c0c	0.035686538
23	0x3d15d9f9	0.036584828
24	0xc07c3b6f	-3.9411275
25	0x405419d0	3.3140755
26	0xbddb1489	-0.10697276
27	0x3fe1f859	1.7653915
28	0x3fc23af6	1.5174243
29	0xbc187902	-0.009306194
30	0xc0888888	-4.2666664
31	0x3f05898c	0.52163005
32	0x3c96f94f	0.018429426
33	0xbd8c77c4	-0.06858781
34	0x3c8dd8b2	0.017315242
35	0xbe1fee5d	-0.15618272
36	0xbda51e8b	-0.08062466
37	0xbd9e2bec	-0.07723221
38	0xbce9134d	-0.028451586
39	0x3d15e3de	0.036594264
40	0xbddc97ec	-0.10771164
41	0x3c88bacf	0.01669064
42	0x401b6352	2.427937
43	0xbb975977	-0.0046188193
44	0x4062177e	3.5326838
45	0xbb106e0a	-0.0022038245
46	0xbbe10c3b	-0.006867913
47	0xbe0561ed	-0.13025637
48	0xc0466b13	-3.1002853
49	0x3d4547d4	0.048164204
50	0x3d7da07b	0.061920624
51	0xbd739233	-0.0594656
52	0xbbcc66f9	-0.0062378612
53	0x3cf46dc4	0.029837497
54	0x3c6bc319	0.014389777
55	0x3d19668b	0.03745131
56	0x3f114b17	0.56755203
57	0xbdce132e	-0.10062252
58	0x3d4fa58b	0.050694983
59	0x40668566	3.601892
60	0x40658ff6	3.5869117
61	0xbd86a681	-0.06574727
62	0xbca7e640	-0.020495534
63	0xbd37d4dc	-0.044880733

keyword_head.0.weight f4 [64, 64]
0	0xbf2bd991	-0.67128855
1	0x3d6ff869	0.05858651
2	0x3d846b10	0.06465733
3	0xbd2976d3	-0.041373085
4	0xbe0873e1	-0.13325454
5	0xbd9b960b	-0.07596978
6	0x3d71512d	0.058915306
7	0x3dda7d6d	0.10668454
8	0xbd480f8d	-0.048842955
9	0xbd6def17	-0.058089342
10	0xbe425ca3	-0.1898065
11	0x3bae75cc	0.005324101
12	0xbddb6113	-0.10711875
13	0xbbea17dd	-0.007143958
14	0xbf55192c	-0.83241534
15	0x3dc734d0	0.0972687
16	0x3b52c181	0.0032158794
17	0xbdcbc8b6	-0.09950392
18	0xbf8b79ca	-1.0896542
19	0xbd20b34a	-0.039233483
20	0xbf991e52	-1.1962378
21	0xbe1b2332	-0.15150145
22	0x3d3ff7c4	0.046867147
23	0xbd7b69ed	-0.061380316
24	0xbfee7b75	-1.8631426
25	0xbbcc2f18	-0.0062312
26	0xbc9c2ae3	-0.019063419
27	0xbec8b3d0	-0.39199686
28	0x3d97411a	0.07385464
29	0x3d97c3ba	0.07410379
30	0xbf605e77	-0.8764414
31	0xbf28622d	-0.65774804
32	0xbdca028f	-0.09863769
33	0xbdc58034	-0.096435934
34	0xbd87656e	-0.06611143
35	0xbcbbeea2	-0.022940937
36	0x3d59a063	0.053131472
37	0xbe072372	-0.13197115
38	0x3d5a2e49	0.053266797
39	0xbd063a5c	-0.0327705
40	0xbca5ad03	-0.0202241
41	0x3df5028e	0.11963378
42	0x3de4b6c8	0.11167675
43	0xbbc51dea	-0.006015529
44	0xbeb7cbfe	-0.3589782
45	0x3c8718ed	0.016491378
46	0xbc0270e0	-0.007961482
47	0xbc254ed7	-0.010089598
48	0xbfb3ce69	-1.4047366
49	0xbccb3c38	-0.024808988
50	0x3c76cb74	0.015063155
51	0x3c4e8a93	0.012606281
52	0xbdfc8e93	-0.123318814
53	0xbbc445c0	-0.00598976
54	0x3d85931a	0.06522198
55	0x3dbbba7b	0.09166428
56	0x3c364ddb	0.011126961
57	0xbb999aff	-0.0046876664
58	0xbd596c21	-0.053081635
59	0x3ed302e0	0.4121313
60	0xbd9c4f91	-0.076323636
61	0x3de31360	0.1108768
62	0xbd0f6c2b	-0.035015266
63	0xbd7a0bde	-0.061046474
64	0x3da41ffe	0.080139145
65	0x3dff56b6	0.12467711
66	0x3cc563f0	0.024095505
67	0xbdca5e83	-0.09881308
68	0xbcf38f58	-0.029731438
69	0xbcd85126	-0.026405882
70	0xbd2b2cd0	-0.041790783
71	0xbd119a9c	-0.035547838
72	0x3d20db38	0.039271563
73	0x3dfe292c	0.12410197
74	0x3d0dfb48	0.03466347
75	0xbc2759ec	-0.01021431
76	0xbd345a26	-0.044031285
77	0xbda08a96	-0.07838933
78	0x3c844e9b	0.016150763
79	0x3d39220c	0.045198485
80	0xbda6ecd7	-0.08150642
81	0xbdba3042	-0.09091236
82	0x3d2c5937	0.04207727
83	0xbd623a20	-0.055231214
84	0xbdde261b	-0.10847112
85	0x3ba8743b	0.005140809
86	0x3dfd2678	0.12360853
87	0xbd0b83a0	-0.034061074
88	0x3d8ab9ea	0.067737415
89	0xbde8d575	-0.11368839
90	0x3c53ace0	0.012919635
91	0xbdb44967	-0.08803063
92	0xbe030d67	-0.12798081
93	0x3debb2b2	0.11508693
94	0xbcd40289	-0.025880115
95	0xbda256c0	-0.079267025
96	0xbcfc0598	-0.030764386
97	0x3d8b04fe	0.067880616
98	0x3dde18de	0.10844587
99	0xbd7fc508	-0.062443763
100	0x3d26ebb8	0.040752143
101	0xbb38e500	-0.0028212667
102	0xbb9ed040	-0.0048466027
103	0xbd0d88ec	-0.034554407
104	0xbd92e974	-0.07173434
105	0x3db1a4be	0.08674
106	0xbe03b124	-0.12860543
107	0xbd39ade4	-0.04533185
108	0xbd648296	-0.0557886
109	0x3cf85320	0.030313075
110	0x3cefc930	0.029270738
111	0x3d5f9414	0.054584578
112	0x3ca9a3f9	0.020708071
113	0xbccdb3e0	-0.025110185
114	0x3cb76ef8	0.022391781
115	0x3d614b04	0.05500318
116	0xbd7c877c	-0.061652645
117	0x3ce7b228	0.028283194
118	0xbdf0498a	-0.117327765
119	0x3dd99530	0.106241584
120	0xbd8995e6	-0.06718044
121	0x3cb5cb48	0.022191659
122	0x3a9db200	0.0012031198
123	0xbd9c4ebc	-0.07632205
124	0xbcf0d537	-0.029398544
125	0xbcaab378	-0.02083753
126	0x3d4a0794	0.049323633
127	0xbca007b0	-0.019534916
128	0xbd3d9668	-0.046286017
129	0x3de57188	0.11203295
130	0x3c4c1ce0	0.012458056
131	0xbd4747f0	-0.04865259
132	0x3d45dfd0	0.048309147
133	0xbbfccab7	-0.007714595
134	0x3dbb3b40	0.091421604
135	0xbcec1748	-0.028819695
136	0x3c2a96c0	0.010411918
137	0xbdf6b8e8	-0.12046987
138	0xbcc8640a	-0.024461765
139	0x3dc9d152	0.09854378
140	0x3d88bf42	0.066771045
141	0x3db8b8ca	0.09019621
142	0x3daeb4d4	0.08530584
143	0x3c8e5500	0.017374516
144	0xbd789800	-0.060691833
145	0x3def7abe	0.11693333
146	0xbd9effee	-0.077636585
147	0xbd1e0607	-0.038579967
148	0x3a15b800	0.0005711317
149	0xbde0dfe1	-0.109802015
150	0x3dcd477c	0.100234
151	0x3c9fc730	0.01950416
152	0xbd7ba948	-0.061440736
153	0x3d68c8f7	0.05683228
154	0x3da06d5c	0.07833359
155	0xbcacea38	-0.021107778
156	0x3dbf0aee	0.093282565
157	0xbd5169c8	-0.05112627
158	0xbdd1c5e6	-0.10242824
159	0x3d6c70fc	0.057724938
160	0x3de428e6	0.11140613
161	0x3cb82460	0.022478282
162	0x3c287340	0.010281384
163	0xba3d4100	-0.00072194636
164	0xbdaf8d0a	-0.08571823
165	0xbc063e40	-0.0081935525
166	0xbdd739c4	-0.10509065
167	0xbd890586	-0.06690507
168	0xbdce2b34	-0.10066834
169	0xbd36e3a4	-0.04465069
170	0xbd967fdf	-0.07348608
171	0x3d9132f4	0.07089797
172	0xbe0b0681	-0.135767
173	0x3dd11172	0.102084056
174	0xbd95978e	-0.073042974
175	0x3dddd688	0.10831934
176	0xbdc775a6	-0.097392365
177	0xbd5bbf5c	-0.05364929
178	0x3d8f945a	0.07010718
179	0x3cf967f0	0.03044507
180	0x3de2ee36	0.110805914
181	0x3b4f0440	0.0031588227
182	0x3d98eae0	0.07466674
183	0x3d8a0828	0.06739837
184	0x3d72f701	0.059317593
185	0x3db8f44a	0.090309694
186	0xbda54f1e	-0.08071731
187	0xbd977d28	-0.073969185
188	0x3bfa3240	0.007635385
189	0x3d95b98c	0.07310781
190	0x3d5035ac	0.050832435
191	0x3ccbfe10	0.02490142
192	0xbd435a41	-0.047693495
193	0xbdcdd9b8	-0.10051292
194	0xbde7977e	-0.11308192
195	0xbd87fe24	-0.0664027
196	0x3c92c5f8	0.017916664
197	0xbe286257	-0.16443764
198	0xbcb5f610	-0.022212058
199	0x3bff1e00	0.0077855587
200	0x3cc9d2b8	0.024636611
201	0x3da7f8c2	0.08201744
202	0x3c360955	0.011110623
203	0xbd36b69c	-0.044607744
204	0xbde5cf8e	-0.112212285
205	0x3da542ce	0.080693826
206	0xbd63c83f	-0.05561089
207	0x3d0f9794	0.035056666
208	0xbd41e7c5	-0.047340173
209	0x3ca95c38	0.020673856
210	0xbd360bd9	-0.044444893
211	0x3d7db8c6	0.06194379
212	0xbd61649d	-0.055027593
213	0xbe041573	-0.12898807
214	0xbdc2e834	-0.095169455
215	0xbd80be0e	-0.0628625
216	0xbd9ae89e	-0.075638995
217	0x3c46406a	0.012100318
218	0x3d1d9c04	0.038478866
219	0xbd16634f	-0.0367158
220	0x3d70b480	0.05876589
221	0xbde1204e	-0.1099249
222	0xbc54e11e	-0.012993125
223	0xbd758b4c	-0.059947297
224	0xbd290998	-0.041268915
225	0xbdd19072	-0.10232629
226	0x3d4d2c54	0.050091103
227	0xbd39e620	-0.04538548
228	0x3dc45134	0.09585801
229	0x3dfdc2a8	0.12390643
230	0xbdf91546	-0.12162261
231	0xbdbbd038	-0.09170574
232	0xbd80ce02	-0.06289293
233	0xbd817048	-0.06320244
234	0xbdd0a35f	-0.101874106
235	0x3a5e0f00	0.0008470863
236	0x3d55bb0b	0.05218033
237	0xbd935eb6	-0.07195799
238	0x3d36a824	0.044593945
239	0xbdba859e	-0.09107517
240	0xbde62ef7	-0.112394266
241	0x3da79cdc	0.081842154
242	0x3d8f20d4	0.06988683
243	0x3a871a00	0.0010307431
244	0xbad4f580	-0.0016247481
245	0xbd8c43dc	-0.06848881
246	0xbce07270	-0.027398318
247	0x3dc25ff0	0.09490955
248	0xbd86ce2e	-0.065822944
249	0x3dfe3b32	0.12413634
250	0x3d33dab1	0.043909732
251	0xbd347cd2	-0.04406435
252	0xbe1db5f9	-0.15401448
253	0xbd2ebe58	-0.042661995
254	0x3d9b592c	0.075853676
255	0xbced6d60	-0.028982818

keyword_head.0.bias f4 [64]
0	0x3f9ec269	1.2403079
1	0x3dd3133c	0.10306403
2	0xbd940d54	-0.07229105
3	0x3d497e1b	0.04919253
4	0x3d128798	0.035773844
5	0xbda71ecd	-0.08160172
6	0xbf535013	-0.8254406
7	0xbf49e77a	-0.7886883
8	0xbc5dc75c	-0.0135363005
9	0xbf14984e	-0.580449
10	0xbc848f31	-0.01618156
11	0x3f9b8fbd	1.215324
12	0x3e8c7e77	0.27440235
13	0xbf5c5925	-0.86073524
14	0xbf269576	-0.6507181
15	0x405bebd4	3.4362688
16	0xbf45eaeb	-0.7731158
17	0x3d052cc2	0.032513388
18	0x400009df	2.0006025
19	0x405c9be4	3.4470148
20	0xbe15e30c	-0.14637393
21	0x3f546dad	0.8297985
22	0x404bb638	3.1829967
23	0x3f0c728c	0.54862285
24	0x3f395973	0.72402114
25	0x3cad38f0	0.021145314
26	0xbc9b6665	-0.018969724
27	0x3f5dfbd3	0.8671238
28	0xbe8f2c45	-0.27963462
29	0xbecfe11b	-0.4060143
30	0xbdd587d2	-0.10426296
31	0xbf4a26da	-0.7896553
32	0x3f5a59b3	0.8529312
33	0xbf8009ac	-1.0002952
34	0xbea287ce	-0.31744236
35	0x3fc1060a	1.5079968
36	0xbf4fd291	-0.81180674
37	0xbc833092	-0.016014371
38	0xbc954a39	-0.018223869
39	0xbdf1ad1b	-0.118005954
40	0x3e5c97b2	0.21542242
41	0x3fde70a8	1.737813
42	0x3bfeb73a	0.007773307
43	0x4067b3cd	3.6203492
44	0xbd767aeb	-0.060175817
45	0xbd7a1f01	-0.061064724
46	0xbc9513d5	-0.018197933
47	0x3d196949	0.037453923
48	0x3b051853	0.0020308688
49	0x3fb3f31f	1.405857
50	0xbcb5ac68	-0.022176936
51	0xbe8cb149	-0.27479008
52	0x40528981	3.2896426
53	0xbe8c07bb	-0.27349648
54	0x406c9c1d	3.6970284
55	0x3c7a311d	0.015270499
56	0x40223918	2.5347347
57	0x3d2f22ef	0.042757925
58	0xbe55213b	-0.20813458
59	0x404f4375	3.2384923
60	0x40219ff0	2.5253868
61	0xbe08102e	-0.13287422
62	0x3e4e4adf	0.20145749
63	0xbedfe603	-0.43730173

keyword_head.2.weight f4 [27, 64]
0	0xbe3139ca	-0.17307201
1	0x3bce604a	0.0062980996
2	0xbd90eb22	-0.07076098
3	0xbcc9e610	-0.024645835
4	0xbd5a8c08	-0.0533562
5	0xbd390d0e	-0.045178466
6	0x3c85becf	0.016326336
7	0x3cd375ac	0.025812946
8	0x3c84f1a8	0.016228512
9	0xbdc6111c	-0.09671232
10	0xbd904726	-0.070448205
11	0x3d974a30	0.07387197
12	0x3c50f0a9	0.01275269
13	0xbd3dcd12	-0.04633815
14	0x3cd0c264	0.025483318
15	0xbeb6f37b	-0.35732636
16	0x3dbcc895	0.092179455
17	0xbcb357e0	-0.021892488
18	0xbe0b3009	-0.13592543
19	0xbe99b2fa	-0.3001936
20	0xbd10f6b0	-0.03539151
21	0xbd4ec5d4	-0.050481632
22	0xbe8d7972	-0.27631718
23	0x3e8ccdd5	0.27500787
24	0xbd307279	-0.04307792
25	0x3ca36cb0	0.019949287
26	0xbda569a6	-0.080767915
27	0xbc827722	-0.015925948
28	0x3de11f56	0.10992305
29	0x3d3caefe	0.046065323
30	0x3de92500	0.1138401
31	0x3c80484c	0.015659474
32	0xbd90f2a5	-0.07077531
33	0xbd3e6eaf	-0.046492275
34	0x3d18678c	0.037208125
35	0xbdac7e7d	-0.08422563
36	0xbe65257c	-0.2237758
37	0x3db7f70f	0.089826696
38	0xbc2ef6f9	-0.010679
39	0x3d19b2ec	0.03752415
40	0xbd89b727	-0.06724387
41	0xbe6ffb9d	-0.23435827
42	0xbdf9f0bb	-0.12204119
43	0xbec487b1	-0.38384774
44	0xbd528a54	-0.05140145
45	0x3db92968	0.09041101
46	0xbe243dd2	-0.16039208
47	0xbd246808	-0.040138274
48	0xbd7430ef	-0.05961698
49	0xbe07e8a4	-0.13272339
50	0xbd9eb1ac	-0.07748732
51	0x3cd90f76	0.02649663
52	0xbee58ef9	-0.44835642
53	0x3d5c3039	0.053756926
54	0xbeb1f5fc	-0.34757984
55	0x3a76fd3c	0.000942189
56	0xbe9af868	-0.30267644
57	0x3daeb5bc	0.08530757
58	0x3dfe58bc	0.124192685
59	0xbeca506e	-0.39514488
60	0xbe85f218	-0.26161265
61	0x3cb221cf	0.021744637
62	0x3de2dfc8	0.11077839
63	0xbd5c1bfa	-0.053737618
64	0xbda0f111	-0.0785848
65	0xbd7e6ef8	-0.062117547
66	0x3a02be00	0.00049874187
67	0xbcd2ec96	-0.025747579
68	0x3da37a7e	0.07982348
69	0xbdefef69	-0.11715586
70	0x3d640846	0.055671953
71	0x3d243fff	0.040100094
72	0xbc820711	-0.01587251
73	0xbd643121	-0.055710915
74	0xbdd104ce	-0.102059945
75	0xbde26f5b	-0.110563956
76	0xbdfc00ba	-0.12304826
77	0xbda9a1c4	-0.082828075
78	0x3e16b3da	0.14717045
79	0xbe855d17	-0.26047584
80	0x3d747b3a	0.05968783
81	0xbd9c6f2b	-0.07638391
82	0xbdaaca32	-0.08339347
83	0xbea82e9c	-0.3284806
84	0x3d3cbedf	0.046080466
85	0xbd867465	-0.06565169
86	0xbeb62d5f	-0.3558149
87	0xbf38bdff	-0.7216491
88	0xbcaa4a40	-0.020787358
89	0xbdd7a621	-0.105297334
90	0xbdd6ec2d	-0.10494266
91	0xbcfe47d9	-0.031040119
92	0x3da32ca4	0.07967499
93	0x3dcb79ba	0.09935327
94	0x3ae8dcbc	0.0017765979
95	0x3c91f161	0.017815294
96	0xbd9d42b7	-0.076787405
97	0xbccd0c20	-0.025030196
98	0x3ccab5ea	0.024744947
99	0xbe7082c1	-0.23487379
100	0x3ed6fde1	0.4199057
101	0xbdd6ed67	-0.104945
102	0xbd24d042	-0.040237673
103	0xbdad2fa5	-0.08456353
104	0xbd78d9a7	-0.060754444
105	0xbe10df90	-0.14147782
106	0xbd58f78e	-0.05297046
107	0xbec76b22	-0.38948923
108	0x3c965bb8	0.018354282
109	0x3def8812	0.11695875
110	0xbe2c252a	-0.16811052
111	0x3df69b41	0.12041331
112	0xbd87b09c	-0.066254824
113	0xbec8c173	-0.3921009
114	0xbda13bb4	-0.078727156
115	0xbc9eca16	-0.019383471
116	0xbed3b5ee	-0.4134974
117	0x3c1a0f1b	0.0094030155
118	0xbeb625ed	-0.3557581
119	0x3c6ea617	0.014565966
120	0xbe2adca5	-0.16685732
121	0xbc8636a9	-0.016383486
122	0xbbf0134f	-0.0073265205
123	0xbed48c00	-0.41513062
124	0xbdef938e	-0.11698066
125	0x3d980aa0	0.074239016
126	0xbf0067c4	-0.50158334
127	0xbbb8298e	-0.005620188
128	0x3c84c755	0.01620833
129	0xbd14c717	-0.03632268
130	0x3d8fc4dc	0.0701997
131	0xbdaec05d	-0.08532784
132	0x3ce4a0a8	0.027908638
133	0xbe08afba	-0.13348284
134	0x3d77bf0b	0.060484927
135	0xbd8d88d5	-0.06910864
136	0x3cf30da0	0.029669583
137	0x3cf8eb5c	0.030385666
138	0x3decf13c	0.11569449
139	0xbe96a0ff	-0.29419705
140	0x3d05e909	0.032692943
141	0x3d769ce5	0.06020822
142	0x3d7893b9	0.060687754
143	0xbed561b6	-0.4167611
144	0xbd50513a	-0.050858714
145	0xbdb506cc	-0.08839187
146	0xbe30d86e	-0.17270061
147	0xbea7a9c9	-0.32746723
148	0xbd81ed24	-0.06344059
149	0xbdb2afcf	-0.08724939
150	0xbe90b871	-0.28265718
151	0xbe35f19a	-0.17767945
152	0xbeb08955	-0.34479776
153	0xbdbface5	-0.09359149
154	0xbdccb8e6	-0.09996204
155	0xbe005421	-0.12532093
156	0xbca2bd23	-0.019865578
157	0xbdee4b10	-0.11635411
158	0xbd313c22	-0.043270238
159	0x395d4437	0.00021101614
160	0xbd0f212c	-0.034943745
161	0xbd4d109b	-0.050064664
162	0xbdb6c7ff	-0.08924865
163	0xbe5e0708	-0.2168237
164	0xbec1e1d9	-0.3786762
165	0x3cef5fa1	0.029220404
166	0xbd6e9eb7	-0.05825683
167	0xbdbfdc68	-0.09368211
168	0xbe03b3ba	-0.12861529
169	0xbe933b01	-0.28755954
170	0xbcc35f87	-0.023849262
171	0xbeb216d4	-0.3478304
172	0xbcfb6a28	-0.030690268
173	0x3d46c184	0.048524395
174	0x3c8b4146	0.016998898
175	0x3de816e5	0.11332492
176	0xbc7d9d48	-0.015479393
177	0xbe95f565	-0.29288784
178	0xbd4ae49c	-0.049534425
179	0x3d973614	0.073833615
180	0xbef54fe2	-0.47912508
181	0xbbab344a	-0.005224739
182	0xbea952d4	-0.33071005
183	0xbd77502d	-0.060379196
184	0xbe5ea948	-0.21744263
185	0xbd83824a	-0.06421335
186	0xbdb2d8e9	-0.087327786
187	0xbeb8de4d	-0.36107102
188	0x3e44b3c5	0.19209202
189	0x3d54a50c	0.051915213
190	0xbd24ed3e	-0.040265314
191	0xbd0823c5	-0.033237237
192	0xbf63bb46	-0.8895763
193	0xbc97eb6f	-0.01854488
194	0xbda185fa	-0.07886882
195	0xbcb6956e	-0.02228805
196	0x3d1f50bc	0.038895354
197	0xbcbeb28b	-0.023278495
198	0x3d103930	0.03521079
199	0xbc9d0947	-0.019169463
200	0x3da20db0	0.07912767
201	0x3dc0a29a	0.09406014
202	0xbd4c4214	-0.049867705
203	0x3e95933e	0.292139
204	0xbdb33c56	-0.087517425
205	0x3dd336d1	0.1031319
206	0x3d7de8e9	0.0619897
207	0xbe1c7f5a	-0.15282956
208	0x3e071587	0.13191806
209	0xbcd8eee0	-0.026481092
210	0x3d1f420f	0.038881358
211	0xbea22751	-0.3167062
212	0x3b4dc242	0.0031396304
213	0xbd9b97d2	-0.07597317
214	0xbe73a19b	-0.23792116
215	0xbe94269c	-0.28935707
216	0xbee94b87	-0.45565435
217	0xbdb9f1d0	-0.09079325
218	0x3c6a477a	0.014299268
219	0xbdacc142	-0.084352985
220	0xbdb1f7da	-0.08689852
221	0x3c8dfc76	0.017332297
222	0x3cdc8870	0.026920527
223	0xbdecad77	-0.11556523
224	0x3d1a78a1	0.037712697
225	0x3dbbe0be	0.091737255
226	0xbd9361f3	-0.07196417
227	0xbdeab16d	-0.114596225
228	0x3e1df585	0.1542569
229	0xbca39f5f	-0.019973455
230	0x3d8ee58b	0.069773756
231	0x3db408b4	0.087907225
232	0xbe07ef96	-0.13274989
233	0xbeb6e840	-0.35724068
234	0xbcff587f	-0.031170128
235	0xbeed7e67	-0.463855
236	0xbce24f90	-0.027625829
237	0x3da0dfaa	0.078551605
238	0xbcdc418c	-0.026886724
239	0x3d8b0429	0.06787903
240	0x3d311856	0.0432361
241	0xbea7cde5	-0.32774273
242	0xbbe19200	-0.0068838596
243	0xbc985f79	-0.018600212
244	0xbed1594c	-0.4088844
245	0x3c855b3c	0.016278856
246	0xbeb76c48	-0.358248
247	0xbdcc93db	-0.09989139
248	0xbe9420fa	-0.2893141
249	0x3d6fbea9	0.058531437
250	0x3d1fb0ad	0.03898685
251	0xbee62aac	-0.4495443
252	0xbf0671a0	-0.5251713
253	0x3d99d670	0.07511604
254	0x3dcb072a	0.09913476
255	0xbd7cadba	-0.061689116

keyword_head.2.bias f4 [27]
0	0xbf9432ad	-1.1577965
1	0xc04909f8	-3.1412334
2	0xbfb19086	-1.387223
3	0xbe34bf5a	-0.1765112
4	0xbfb9b4d2	-1.4508307
5	0xbfdc410b	-1.720735
6	0xbfb55ecf	-1.4169558
7	0xbf89e5c4	-1.0773244
8	0xbf8e5f74	-1.112288
9	0xbfa53ce8	-1.2909212
10	0xbf93fff5	-1.1562487
11	0xbfd560a4	-1.6670117
12	0xbfb27905	-1.3943182
13	0xbffa2ca8	-1.9544878
14	0xbfc234b0	-1.5172329
15	0xbfb359e7	-1.4011811
16	0xbfaeb2eb	-1.3648351
17	0xbf65f0ce	-0.89820564
18	0xbfdc3c43	-1.720589
19	0xbfb5c7e9	-1.4201633
20	0xbfc1a72b	-1.5129141
21	0xbfc31093	-1.5239433
22	0xbfadb5da	-1.3571122
23	0xbfab99e9	-1.3406345
24	0xbfdc2010	-1.7197285
25	0xbf9db2a8	-1.2320147
26	0xbf713d9e	-0.94234645

price_head.0.weight f4 [32, 64]
0	0xbd2acf95	-0.041701872
1	0x3c208d80	0.009799361
2	0x3d547634	0.05187054
3	0xbc84cecf	-0.016211895
4	0xbde1abf6	-0.11019127
5	0xbe200cec	-0.1562993
6	0xbdd92420	-0.106025934
7	0xbdfaf720	-0.122541666
8	0xbda0c20a	-0.0784951
9	0xbc7c8130	-0.01541166
10	0x3c9cccef	0.019140689
11	0x3da74f6d	0.08169446
12	0xbe00fe23	-0.12596945
13	0x3dd3b116	0.10336511
14	0xbd840aee	-0.06447397
15	0xb9c8a400	-0.00038269162
16	0xbc8dc4d7	-0.017305775
17	0xbd174478	-0.03693053
18	0xbe031b06	-0.12803277
19	0x3d5bcdda	0.053663112
20	0x3be8e3f0	0.0071072504
21	0x3d76d721	0.060263757
22	0x3dd2ae08	0.102871
23	0x3d8477de	0.06468175
24	0x3c251420	0.010075599
25	0xbe073e7d	-0.13207431
26	0xbd1579e0	-0.036493182
27	0x3da42a78	0.08015913
28	0xbdaae695	-0.08344761
29	0x3d8f6be6	0.07003002
30	0x3d1b90b3	0.037979793
31	0xbde6d3ec	-0.1127089
32	0xbdc4cb72	-0.096091166
33	0xbdf97542	-0.12180568
34	0xbdf6c164	-0.12048605
35	0x3dbf93e4	0.0935438
36	0x3dab5274	0.08365336
37	0x3da61682	0.08109762
38	0xbd8e2161	-0.0693996
39	0xbda59a4a	-0.08086069
40	0xbd935d8c	-0.07195577
41	0xbd174d18	-0.036938757
42	0xbdbfe6bc	-0.09370181
43	0xbda5fbf2	-0.081046954
44	0x3b8d669a	0.0043152096
45	0x3c831c6a	0.01600476
46	0xbda08738	-0.07838291
47	0xbdb12218	-0.08649081
48	0xbdce05e5	-0.10059718
49	0x3d118214	0.035524443
50	0xbdd9f2ea	-0.10642035
51	0xbd8da77a	-0.06916709
52	0x3da130ca	0.07870634
53	0xbddb2668	-0.10700685
54	0xbd0f1f14	-0.034941748
55	0xbde2729a	-0.11057015
56	0xbdbe3222	-0.09286906
57	0x3dc82b3a	0.0977387
58	0x3d463d3d	0.048398245
59	0xbd71bf93	-0.05902059
60	0xbd1514d7	-0.036396828
61	0x3dd594e6	0.10428791
62	0xbe03d951	-0.12875868
63	0xbd866f6a	-0.06564219
64	0xbdf3a824	-0.11897305
65	0xbdb8eb28	-0.090292275
66	0xbdd2af6b	-0.102873646
67	0x3dcd241a	0.100166515
68	0xbbc3b3c0	-0.0059723556
69	0xbb2e629d	-0.002660907
70	0x3e0a3574	0.13496953
71	0x3c9d5872	0.019207213
72	0x3db4ff70	0.08837783
73	0x3de1ec64	0.11031416
74	0xbd2b97c3	-0.041892778
75	0xbce74ad3	-0.028233921
76	0xbc207618	-0.009793781
77	0xbd8e2df8	-0.069423616
78	0xbd5811e3	-0.052751433
79	0x3df9c906	0.12196545
80	0xbb15cd88	-0.0022858102
81	0xbce86a9c	-0.028371148
82	0xbdc919b2	-0.09819354
83	0x3d192991	0.037393156
84	0x3d37373a	0.044730403
85	0xbd65cbf4	-0.056102708
86	0xbd10a748	-0.03531578
87	0x3d86fa28	0.06590682
88	0xbdc9ba86	-0.0985003
89	0x3d3045ea	0.043035425
90	0xbd35d08c	-0.04438834
91	0x3b1b5b8c	0.002370569
92	0xbe324e90	-0.17412782
93	0xbd69a1f4	-0.057039216
94	0xbe022c6c	-0.12712258
95	0x3d859b34	0.06523743
96	0xbc9f53a7	-0.019449068
97	0x3df25c2c	0.11833987
98	0x3d857a16	0.06517427
99	0x3d675ec4	0.05648686
100	0xbcbe65d7	-0.02324192
101	0xbded2764	-0.11579779
102	0x3de3891d	0.11110137
103	0xbde5732e	-0.112036094
104	0x3db3a6ce	0.0877205
105	0x3db2a658	0.08723134
106	0xbdcac0c3	-0.09900048
107	0x3d302b94	0.04301031
108	0x3d4bea1d	0.049783815
109	0xbc0aceb0	-0.00847213
110	0x3d0fffd8	0.0351561
111	0xbdb93800	-0.09043884
112	0xbc244fa0	-0.01002875
113	0x3cace058	0.02110307
114	0x3da6d0e7	0.08145314
115	0x3dc0b9d6	0.094104454
116	0xbc89b260	-0.016808689
117	0x3c9dfec0	0.019286513
118	0x3dd697b6	0.10478155
119	0x3d9b89d7	0.0759465
120	0x3d1022f3	0.03518958
121	0xbddf6ce9	-0.10909445
122	0x3dd3ec45	0.10347799
123	0xbd53fd12	-0.05175502
124	0xbdb7616f	-0.08954131
125	0xbd4140e8	-0.04718104
126	0xbd5d6123	-0.054047715
127	0xbcc9f6b4	-0.02465377
128	0x3db054f1	0.08609951
129	0xbdec4c54	-0.11537996
130	0x3d939598	0.07206267
131	0x3cdfd7cf	0.027324585
132	0x3dc3428a	0.09534176
133	0xbde58f24	-0.112089425
134	0x3b3aa940	0.0028482229
135	0x3dbfeb4d	0.09371052
136	0x3d49fe88	0.049315006
137	0x3cb0bd40	0.021574616
138	0x3c960970	0.018315047
139	0xbdf1e259	-0.118107505
140	0x3c670205	0.014099603
141	0x3df45be4	0.11931589
142	0x3cde47bb	0.027133813
143	0xbd07b4b8	-0.03313133
144	0xbd807610	-0.06272519
145	0x3c63652b	0.013879101
146	0xbcb4ddd3	-0.02207843
147	0xbdc5b75f	-0.09654116
148	0xbde089a6	-0.10963754
149	0xbdf9186c	-0.12162861
150	0x3df0c730	0.11756742
151	0xbda6ec38	-0.08150524
152	0xbde9b01b	-0.114105426
153	0xbe03b71b	-0.12862818
154	0xbc907a18	-0.017636344
155	0x3d8e9503	0.069620155
156	0xbd5df16c	-0.054185316
157	0xbd5d180c	-0.05397801
158	0xbd5fed2b	-0.05466954
159	0xbcbdfe68	-0.0231926
160	0xbd7d82fc	-0.061892495
161	0xbc85bd08	-0.016325489
162	0x3c9d85b0	0.019228786
163	0x3d288672	0.041143842
164	0x3dfbd448	0.12296349
165	0x3dd640f2	0.10461606
166	0x3d1aa37f	0.03775358
167	0x3ddaab26	0.10677175
168	0x3dede1a4	0.11615303
169	0xbdd71cac	-0.105035156
170	0x3d866f1c	0.06564161
171	0x3d2385c8	0.039922506
172	0xbd15ef65	-0.036605258
173	0xbdfb1823	-0.12260463
174	0xbde605a0	-0.11231542
175	0x3d67fff4	0.05664058
176	0x3caecc75	0.021337727
177	0xbb4a1c80	-0.0030839741
178	0x3d97140d	0.07376871
179	0x3cd71d46	0.026259076
180	0xbd6e88e0	-0.058236003
181	0x3db94a8a	0.0904742
182	0xbd86942c	-0.0657123
183	0xbd9bcfa4	-0.07607964
184	0xbc03dd29	-0.008048334
185	0xbd518fa4	-0.051162377
186	0x3cc179e0	0.023617685
187	0xbcc50a18	-0.024052665
188	0x3d038e10	0.032117903
189	0x3dfe8ea4	0.1242955
190	0x3c0a562d	0.0084433975
191	0xb9c14400	-0.00036862493
192	0xbe057fcc	-0.13037032
193	0x3d776a84	0.060404316
194	0xba8a3e80	-0.0010547191
195	0xbd9f7ea7	-0.07787829
196	0xbca72a30	-0.020405859
197	0x3db2cb7a	0.08730216
198	0xbd2c31f0	-0.04203981
199	0xbdd0c08c	-0.101929754
200	0xbdfd0e60	-0.123562574
201	0x3bb345a0	0.0054709464
202	0xbde09234	-0.10965386
203	0x3d0522c1	0.032503847
204	0xbb81f5f6	-0.0039660884
205	0xbc3fa070	-0.011695966
206	0x3d93ee95	0.0722324
207	0xbd5c65dc	-0.05380808
208	0x3d2246b6	0.039618216
209	0xbd4208de	-0.047371738
210	0xbd0a8b61	-0.03382433
211	0xbd1b35d6	-0.03789314
212	0xbd1d3f87	-0.038390663
213	0x3d861dd5	0.06548659
214	0x3c853110	0.016258746
215	0x386b1000	5.6043267e-05
216	0x3dc481c0	0.0959506
217	0xba105b08	-0.0005506729
218	0x3d0f0634	0.034918025
219	0xbd8ac3f4	-0.06775656
220	0x3b9321db	0.00449012
221	0x3dcbda0c	0.099536985
222	0x3d8c896d	0.068621494
223	0xbcc8b7b0	-0.024501652
224	0x3ddbd740	0.10734415
225	0x3d6a0c68	0.057140738
226	0x3d03c4ac	0.032169983
227	0xbdf0359f	-0.117289774
228	0xbd47b7f0	-0.0487594
229	0xbdb1b2aa	-0.086766556
230	0xbdecd144	-0.11563352
231	0xbd29ed18	-0.041485876
232	0x3d0a3c70	0.033749044
233	0x3c1a6570	0.009423599
234	0xbe101578	-0.1407069
235	0xbdc05bc4	-0.09392503
236	0xbdbd8462	-0.09253766
237	0x3db32f4b	0.08749255
238	0x3c40a930	0.011759087
239	0xbdf4c29c	-0.11951181
240	0x3d522117	0.05130109
241	0xbd30e334	-0.043185428
242	0xbdd78d25	-0.10524968
243	0x3d36c2a0	0.044619203
244	0x3d11c9cc	0.03559284
245	0x3c95ace0	0.01827091
246	0x3dd657c8	0.10465962
247	0x3d4612e4	0.04835786
248	0xbd118110	-0.035523474
249	0xbce821b8	-0.02833639
250	0xbdd2cf3c	-0.10293433
251	0xbd87a4f5	-0.0662326
252	0x3dc90a44	0.09816411
253	0xbdecebea	-0.115684345
254	0xbe005000	-0.12530518
255	0xbb862f20	-0.004094973

price_head.0.bias f4 [32]
0	0xbdb90713	-0.090345524
1	0xbd05364e	-0.032522492
2	0x3d241acb	0.040064614
3	0xbde113ce	-0.109901056
4	0xbdd5c350	-0.104376435
5	0x3ecde3dd	0.40212908
6	0x3ca3f137	0.020012481
7	0x3e2ec446	0.1706706
8	0x3ebcd978	0.36884665
9	0xbcec4229	-0.028840141
10	0xbe961a27	-0.29316828
11	0x3e9d0fe8	0.30676198
12	0xbeae8e5e	-0.34092993
13	0xbf0bedac	-0.54659534
14	0x3e746bf2	0.23869303
15	0xbec1105c	-0.37707794
16	0x3f4a4a82	0.7901994
17	0xbe7ae3b9	-0.24500932
18	0x3d334c33	0.04377384
19	0xbdef0aaf	-0.116719596
20	0x3cff026f	0.03112909
21	0x3e461ecf	0.1934769
22	0xbd9dd41f	-0.077064745
23	0x3de62f23	0.11239459
24	0xbd17e232	-0.03708095
25	0x3eab9a3d	0.33516112
26	0x3d8205c5	0.06348757
27	0xbc3cef93	-0.011531728
28	0x3d8511f3	0.06497564
29	0xbd9f4804	-0.07777408
30	0xbece87e8	-0.40338063
31	0xbdbdfd24	-0.09276798

price_head.2.weight f4 [1, 32]
0	0xbd75ae94	-0.059980944
1	0xbc4afac6	-0.012388891
2	0x3dd8690f	0.10566913
3	0xbc935ebc	-0.017989509
4	0xbd08eee8	-0.033430964
5	0x3c814c4a	0.015783448
6	0x3e10350f	0.1408274
7	0x3f171dfa	0.59030116
8	0xbbf97740	-0.0076130927
9	0xbdbb4c1d	-0.09145377
10	0x3b81b751	0.0039586206
11	0x3bfbd229	0.007684965
12	0x3bdee210	0.006801851
13	0x3bb6f695	0.005583594
14	0x3f2a9c67	0.666449
15	0xbc0b4645	-0.00850064
16	0xbc546d1c	-0.012965467
17	0x3c7f2935	0.015573789
18	0x3e024ddf	0.12725018
19	0x3d38b8f6	0.045098267
20	0xbb640418	-0.003479248
21	0xbaf113b0	-0.0018392708
22	0xbc5b5483	-0.013386848
23	0xbba66534	-0.0050779823
24	0x3d43cdec	0.047803804
25	0x3c44042b	0.011963884
26	0xbe0fa250	-0.14026761
27	0xbdcecd83	-0.10097792
28	0x3d5ed11e	0.05439865
29	0xbc6eaa83	-0.01456702
30	0xbc056a1d	-0.008142975
31	0xbde10aad	-0.10988364
