DQN_Agent/Models_Saved/multi_task_DQN.pth (torch, 84066 bytes, 11 tensors)

main_trunk.0.weight f4 [128, 27]
0	0x3d6aff80	0.05737257
1	0x3db2c431	0.08728827
2	0xbdad59d4	-0.08464399
3	0xbe6cac0c	-0.23112506
4	0x3d2df77a	0.04247234
5	0x3db39dc8	0.08770329
6	0x3b82dcd2	0.003993609
7	0xbdba9693	-0.09110751
8	0xbd089800	-0.033348083
9	0xbe39a559	-0.18129481
10	0xbe22b0b4	-0.1588772
11	0x3c697a51	0.014250354
12	0xbda3b3cf	-0.0799328
13	0x3db83a0d	0.08995447
14	0xbe81aeee	-0.25328773
15	0xbd25699e	-0.040383928
16	0xbe85348b	-0.2601665
17	0xbcdac6ad	-0.026706064
18	0x3b87a7e8	0.004139889
19	0xbd150830	-0.03638476
20	0x3c571b22	0.013129028
21	0xbd778389	-0.060428176
22	0xbe4eaf7a	-0.20184126
23	0xbe325165	-0.17413862
24	0xbd77f93b	-0.06054042
25	0x3d6aa6ee	0.057288103
26	0x3d8aab85	0.06770996
27	0x3e176cfd	0.1478767
28	0x3da59f7f	0.08087062
29	0x3d85aa53	0.065266274
30	0x3d678cea	0.05653087
31	0xbdbbc2ea	-0.09168036
32	0x3e4180b2	0.1889675
33	0x3d2d83ef	0.04236215
34	0xbe410321	-0.1884885
35	0x3df1a361	0.1179874
36	0xbddbefdf	-0.10739111
37	0xbe1a3131	-0.15057828
38	0x3e1fd34e	0.1560795
39	0x3be92115	0.0071145394
40	0x3e24d886	0.16098222
41	0xbdb6820c	-0.08911523
42	0xbd54c993	-0.05195005
43	0x3dd05039	0.10171551
44	0xbe2f28c2	-0.17105392
45	0x3dc62039	0.09674115
46	0x3c8f2fdf	0.017478881
47	0x3e3bff17	0.18359028
48	0xbe15facb	-0.14646451
49	0x3d336ef9	0.043807004
50	0x3d2a4d98	0.041577905
51	0x3dd53fba	0.104125455
52	0x3e3ecf5d	0.1863379
53	0xbd42b33a	-0.047534205
54	0x3e777b79	0.24168195
55	0x3db145ea	0.08655913
56	0xbc4d520e	-0.01253177
57	0xbde78739	-0.113050885
58	0x3e4efc1f	0.20213364
59	0x3e2a16e6	0.16610298
60	0xbd8c5556	-0.06852214
61	0xbdf03229	-0.11728317
62	0xbd1da061	-0.038483027
63	0x3e59824b	0.21241109
64	0x3cc5f205	0.024163255
65	0x3daf1689	0.0854922
66	0xbd3fac15	-0.04679497
67	0xba1931ee	-0.0005843927
68	0x3dfb578f	0.1227256
69	0xbb2601aa	-0.0025330582
70	0xbe104691	-0.14089419
71	0x3e3e42cc	0.18580168
72	0x3e67c42e	0.2263343
73	0x3e4863e4	0.19569355
74	0x3e5502c4	0.20801836
75	0x3e6c7f8e	0.23095533
76	0x3d8ba486	0.0681849
77	0xbd98b0ad	-0.07455573
78	0xbdb38e18	-0.087673366
79	0x3e202bc0	0.1564169
80	0x3dcc4de5	0.09975795
81	0xbe02debc	-0.12780279
82	0xbda0a5c6	-0.07844119
83	0xbe1ed7ab	-0.15511958
84	0x3d775e45	0.060392637
85	0x3d9f3429	0.07773621
86	0xbe20dbb4	-0.1570881
87	0xbe1297d7	-0.14315735
88	0xbe1c357d	-0.15254779
89	0xbd4bc739	-0.04975054
90	0xbd4b878e	-0.049689822
91	0xbdae032e	-0.084967
92	0xbe32a14d	-0.17444344
93	0xbe0f3fb0	-0.13989139
94	0x3e36116e	0.17780086
95	0x3d9835d2	0.074321404
96	0xbc0c4d17	-0.0085633015
97	0xbe2de4b2	-0.16981772
98	0x3dae8793	0.085219525
99	0xbcf1f615	-0.029536286
100	0xbd991808	-0.07475287
101	0x3e167e61	0.14696647
102	0x3c15eeb4	0.00915115
103	0xbdc7fbd0	-0.09764826
104	0xbd7739b7	-0.060357776
105	0xbe15cfea	-0.14630094
106	0xbdc60cb1	-0.096703894
107	0x3e084508	0.13307583
108	0x3df2aa54	0.11848894
109	0x3e3c3389	0.18379034
110	0xbbb50852	-0.0055246735
111	0x3e05fcf7	0.1308478
112	0x3e837514	0.2567526
113	0xbdc2af42	-0.09506084
114	0x3e1bb692	0.15206364
115	0x3e6bfed9	0.23046435
116	0x3e189a79	0.14902677
117	0x3e7f182b	0.24911563
118	0x3e1d8a96	0.15384898
119	0x3e7e0dd7	0.24809967
120	0xbd962aeb	-0.07332405
121	0xbc064bac	-0.0081967525
122	0x3e249a2a	0.16074434
123	0xbd1d3115	-0.038376886
124	0x3e061e7d	0.13097568
125	0xbc8797ef	-0.01655194
126	0x3e171843	0.14755349
127	0xbd37cff3	-0.04487605
128	0xbd2fde29	-0.042936478
129	0x3d841972	0.06450166
130	0x3e575db1	0.21031834
131	0xbde9fd5f	-0.1142528
132	0x3dcbaee6	0.099454686
133	0x3e878c43	0.264742
134	0x3caba809	0.020954149
135	0x3e39cc76	0.18144402
136	0xbe053217	-0.13007389
137	0x3dd94f67	0.10610848
138	0xbda48f3e	-0.08035134
139	0xbe0c3b1f	-0.13694428
140	0xbbab1254	-0.0052206907
141	0x3d8b850e	0.068124875
142	0xbdc0d5a9	-0.094157524
143	0xbd16c40f	-0.03680807
144	0x3c460ce1	0.0120880315
145	0x3e3a884f	0.1821606
146	0x3da7fcc1	0.08202506
147	0xbcf3a7f6	-0.029743176
148	0x3d4b7ca8	0.04967943
149	0x3e23add4	0.15984279
150	0xbe27554c	-0.16341132
151	0xbe017945	-0.12643917
152	0x3b75a812	0.003748421
153	0x3e37a9c5	0.17935856
154	0xbdab7c83	-0.08373358
155	0xbc9b3bef	-0.018949477
156	0x3c6fe662	0.01464233
157	0x3a1d918a	0.0006010762
158	0x3e40acd8	0.18815935
159	0x3d7931f5	0.06083866
160	0x3e241953	0.16025285
161	0xbdefc8b0	-0.117082
162	0xbd03f5a8	-0.032216698
163	0xbe3ef066	-0.18646392
164	0x3e18aeba	0.14910403
165	0xbd4d0ac3	-0.05005909
166	0xbe07d9c5	-0.13266666
167	0x3cf72513	0.030169046
168	0x3c46c75d	0.012132493
169	0xbda6918d	-0.0813323
170	0x3c955166	0.01822729
171	0x3df8996e	0.121386394
172	0xbd2862a2	-0.04110969
173	0xbcb695b3	-0.022288179
174	0xbe317408	-0.17329419
175	0xbdd0d273	-0.1019639
176	0x3d415a80	0.04720545
177	0x3e35c292	0.17750004
178	0xbdd7c108	-0.10534865
179	0xbcec0925	-0.028812954
180	0x3e119ca2	0.14219907
181	0xbceaba79	-0.02865337
182	0x3dd50430	0.10401189
183	0x3e19e62b	0.15029208
184	0xbd2d4bb7	-0.042308535
185	0xb98181c3	-0.00024701477
186	0x3d174b1c	0.036936864
187	0xbdedd25b	-0.11612388
188	0xbc707b3f	-0.014677822
189	0xbd5d374d	-0.054007817
190	0x3e25efb3	0.16204719
191	0x3df04409	0.11731727
192	0xbe185c0a	-0.1487886
193	0x3b942a60	0.004521653
194	0xbe1e312c	-0.15448445
195	0xbd7ba5a8	-0.06143728
196	0x3e27b2ee	0.1637685
197	0x3e37405e	0.17895648
198	0xbe20b9dc	-0.156959
199	0x3d6b0537	0.05737802
200	0xbd32de97	-0.04366931
201	0xbe0833c7	-0.13301001
202	0x3d32ed81	0.043683533
203	0xbbce0023	-0.0062866374
204	0xbe2a324f	-0.16620754
205	0xbd4197de	-0.047263972
206	0xbe2b1ae7	-0.16709481
207	0x3e0b2986	0.13590059
208	0x3c049859	0.008092963
209	0xbdb79771	-0.08964432
210	0xbe215016	-0.15753207
211	0xbd03e589	-0.032201324
212	0x3ddf9a95	0.10918156
213	0x3c506e85	0.012721662
214	0xbe0f81c4	-0.14014345
215	0xbd92ea42	-0.071735874
216	0xbdbf30f1	-0.09335507
217	0x3e1cdde5	0.15319021
218	0xbe2e8572	-0.17043093
219	0xbe3e46d3	-0.18581705
220	0xbdf1fcd5	-0.11815802
221	0x3cf572ab	0.029961905
222	0xbdda0962	-0.10646321
223	0xbe13d61b	-0.14437144
224	0xbdb2a09f	-0.08722042
225	0x3e12c695	0.14333566
226	0xbe2b2f1e	-0.16717193
227	0xbdcb8e6c	-0.09939274
228	0x3de810c4	0.11331323
229	0xbe44b246	-0.19208631
230	0x3d231663	0.03981627
231	0x3c564342	0.013077559
232	0x3e19598d	0.14975567
233	0x3d651012	0.05592353
234	0x3c8b65a3	0.017016238
235	0x3ca7c8b2	0.020481441
236	0xbdd546ab	-0.104138695
237	0xbdbbc45e	-0.091683134
238	0x3df78d1e	0.12087463
239	0xbe13a123	-0.14416938
240	0x3db341ee	0.087528095
241	0xbdbd7f95	-0.0925285
242	0xbd74827d	-0.059694756
243	0x3dd2d432	0.10294379
244	0xba70f69b	-0.00091920205
245	0x3df9c9e3	0.1219671
246	0x3df21b15	0.11821572
247	0x3e69e92b	0.22842853
248	0x3e0e7fe9	0.13915981
249	0x3dc9b455	0.09848849
250	0xbd75a00b	-0.059967082
251	0x3d8dd5fd	0.06925581
252	0x3e99efb9	0.30065706
253	0x3cb95dfa	0.02262782
254	0x3ea1daa4	0.31612122
255	0x3e450c8e	0.1924307

main_trunk.0.bias f4 [128]
0	0xbe840a4e	-0.25789112
1	0x3e1d654a	0.1537067
2	0x3df0e75c	0.11762878
3	0x3bb1377e	0.0054082265
4	0x3e77fac4	0.24216753
5	0xbd4960fa	-0.04916475
6	0xbd8d10f5	-0.06888
7	0xbd9b6e30	-0.07589376
8	0xbdb4eb69	-0.088339634
9	0x3d30360b	0.04302029
10	0xbd44e5a3	-0.04807056
11	0x3e867c73	0.26266822
12	0xbddcf6a7	-0.10789233
13	0xbd5dd86e	-0.05416148
14	0x3e3f985f	0.18710469
15	0x3d861a07	0.06547933
16	0x3e2cf731	0.16891171
17	0xbd87041a	-0.06592579
18	0xbe0a8dbb	-0.13530628
19	0xbe3421a4	-0.17590958
20	0x3d9fa046	0.077942416
21	0xbe33b487	-0.17549334
22	0x3e445bc6	0.19175634
23	0x3e2be95b	0.16788237
24	0x3e0ca7a1	0.1373582
25	0xbe531c2b	-0.20616214
26	0x3dff1cdd	0.12456677
27	0xbe5c9e6a	-0.21544805
28	0xbe1ef4c3	-0.15523057
29	0xbe1632f5	-0.14667876
30	0xbcdb29df	-0.026753364
31	0xbddaf92a	-0.106920555
32	0x3cbe82d2	0.02325574
33	0x3e1c85e7	0.15285455
34	0x3db7b9e6	0.08971004
35	0xbdcff550	-0.101542115
36	0x3d8e332c	0.06943354
37	0x3c5adf68	0.013358928
38	0xbe3ba882	-0.18326
39	0xbdea133f	-0.11429452
40	0x3a49e904	0.00077022635
41	0xbd7e6d39	-0.06211588
42	0xbdad2269	-0.08453829
43	0x3dd281b5	0.10278646
44	0xbd8ef409	-0.0698014
45	0x3e67617b	0.2259578
46	0xbe1ce514	-0.15321761
47	0xbe2584ae	-0.16163895
48	0x3df27913	0.11839499
49	0xbd392c35	-0.045208175
50	0xbb93becb	-0.0045088283
51	0x3b4e36fc	0.0031465879
52	0x3e2fe5fc	0.17177576
53	0xbd75782a	-0.05992905
54	0x3c75a52f	0.014992996
55	0xbdc0e9b6	-0.09419577
56	0x3dfa719e	0.12228702
57	0xbda86295	-0.08221928
58	0xbd4de3d0	-0.050266087
59	0xbd23166f	-0.039816316
60	0x3d9e4e55	0.077297844
61	0x3e485b7c	0.19566149
62	0xbbd4c11c	-0.006492747
63	0xb9dfb1a2	-0.0004266622
64	0xbd4b5541	-0.04964185
65	0xbdf5a837	-0.11994975
66	0xbe046285	-0.12928207
67	0x3db64b62	0.08901097
68	0x3d603482	0.054737575
69	0x3bf51cea	0.0074802535
70	0x3e173941	0.14767934
71	0xbc45975a	-0.012060011
72	0xbddcc7a2	-0.107802644
73	0x3dc0987d	0.09404085
74	0xbe5cc3ec	-0.21559113
75	0x3dacea60	0.08443141
76	0xbdd0211d	-0.10162566
77	0x3cb306ab	0.021853765
78	0x3d071fc0	0.032989264
79	0x3e32ce32	0.1746147
80	0xbe36ecb9	-0.1786374
81	0xbdf3ae81	-0.11898518
82	0xbdceeac5	-0.101033725
83	0x3ce5b4e8	0.028040364
84	0xbcc8c8fa	-0.024509896
85	0xbd84b578	-0.06479925
86	0x3d0be675	0.034155328
87	0xba5b37fc	-0.00083625293
88	0x3bc968a7	0.0061465087
89	0x3de1e79c	0.11030504
90	0xbbcac3a0	-0.006187871
91	0xbe03a3f3	-0.1285551
92	0xbdae267f	-0.08503436
93	0xbe0ec62f	-0.13942789
94	0xbdba5fc7	-0.09100299
95	0xbd77130e	-0.060320906
96	0xbcfd6566	-0.03093214
97	0x3dc4c8f7	0.096086435
98	0xbdc2a733	-0.09504547
99	0x3d63e5f1	0.05563921
100	0x3d83e52d	0.06440196
101	0x3e8a8539	0.27054766
102	0x3e2b84bf	0.16749857
103	0xbdd4fb8b	-0.103995405
104	0xbd8a928b	-0.06766232
105	0xbe2eee80	-0.17083168
106	0x3c950f0b	0.01819565
107	0xbe2896b7	-0.16463743
108	0xbd12c393	-0.035831045
109	0x3dc1ce2a	0.09463151
110	0xbe04246a	-0.12904516
111	0xbdf25f60	-0.118345976
112	0xbe3ba710	-0.18325448
113	0x3e4cdeea	0.2000691
114	0xbda64f1b	-0.08120557
115	0xbe4019ef	-0.18759893
116	0x3e3f3ba6	0.18675098
117	0xbd405026	-0.046951436
118	0x3e1992bc	0.14997381
119	0xbde3889d	-0.11110041
120	0x3e1c56c5	0.15267475
121	0x3c230f64	0.0099524
122	0xbdb6e9fe	-0.08931349
123	0x3dad7813	0.08470168
124	0x3cc93324	0.024560519
125	0xbe4051df	-0.18781231
126	0x3e0608df	0.13089322
127	0x3da41a59	0.08012838

main_trunk.2.weight f4 [64, 128]
0	0x3c97f1f3	0.018547988
1	0xbc5ef3fb	-0.013607974
2	0xbd93da67	-0.07219391
3	0x3d340352	0.04394848
4	0x3d128de6	0.035779856
5	0x3d76c1f8	0.060243577
6	0x3bed990f	0.007250912
7	0x3a8f8270	0.0010948908
8	0x3d67530b	0.05647568
9	0x3cccbac2	0.024991397
10	0xbd2ca80d	-0.042152453
11	0x3d905d85	0.070490874
12	0xbc41261f	-0.011788874
13	0xbd9777b9	-0.07395882
14	0x3d93fed9	0.07226343
15	0x3d2e5508	0.04256156
16	0xbd761fb3	-0.060088824
17	0xbdb170cb	-0.08664092
18	0x3da810c2	0.08206321
19	0xbd0ac81e	-0.033882253
20	0xbce581e1	-0.028016033
21	0x3d14074a	0.036139764
22	0xbc04a987	-0.008097059
23	0x3d552e94	0.052046373
24	0xbdb12e0c	-0.08651361
25	0x3a8df2a2	0.0010829757
26	0x3d8b1843	0.06791737
27	0xbd3aa409	-0.045566592
28	0xbd357704	-0.044302955
29	0xbd0a9a57	-0.033838596
30	0x3b65795e	0.0035014967
31	0xbd3168e8	-0.043312937
32	0x3d648a27	0.055795815
33	0xbc9b30dc	-0.018944196
34	0x3b4343ad	0.0029794977
35	0xbd810e21	-0.06301523
36	0xbccf590c	-0.025311016
37	0x3d4ce082	0.050018795
38	0x3da833c9	0.08213002
39	0x3d31354c	0.04326372
40	0x3ce0eb1c	0.027455859
41	0x3da92d48	0.0826059
42	0xbd42b701	-0.047537807
43	0xbbcd0434	-0.0062566046
44	0x3b942308	0.0045207776
45	0xbd0da3bf	-0.03457999
46	0xbd827106	-0.06369214
47	0x3d13a05c	0.036041602
48	0xbd2d2721	-0.042273644
49	0x3c918ee0	0.017768323
50	0x3d44cf45	0.04804923
51	0x3a03f333	0.0005033493
52	0x3d110e2d	0.03541391
53	0xbd293351	-0.041308705
54	0x3ccdba6b	0.025113305
55	0x3c53a30d	0.012917292
56	0xbd45d732	-0.04830093
57	0xb9edde9f	-0.00045370028
58	0x3d4cac58	0.049969047
59	0xbcba7681	-0.022761585
60	0x3a9466ef	0.001132218
61	0xbae15c39	-0.0017193622
62	0xbd4e74a7	-0.050404217
63	0x3b5297b6	0.0032133884
64	0x3db54b54	0.08852258
65	0x3caa7c99	0.020811366
66	0x3d8991f9	0.06717295
67	0x3cde90bb	0.027168622
68	0xbc8c5143	-0.017128592
69	0xbd8dbfe5	-0.069213666
70	0xbd4459a0	-0.047937036
71	0xbc9a6c4c	-0.018850468
72	0xbd998147	-0.07495361
73	0x3d52ea10	0.05149275
74	0x3cf2b2a6	0.029626202
75	0x3c60fcb0	0.01373212
76	0xbb870128	-0.004120011
77	0x3d29ce9d	0.041456807
78	0xbd62556c	-0.055257246
79	0x3d2b06e7	0.04175463
80	0x3d87de63	0.06634214
81	0x3d9b1b5b	0.07573577
82	0xbd8418d7	-0.0645005
83	0xbd8a55b2	-0.06754626
84	0xbdacb97e	-0.08433817
85	0x3cc8029e	0.02441531
86	0x3d5a90dc	0.053360805
87	0x3d99846e	0.07495962
88	0xbd5adc09	-0.053432498
89	0x3bcd5146	0.006265792
90	0xbc38d1bb	-0.011280472
91	0xbc95ac64	-0.018270679
92	0xbda59fb4	-0.080871016
93	0xbbe39535	-0.006945277
94	0x3db50475	0.08838741
95	0xbd263613	-0.040578913
96	0xbd515b17	-0.05111226
97	0x3cd18a2d	0.025578583
98	0xbc6425ad	-0.013924998
99	0x3d4fc4fe	0.050724976
100	0xbdb3625a	-0.087589934
101	0xbdabd307	-0.0838986
102	0x3d8f217e	0.0698881
103	0x3c282ac9	0.010264107
104	0xbd3b79c5	-0.045770425
105	0x3d3374a7	0.04381242
106	0xbd85c608	-0.06531912
107	0x3c2110d7	0.009830675
108	0xbc3b757b	-0.011441584
109	0x3d56d8bb	0.052452784
110	0x3bee9378	0.0072807632
111	0xbc9e678f	-0.01933649
112	0x3d0cb1bb	0.034349184
113	0xbcf29385	-0.029611358
114	0xbd18191e	-0.03713333
115	0xbd769043	-0.060196172
116	0x3d502c55	0.05082353
117	0x3d9eb51a	0.07749386
118	0x3d0df552	0.034657784
119	0x3d2662bc	0.040621504
120	0x3ce660f8	0.02812241
121	0xbd27e11a	-0.040986158
122	0x3db3f83e	0.08787583
123	0xbcca9944	-0.024731286
124	0x3d1ec432	0.038761325
125	0x3c958b8e	0.018255021
126	0xbcb25e59	-0.021773504
127	0x3ce13218	0.027489707
128	0x3ac6e161	0.0015173369
129	0xbd88f1a4	-0.06686714
130	0x3c1b6dbb	0.009486611
131	0xbd038a22	-0.032114156
132	0xbdaf49ad	-0.085589744
133	0xbd5e47d2	-0.054267712
134	0x3c2b4ea1	0.010455758
135	0xbce7fe6e	-0.028319564
136	0x3d775756	0.060386024
137	0x3ce807a7	0.028323961
138	0x3c0fbba0	0.008772761
139	0x3c0b89cf	0.008516743
140	0xbd646930	-0.055764377
141	0xbd5a38d1	-0.05327684
142	0xbd2f81ee	-0.04284852
143	0x3d7dc619	0.0619565
144	0x3bad35dd	0.005285962
145	0xbd997890	-0.074936986
146	0xbd50ca95	-0.050974447
147	0x3d8aefa6	0.067839906
148	0xbbdc30b2	-0.006719672
149	0xbd8511ff	-0.06497573
150	0xbb827da5	-0.003982263
151	0xbd97e43b	-0.074165784
152	0xbc2045a6	-0.0097822305
153	0xbbc9ced9	-0.0061586914
154	0x3da493c6	0.08035998
155	0x3d295e85	0.041349906
156	0xbd9c0209	-0.07617576
157	0xbd8360fb	-0.06414982
158	0xbbfe53cd	-0.0077614547
159	0x3d27463b	0.04083846
160	0x3d14f6bf	0.036368128
161	0xbd803565	-0.06260184
162	0xbd9f36a4	-0.07774094
163	0xbd8bf09d	-0.06833003
164	0x3d31a683	0.04337169
165	0xba7042e0	-0.00091652386
166	0xbc558340	-0.013031781
167	0xbd3bfb09	-0.045893703
168	0x3d054113	0.032532763
169	0x3d0e9f50	0.0348199
170	0xbb4e7348	-0.0031501818
171	0xbc353ac7	-0.011061377
172	0xbcd763ab	-0.026292643
173	0x3bc3cbfc	0.0059752446
174	0x3c0165e0	0.007897824
175	0xbda818da	-0.08207865
176	0x3cb0df66	0.0215909
177	0xbdbdad01	-0.092615135
178	0x3c148af7	0.009066335
179	0xbc880a0c	-0.016606353
180	0xbb5dcf53	-0.0033845499
181	0xbdaf9674	-0.085736185
182	0xbdb2dd0c	-0.087335676
183	0x3d8f6ba1	0.070029505
184	0xbcef7c0f	-0.02923396
185	0xbcbe321d	-0.023217255
186	0x3bd141a1	0.0063859974
187	0xbcbb1a00	-0.022839546
188	0x3d83010d	0.06396685
189	0x3c03de1a	0.008048559
190	0x3c03df71	0.008048878
191	0xbd9a7d67	-0.0754345
192	0xbd8a2840	-0.06745958
193	0xbd8678c1	-0.06566001
194	0x3c5a5126	0.013325011
195	0xbd88d254	-0.06680742
196	0xbc8e616f	-0.017380444
197	0x3d955a48	0.072926104
198	0x3d8de875	0.06929103
199	0xbc002066	-0.007820224
200	0xbdab44d4	-0.08362737
201	0x3d4df8f2	0.05028624
202	0xbd21e20b	-0.039522212
203	0xbd17c1af	-0.037049945
204	0xbd2a719f	-0.041612264
205	0x3d30215f	0.043000575
206	0xbda2aca1	-0.079430826
207	0xbd8ccbb6	-0.06874792
208	0xbd4832e9	-0.048876677
209	0xbc4ea8a0	-0.0126134455
210	0x3a0c8ec8	0.0005361852
211	0x3d0ad450	0.033893883
212	0xbd425961	-0.04744852
213	0xbd100b03	-0.03516675
214	0xbd835fec	-0.0641478
215	0x3cc27d2d	0.02374133
216	0xbd4ee928	-0.050515324
217	0x3d594fbc	0.053054556
218	0x3c4403ca	0.011963794
219	0xbcbddddb	-0.023177078
220	0xbb47bd8b	-0.0030477967
221	0x3d800a20	0.06251931
222	0xbda4e68b	-0.08051785
223	0xbd3922dc	-0.04519926
224	0xbd8f2f31	-0.06991423
225	0xbdb4e0b5	-0.08831922
226	0xbcacc647	-0.02109064
227	0xbd0720a5	-0.032990117
228	0x3d2e77f8	0.04259488
229	0x3d2632ce	0.040575795
230	0x3d87160d	0.06596003
231	0x3d46b0c6	0.048508428
232	0xbd9bc20a	-0.076053694
233	0x3d8cab72	0.06868638
234	0xbb2fbfc4	-0.0026817182
235	0x3c299d78	0.010352485
236	0xbc0ceffe	-0.0086021405
237	0x3ccfbbdb	0.025358131
238	0x3af3226b	0.0018549686
239	0xbc67f854	-0.014158327
240	0x3db1b036	0.08676188
241	0xbd90e913	-0.070757054
242	0x3ccdf56f	0.025141446
243	0x3c8a7fe5	0.016906688
244	0x3d0aa7e1	0.033851508
245	0xbd48a1ba	-0.04898236
246	0x3d13d997	0.03609618
247	0xbd2a885a	-0.04163394
248	0x3badd68f	0.0053051184
249	0xbc195207	-0.009357936
250	0xbcb935fc	-0.02260875
251	0x3d7e1447	0.062031057
252	0x3d8a1787	0.06742769
253	0x3c8820be	0.016617175
254	0x3d34e4da	0.044163562
255	0x3d2050e1	0.039139632

main_trunk.2.bias f4 [64]
0	0xbd68df22	-0.05685342
1	0x3d4d2d9f	0.050092336
2	0x3b8fcfa1	0.004388765
3	0x3d462475	0.048374612
4	0xbd52e45f	-0.051487323
5	0x3d5e8508	0.054326087
6	0x3c9e0047	0.019287242
7	0x3c8d8bae	0.017278519
8	0xbd7ddeea	-0.061980166
9	0x3d75b91d	0.05999099
10	0x3d737ed7	0.059447136
11	0xbd4bc75b	-0.049750667
12	0x3d606426	0.05478301
13	0x3d85e843	0.06538441
14	0xbd3a868b	-0.045538466
15	0xbdc5d526	-0.096597955
16	0xbd40ccce	-0.047070317
17	0x3d7359a4	0.05941166
18	0x3bf02328	0.0073284097
19	0xbdaf84ad	-0.08570228
20	0xbdf176fb	-0.11790272
21	0xbd797481	-0.060902122
22	0xbd7d130b	-0.06178574
23	0x3d542c1c	0.05179988
24	0xbd1f95fd	-0.0389614
25	0xbcb24190	-0.021759778
26	0xbe1d2a8d	-0.15348263
27	0xbcba2901	-0.02272463
28	0x3d14a68e	0.03629165
29	0x3df501b1	0.11963213
30	0x3c71773e	0.014737902
31	0xbd9e1117	-0.077181034
32	0xbdc0f18a	-0.0942107
33	0x3e0a2cf1	0.13493706
34	0xbd7d0f1d	-0.06178199
35	0x3d92dde6	0.0717123
36	0xbceb78eb	-0.028744182
37	0xbd8c1506	-0.068399474
38	0x3d80a0ae	0.06280647
39	0x3d67a9da	0.056558467
40	0xbd4d40e8	-0.050110728
41	0x3de6f342	0.112768665
42	0x3de15252	0.110020295
43	0xbe1e97fa	-0.15487662
44	0xbcd4b5a6	-0.025965523
45	0x3d2ed2ca	0.042681493
46	0x3dbba0f5	0.091615595
47	0x3dafb388	0.08579165
48	0x3e2e460e	0.17018911
49	0xbd43b8df	-0.04778373
50	0xbd5096ea	-0.050925173
51	0x3c6058ef	0.013693078
52	0x3d559ca8	0.052151352
53	0xbda8d606	-0.08243947
54	0x3ca5d837	0.0202447
55	0xbcb7eefb	-0.022452822
56	0x3de31a07	0.11088949
57	0x3e0ccab8	0.13749206
58	0xbd3a05a7	-0.045415547
59	0x3d215e18	0.039396375
60	0x3c1feb68	0.009760715
61	0x3a836dee	0.0010027268
62	0x3c7306d1	0.014833168
63	0xbc60d119	-0.013721728

keyword_head.0.weight f4 [64, 64]
0	0xbdeaf49c	-0.11472437
1	0xbddecf7a	-0.10879417
2	0xbda445eb	-0.08021148
3	0xbdecabf8	-0.11556238
4	0x3de5f99f	0.11229252
5	0x3d5a7bb4	0.05334063
6	0x3d1b3ce3	0.037899863
7	0xbd7d1c75	-0.061794717
8	0x3b0cd740	0.0021490604
9	0xbdf14ffc	-0.11782834
10	0x3d8db60c	0.06919488
11	0x3df2bfe4	0.118530065
12	0xbceaed18	-0.028677508
13	0xbd676994	-0.05649717
14	0x3c4153e0	0.0117997825
15	0xbdc0b40e	-0.09409343
16	0x3d660620	0.056158185
17	0xbdbf8d4e	-0.093531236
18	0xbd5c06cc	-0.05371742
19	0x3c3cf160	0.011532158
20	0x3dd0a50d	0.10187731
21	0xbd7c25ec	-0.061559603
22	0x3d6b747c	0.057484135
23	0x3d7e6338	0.06210634
24	0xbd860c3e	-0.06545304
25	0x3dde3fa1	0.1085198
26	0x3c7729b9	0.015085631
27	0xbdd0ae1f	-0.10189461
28	0x3dbf98dc	0.093553275
29	0x3d503419	0.050830934
30	0x3c4b97aa	0.012426296
31	0x3dd095ea	0.10184844
32	0x3cda2e2d	0.026633346
33	0x3d871570	0.06595886
34	0x3ba6dd20	0.005092278
35	0x3dfa0080	0.122071266
36	0xbdc26a52	-0.09492935
37	0xbd5c5e27	-0.05380073
38	0xbde684aa	-0.112557724
39	0x3dd161e0	0.10223746
40	0xbd24a0e0	-0.040192485
41	0xbdf73ea5	-0.12072495
42	0x3dd23c10	0.10265362
43	0x3c901c8f	0.017591743
44	0x3db52043	0.08844044
45	0xbd15332f	-0.036425766
46	0xbdcdb8e8	-0.10045034
47	0xbdad54f8	-0.08463472
48	0x3dc8e090	0.09808457
49	0x3dd0ca12	0.10194792
50	0x3bd6c2c0	0.0065539777
51	0xbd5c9818	-0.053855985
52	0xbdbb7cb1	-0.091546424
53	0xbdfc50a2	-0.12320067
54	0x3d849e18	0.064754665
55	0xbda321ed	-0.07965455
56	0x3dc64509	0.09681136
57	0xbd90dd7f	-0.07073497
58	0x3d7c26c3	0.061560404
59	0x3d0a4484	0.033756748
60	0x3d599144	0.05311705
61	0xbdf41284	-0.11917594
62	0xbd3d5cfc	-0.046231255
63	0xbdac7c1a	-0.08422108
64	0x3e0008f1	0.12503411
65	0xbdd9a235	-0.10626642
66	0x3d9a1c40	0.075249195
67	0xbd1b41b8	-0.03790447
68	0xbdb16bfd	-0.08663175
69	0x3df0fc34	0.11766854
70	0xbcc8c8e7	-0.02450986
71	0xbd9213ff	-0.0713272
72	0xbbf3f9e0	-0.007445559
73	0x3dfb718c	0.12277517
74	0x3d15f596	0.036611162
75	0x3de3d4db	0.11124583
76	0x3d64d850	0.055870354
77	0x3dc64ebc	0.09682986
78	0xbdb16ac6	-0.086629435
79	0xbc5974f8	-0.013272516
80	0xbdc6549e	-0.09684108
81	0xbccc96ac	-0.02497419
82	0xbb2d8140	-0.0026474744
83	0x3cf61a68	0.030041888
84	0x3dcdbae8	0.10045415
85	0x3d2d0a74	0.042246297
86	0xbca67ec0	-0.020324111
87	0x3da32360	0.079657316
88	0xbca1e540	-0.019762635
89	0x3da9b148	0.08285767
90	0xbd13f085	-0.03611805
91	0x3dba542f	0.09098088
92	0xbdfb0158	-0.12256116
93	0x3d9e96c8	0.07743603
94	0xbd8e3333	-0.06943359
95	0x3ca21e10	0.019789726
96	0x3d55efac	0.052230522
97	0x3c71b393	0.0147522865
98	0xbdfe6f6a	-0.12423594
99	0x3da8331c	0.08212873
100	0x3db7c37a	0.08972831
101	0xbd669577	-0.056294885
102	0xbce730ce	-0.028221514
103	0xbde4d4b2	-0.11173381
104	0xbdfde5bc	-0.12397334
105	0xbb990ba1	-0.0046705757
106	0xbdd1eaba	-0.10249849
107	0xbd2bedee	-0.041974954
108	0x3d0a0c94	0.0337034
109	0xbdbfafc0	-0.093596935
110	0xbd2418d8	-0.040062755
111	0xbb9e2340	-0.0048259795
112	0x3d00b550	0.031422913
113	0x3cef37d1	0.02920142
114	0x3d8101d6	0.06299178
115	0xbd284328	-0.04107967
116	0xbd06aa29	-0.03287712
117	0x3c3424f0	0.010995135
118	0x3dcc6d64	0.09981802
119	0x3d3bec87	0.045879867
120	0x3dcb1ebb	0.09917971
121	0x3dd5d2c8	0.10440594
122	0x3db89956	0.090136215
123	0xbcbca508	-0.023027912
124	0xbdb471d6	-0.08810775
125	0x3dfbf259	0.123020835
126	0xbddb32c9	-0.10703046
127	0xb79e0000	-1.8835068e-05
128	0xbd7f11d8	-0.062272877
129	0x3ce4676e	0.02788135
130	0x3de81fcd	0.113341905
131	0x3c746b80	0.014918208
132	0x3cb88855	0.022525946
133	0x3d9715b4	0.073771864
134	0xbbfaf484	-0.007658543
135	0x3dd3947f	0.10331058
136	0xbcff7d18	-0.031187579
137	0xbd21e640	-0.039526224
138	0xbd8494b5	-0.06473676
139	0xbc966fc2	-0.018363837
140	0xbc776560	-0.015099853
141	0xbd5c441c	-0.05377589
142	0x3d23e2e0	0.040011287
143	0x3d739d7a	0.059476353
144	0x3cc5a6e0	0.024127424
145	0x3ddcf298	0.107884586
146	0x3d7a32e0	0.061083674
147	0x3d881ea2	0.06646468
148	0x3d3700b3	0.0446784
149	0xbd9b4706	-0.07581906
150	0xbdca5bfa	-0.098808244
151	0xbdb3d4fc	-0.08780858
152	0x3da7f70c	0.08201417
153	0x3d18a9e5	0.0372714
154	0xbabd8f41	-0.0014462249
155	0xbb84a21d	-0.0040476457
156	0xbd37f0d4	-0.044907406
157	0x3d916a2f	0.07100331
158	0xbdd5c796	-0.104384586
159	0xbd8fdf1c	-0.070249766
160	0x3d53fb7a	0.0517535
161	0xbdc6d13f	-0.09707879
162	0x3d4a6a40	0.049417734
163	0xbdde36f0	-0.10850322
164	0x3db44688	0.08802515
165	0x3dba84fd	0.09107397
166	0x3d49ea08	0.049295455
167	0xbce0ea40	-0.02745545
168	0xbdbe277a	-0.09284873
169	0xbbf0d58b	-0.007349675
170	0x3c47af2a	0.012187758
171	0xbdaad278	-0.08340925
172	0x3cd6c348	0.026216164
173	0x3d826354	0.063666016
174	0x3d8fa779	0.07014365
175	0x3cdc3d28	0.02688463
176	0x3d66eee0	0.056380153
177	0xbdaf2e43	-0.085537456
178	0xbb7332c0	-0.0037109107
179	0x3dfcaa5e	0.123371825
180	0x3d51c706	0.051215194
181	0xbdb482be	-0.088139996
182	0xbd7be16c	-0.061494276
183	0x3d79503a	0.060867526
184	0x3dd2e3e1	0.10297371
185	0x3cfab31a	0.03060298
186	0x3ddb1a92	0.10698427
187	0x3d91e6f8	0.07124132
188	0xbb305c80	-0.0026910603
189	0xbc4419c1	-0.011969031
190	0xbcaea100	-0.021317005
191	0xbde77cce	-0.113031015
192	0x3dc7e97e	0.09761332
193	0x3bb0df40	0.005397707
194	0xbd2ed119	-0.04267988
195	0x3d3d396c	0.04619734
196	0xbe078fca	-0.13238445
197	0x3d04b7c0	0.0324018
198	0x3deb9ea0	0.11504865
199	0xbb954340	-0.004555136
200	0xbdb7456c	-0.08948788
201	0x3daf1fea	0.08551009
202	0x3c5b5430	0.013386771
203	0x3c95a590	0.018267423
204	0xbd754390	-0.059878886
205	0xbdc2d588	-0.09513384
206	0xbc70ab20	-0.014689237
207	0xbdf323f0	-0.11872089
208	0x3dd156f0	0.1022166
209	0xbce1889c	-0.02753096
210	0xbde680cc	-0.11255035
211	0x3caa7ba8	0.020810917
212	0xbcddba94	-0.027066506
213	0xbbc5c2c0	-0.006035179
214	0xbdda13c0	-0.10648298
215	0x3dce0c06	0.10060887
216	0xbdd11232	-0.102085486
217	0xbdfbe4c4	-0.12299493
218	0x3ca8f3f1	0.020624133
219	0x3dbe0776	0.09278767
220	0xbcd91020	-0.026496947
221	0xbdf0f585	-0.11765579
222	0x3d3e0dec	0.046399996
223	0xbdfc775e	-0.12327455
224	0x3d4e0358	0.050296158
225	0xbdcee0f0	-0.10101497
226	0xbde24c3e	-0.11049698
227	0x3dc10523	0.09424808
228	0x3c440d50	0.011966065
229	0x3cfbd568	0.030741408
230	0xbdf5e45c	-0.12006447
231	0x3d2c17c0	0.042014837
232	0x3dccc27e	0.09998034
233	0x3de170dc	0.11007854
234	0xbda5c6fe	-0.080945954
235	0xbdc586b1	-0.09644831
236	0x3decb144	0.11557248
237	0xbda9ce48	-0.08291298
238	0xbd2fbada	-0.042902805
239	0x3d2d9154	0.042374924
240	0x3db22be2	0.08699776
241	0xbdfb2a0e	-0.12263881
242	0xbd3f1274	-0.046648458
243	0x3dfdb762	0.12388493
244	0x3dc56d3c	0.096399754
245	0x3dff9f94	0.12481609
246	0x3db92fde	0.09042333
247	0xbd900b72	-0.07033433
248	0x3cf2c08c	0.02963283
249	0xbdf7fb47	-0.12108474
250	0xbdc1772a	-0.09446557
251	0x3c4d9b20	0.012549192
252	0x3d8542ec	0.06506905
253	0x3d8d89dc	0.0691106
254	0xbe031fc9	-0.12805094
255	0xbd9282e4	-0.07153872

keyword_head.0.bias f4 [64]
0	0xbd4e9201	-0.05043221
1	0xbdb1e451	-0.08686126
2	0xbd56179e	-0.052268617
3	0xbc9bc2b3	-0.019013738
4	0x3cd7e780	0.026355505
5	0x3ce5aa2f	0.028035251
6	0x3d542233	0.051790427
7	0x3cff54d6	0.031168383
8	0x3d554744	0.052069917
9	0xbd78c834	-0.060737804
10	0x3cb8fab0	0.022580475
11	0x3e26e7c8	0.16299355
12	0x3e0d69c6	0.1380988
13	0xbd5a8a4f	-0.053354558
14	0x3d4e2bd0	0.05033475
15	0x3d97739b	0.07395097
16	0xbe1486cf	-0.1450455
17	0x3daaaad0	0.08333361
18	0xbd6f571c	-0.058432683
19	0x3df80be0	0.1211164
20	0x3d7b8d03	0.061413776
21	0xbdc26d42	-0.094934955
22	0x3de4da3e	0.11174439
23	0x3e18364c	0.14864463
24	0x3cdefc00	0.027219772
25	0x3deb552f	0.11490857
26	0x3d99882f	0.07496678
27	0x3e0a56cd	0.13509674
28	0xbd4f6b35	-0.05063935
29	0x3e5e50d0	0.21710515
30	0xbd0969b0	-0.033548057
31	0x3d676c4c	0.056499764
32	0x3d6bb427	0.057544854
33	0x3cf55dad	0.029951895
34	0xbd289a68	-0.04116288
35	0x3d293026	0.041305684
36	0x3e37ec9f	0.17961358
37	0xbd3e7032	-0.046493717
38	0xbe0246aa	-0.12722269
39	0xbdcf7ea0	-0.10131574
40	0xbc10d470	-0.008839712
41	0xbc9344a0	-0.017977059
42	0xbb1e6640	-0.0024169832
43	0xbd8eca3b	-0.06972166
44	0xbcf8d4de	-0.03037494
45	0xbd90c674	-0.07069102
46	0x3d102c6a	0.035198607
47	0xbd8c4063	-0.06848218
48	0xbd569216	-0.052385412
49	0x3df27d84	0.118403465
50	0xbdee4aee	-0.116353855
51	0xbd1fe328	-0.039034992
52	0x3d35dff2	0.044403024
53	0x3dfd255d	0.12360642
54	0xbca09188	-0.019600645
55	0xbde564d4	-0.11200872
56	0x3dba3feb	0.09094223
57	0xbc4aafe0	-0.012371033
58	0x3cac64b0	0.021044105
59	0xbd913b38	-0.07091373
60	0x3e117367	0.14204179
61	0xbd2d439d	-0.04230081
62	0x3d376d27	0.04478183
63	0x3da1fa2b	0.07909044

keyword_head.2.weight f4 [27, 64]
0	0x3d8b59ef	0.06804263
1	0x3c737346	0.014859026
2	0x3d38cf14	0.04511936
3	0xbd82acb5	-0.063805975
4	0xbded1f26	-0.11578207
5	0x3dcb6015	0.099304356
6	0x3c474913	0.012163418
7	0x3d3e1801	0.04640961
8	0x3d882dde	0.066493735
9	0x3d022114	0.031769827
10	0xbcbde133	-0.023178672
11	0x3d7e73d1	0.06212217
12	0x3df0687f	0.11738681
13	0x3d539b78	0.05166194
14	0xbd73e4ae	-0.059544258
15	0xbcff28ce	-0.031147387
16	0xbd8f12ef	-0.06986033
17	0xbdd1eac2	-0.102498546
18	0x3d8e143e	0.06937455
19	0x3c662912	0.014047878
20	0xbb56208c	-0.0032673208
21	0x3dbf8ae9	0.09352667
22	0x3c2c5340	0.010517895
23	0xbe0299d6	-0.12753996
24	0x3d8e8168	0.06958276
25	0x3c219bc8	0.009863801
26	0xbbda23da	-0.006657106
27	0x3ce3454d	0.027743006
28	0xbdfed2e4	-0.12442568
29	0xbc94f033	-0.018180942
30	0xbcb9dfc0	-0.0226897
31	0x3d1b869c	0.03797017
32	0xbd379d67	-0.044827845
33	0xbda4b2b7	-0.080419
34	0xbde0e12e	-0.109804496
35	0xbdb2e0ae	-0.087342605
36	0xbdabb4a5	-0.083840646
37	0x3c7f31f3	0.015575874
38	0x3d4cde8d	0.05001693
39	0x3df9b900	0.12193489
40	0xbc7cdbd0	-0.015433267
41	0x3d323521	0.0435077
42	0x3dd1551c	0.102213115
43	0xbdcc9ec6	-0.09991221
44	0x3d88b682	0.066754356
45	0x3dace0ed	0.08441339
46	0xbdbbbe00	-0.09167099
47	0x3d46b095	0.048508245
48	0x3d0200d7	0.031739082
49	0xbdd0a200	-0.10187149
50	0x3d05b060	0.032638907
51	0x3df5dd46	0.12005095
52	0xbd56a2d8	-0.052401394
53	0xbdde52e1	-0.10855652
54	0xbdde96e4	-0.10868624
55	0x3cc31498	0.02381353
56	0xbd6bf76d	-0.05760901
57	0xbdbadf92	-0.09124674
58	0xbd4a7814	-0.04943092
59	0x3d4d0e38	0.05006239
60	0x3d937269	0.071995564
61	0x3d8b04a4	0.067879945
62	0x3b4107be	0.0029454078
63	0xbd81f24e	-0.06345044
64	0x3ba9ff8e	0.005187935
65	0xbd8540ac	-0.06506476
66	0x3c82519c	0.015908055
67	0x3d5de628	0.054174572
68	0xbc36fc00	-0.01116848
69	0xbc2b6927	-0.010462082
70	0xbd89cf93	-0.06729045
71	0xbdc65d46	-0.09685759
72	0xbd9d9788	-0.07694918
73	0x3d2c4dbc	0.04206632
74	0x3d750f2a	0.059828915
75	0xbdffb889	-0.12486369
76	0x3c6f0f28	0.014591016
77	0xbc04b043	-0.008098665
78	0xbcfb5b96	-0.03068332
79	0xbc0879ee	-0.008329852
80	0xbdc7d0ec	-0.097566456
81	0xbdbc87da	-0.09205599
82	0xbdf29912	-0.11845602
83	0xbdaeb055	-0.085297264
84	0x3cb283f1	0.02179143
85	0xbdf1d97e	-0.118090615
86	0xbd1eee14	-0.038801268
87	0xbe3b566f	-0.1829469
88	0xbcd6bbf0	-0.026212662
89	0xbd7f5d56	-0.06234487
90	0xbdee7dd3	-0.11645093
91	0x3dbefbc1	0.09325362
92	0x3d25eeb3	0.040510844
93	0x3c06872c	0.008210938
94	0x3dd36716	0.103223965
95	0x3daa15ae	0.08304916
96	0x3d4db092	0.05021722
97	0xbde8d00e	-0.11367808
98	0xbd33d1a8	-0.043901116
99	0xbd42febc	-0.047606215
100	0xbda2e562	-0.079539075
101	0x3decb4ed	0.11557946
102	0xbdb56e28	-0.08858901
103	0xbdaafb4e	-0.08348714
104	0x3dc6af34	0.09701386
105	0x3d7e8753	0.062140774
106	0xbddaa322	-0.10675646
107	0x3dd4c88f	0.10389816
108	0xbdcb7b3d	-0.09935615
109	0xbd575d3b	-0.052579146
110	0x3de0e503	0.109811805
111	0xbcbc9018	-0.023017928
112	0x3b70ceec	0.0036744429
113	0xbcc8b9f0	-0.024502724
114	0xbdc0207a	-0.093811944
115	0xbd506748	-0.050879747
116	0xbd818052	-0.06323303
117	0x3dc945b4	0.09827748
118	0x3dc4bb84	0.09606078
119	0x3c2d1b3b	0.010565574
120	0x3cac5082	0.021034483
121	0x3dfa314c	0.12216434
122	0xbd8c8830	-0.06861913
123	0x3de3cbb7	0.1112284
124	0xbd297be1	-0.041377906
125	0x3d0e4825	0.03473677
126	0x3d8f4dee	0.06997286
127	0x3dcc6910	0.099809766
128	0xbd46f2ce	-0.0485714
129	0xbd34b3dd	-0.044116843
130	0xbdd5edf7	-0.10445779
131	0x3d29097f	0.04126882
132	0x3dd8a4be	0.10578297
133	0xbd52cbc8	-0.051463872
134	0xbce4ea3e	-0.027943727
135	0xbd89ca1f	-0.06728005
136	0xbd824110	-0.06360066
137	0xbdb86ade	-0.09004758
138	0xbc5f23dc	-0.013619389
139	0xbb4f8357	-0.0031663978
140	0x3d9aa3b5	0.07550756
141	0x3d989d36	0.074518606
142	0xbd7f17fb	-0.06227873
143	0xbdbffa3a	-0.09373899
144	0xbd2ea975	-0.042642076
145	0x3dfd6864	0.123734266
146	0x3c662f50	0.014049366
147	0x3c55b858	0.013044439
148	0x3d2bb2bb	0.041918498
149	0xbe051234	-0.12995225
150	0xbd761f30	-0.060088336
151	0x3be89e3a	0.00709894
152	0xbd4c0ed4	-0.04981883
153	0x3d2d875f	0.042365428
154	0x3c5bfcee	0.013427002
155	0xbd926642	-0.071484104
156	0xbd402f72	-0.046920247
157	0xbde3de0b	-0.11126336
158	0x3d4b68d0	0.049660504
159	0xbd43bcc0	-0.047787428
160	0xbdc56534	-0.096384436
161	0x3d4ebdfb	0.05047415
162	0xbc07b3f0	-0.008282647
163	0xbd3be4e3	-0.04587258
164	0xbd576f08	-0.052596122
165	0x3d3ff970	0.04686874
166	0x3de47efc	0.11157033
167	0xbd07a30c	-0.033114478
168	0x3d21c334	0.0394928
169	0x3daf83ed	0.08570085
170	0x3d12f3e4	0.035877123
171	0x3d312db5	0.04325648
172	0x3bcd0dba	0.00625774
173	0xbdf13e51	-0.11779464
174	0xbc17a458	-0.009255491
175	0x3dceab35	0.10091249
176	0x3d4f9317	0.050677385
177	0xbda527c8	-0.08064228
178	0x3ca68db8	0.020331249
179	0x3b623a40	0.0034519583
180	0x3dc65dda	0.096858695
181	0x3cc30653	0.023806727
182	0xbd088d28	-0.033337742
183	0x3d05fd2e	0.032712154
184	0xbd5fc70d	-0.05463319
185	0xbdeb10fa	-0.114778474
186	0xbd067a04	-0.032831207
187	0x3c87347c	0.016504519
188	0x3d35519c	0.044267282
189	0x3dabc700	0.083875656
190	0xbdf0101d	-0.11721823
191	0x3d02a8bd	0.031899203
192	0x3dbc5a88	0.09196955
193	0x3dafb636	0.08579676
194	0x3c47237d	0.012154457
195	0xbdf99905	-0.12187389
196	0xbdb7f0c4	-0.08981469
197	0x3dfbe7b6	0.12300055
198	0xbdd0972b	-0.10185083
199	0xbd655c78	-0.05599639
200	0x3d6255dc	0.055257663
201	0xbd4cf31c	-0.050036535
202	0x3d9f1201	0.07767106
203	0xbd29660d	-0.04135709
204	0xbdf39d53	-0.118952416
205	0x3d877695	0.066144146
206	0xbdea2b4d	-0.1143404
207	0x3cd8c736	0.026462179
208	0x3dc2f510	0.09519398
209	0xbdc950fa	-0.09829898
210	0x3d98fb48	0.07469803
211	0xbdcaf5b0	-0.099101424
212	0xbcd7263c	-0.026263349
213	0xbd8c303b	-0.06845137
214	0x3d360db4	0.044446662
215	0xbe1eb900	-0.1550026
216	0xbd89a85e	-0.067215666
217	0xbd2f963f	-0.042867895
218	0xbd8e5b99	-0.069510646
219	0xbd3f3718	-0.0466834
220	0xbde9c3ae	-0.11414276
221	0xbda354b6	-0.07975142
222	0xbdc0b7d6	-0.09410064
223	0xbd99a24e	-0.0750166
224	0x3dba01c8	0.09082371
225	0xbdcd4944	-0.1002374
226	0x3cb09f08	0.021560207
227	0xbdcdb5cf	-0.10044443
228	0x3b95fc3c	0.004577188
229	0xbdd304c8	-0.10303646
230	0x3d394ad6	0.045237385
231	0x3da57688	0.08079249
232	0xbc2fdd70	-0.010733947
233	0xbd8e1d40	-0.06939173
234	0xbd8039ca	-0.062610224
235	0xbd7d357f	-0.061818596
236	0x3d84e95f	0.064898245
237	0x3defb9e4	0.11705378
238	0x3caaaca8	0.020834282
239	0xbdd924d5	-0.10602728
240	0x3d325ada	0.043543674
241	0xbc9c9098	-0.019111916
242	0x3cdff1d0	0.027336985
243	0xbd8f4f08	-0.06997496
244	0x3d9377c9	0.072005816
245	0x3dab73f2	0.08371724
246	0xbdcfb6e0	-0.101423025
247	0xbdb3bef2	-0.08776654
248	0x3c820660	0.01587218
249	0xbde2eb72	-0.11080064
250	0xbd8b22a2	-0.06793715
251	0x3d9176eb	0.0710276
252	0xbd796e58	-0.060896248
253	0x3d9830f1	0.0743121
254	0xbcc2a03d	-0.023758048
255	0xbd9cc11a	-0.07654019

keyword_head.2.bias f4 [27]
0	0xbca43602	-0.020045284
1	0xbd2ce754	-0.0422128
2	0x3b23aec3	0.0024975992
3	0xbc58e8d5	-0.013239105
4	0xbe0d41dd	-0.13794656
5	0xbc670834	-0.014101077
6	0xbe333c44	-0.17503458
7	0xbdf284a8	-0.118417084
8	0xbd9115d0	-0.070842385
9	0xbd681296	-0.05665835
10	0x3d62a183	0.05532981
11	0xbcb8707e	-0.022514578
12	0xbe3efda1	-0.18651439
13	0xbd60ee23	-0.054914605
14	0x3c37f79d	0.011228469
15	0xbd8de18e	-0.06927787
16	0x3d0153dd	0.03157412
17	0xbdc065b5	-0.09394399
18	0x3bffacd1	0.0078025837
19	0xbdda60a6	-0.106629655
20	0xbdfc4ac4	-0.12318948
21	0x3c891e36	0.016738039
22	0xbe0d5a61	-0.13804008
23	0xbe4834b7	-0.19551359
24	0xbdc4d886	-0.09611611
25	0xbd51a5ad	-0.05118339
26	0xbdca1157	-0.098665886

price_head.0.weight f4 [32, 64]
0	0x3d69f0e0	0.057114482
1	0x3c811728	0.015758112
2	0x3dff1be8	0.124564946
3	0x3db07dcc	0.08617744
4	0x3dd99848	0.106247485
5	0xbda7976c	-0.08183178
6	0x3decf918	0.11570948
7	0x3c4c4190	0.012466803
8	0xbdc5b9fc	-0.09654614
9	0xbd5ac5c8	-0.053411275
10	0xbdead9e8	-0.114673436
11	0xbdb771c4	-0.08957246
12	0xba20f200	-0.00061395764
13	0x3db77f9a	0.08959885
14	0xbde91738	-0.11381382
15	0xbdba89da	-0.09108324
16	0x3db1a530	0.08674085
17	0x3ce6f290	0.028191835
18	0x3daadc5e	0.08342813
19	0x3d1a2e18	0.037641615
20	0xbda2f096	-0.079560444
21	0x3c352860	0.011056989
22	0xbb749480	-0.0037319958
23	0xbdecfa36	-0.115711614
24	0x3c99d0e8	0.018776372
25	0xbde5f0c0	-0.1122756
26	0xbd22f00c	-0.039779708
27	0xbda2dffc	-0.07952878
28	0xbd44ec0c	-0.048076674
29	0xbccc47b8	-0.024936542
30	0xbdb0c4f0	-0.08631313
31	0x3dca835e	0.098883376
32	0xbb8a9e80	-0.0042303205
33	0xbdc56d3a	-0.09639974
34	0x3d53a998	0.05167541
35	0x3db258c2	0.087083355
36	0x3d82da20	0.0638926
37	0x3df25b18	0.11833781
38	0xba000d00	-0.00048847497
39	0xbd08ef80	-0.03343153
40	0x3dd0de42	0.10198642
41	0xbd221f20	-0.039580464
42	0xbdfd1a5c	-0.12358543
43	0x3d79b82c	0.060966656
44	0x3d979312	0.07401098
45	0xbc1cedd0	-0.009578183
46	0xbd2716a8	-0.04079309
47	0xbde1c94c	-0.110247225
48	0x3ce368f8	0.027760014
49	0x3c9ead78	0.019369826
50	0xbd4d1680	-0.050070286
51	0xbb051280	-0.0020305216
52	0x3d6a8754	0.057257965
53	0x3daf6e86	0.085660025
54	0xbda87136	-0.08224718
55	0x3d8f0d9a	0.06985016
56	0xbd07aba0	-0.03312266
57	0xbd4eaea8	-0.050459534
58	0x3c67ef10	0.014156118
59	0xbb729f40	-0.003702119
60	0xbd987d8e	-0.07445823
61	0xbd9ed18c	-0.07754812
62	0xbc611af0	-0.013739333
63	0x3c5b8ab0	0.013399765
64	0x3d771586	0.06032326
65	0x3deffa69	0.11717684
66	0x3df80602	0.12110521
67	0xbd5cb2d0	-0.053881466
68	0xbc5ea844	-0.013589922
69	0x3be25860	0.006907508
70	0xbc9df4b6	-0.019281726
71	0xbd754194	-0.059876993
72	0x3d860360	0.065436125
73	0xbdb94e98	-0.09048194
74	0xbd8c2113	-0.06842246
75	0xbbfa4f37	-0.0076388377
76	0x3d296bb0	0.041362464
77	0x3dfc51d8	0.12320298
78	0xbdd3d418	-0.10343188
79	0xbd5fd448	-0.054645807
80	0x3d623964	0.055230513
81	0xbe00aabe	-0.12565133
82	0xbdae69a0	-0.0851624
83	0x3d7fa290	0.06241089
84	0xbb88f533	-0.0041796206
85	0xbdc6131a	-0.09671612
86	0x3b8cf7e0	0.00430201
87	0xbdbd8752	-0.09254326
88	0x3b360640	0.0027774721
89	0xbd66f410	-0.0563851
90	0x3deed4e9	0.11661703
91	0x3d24851c	0.040166005
92	0xbd8be67c	-0.06831071
93	0x3d2b67b0	0.04184693
94	0x3d83be97	0.064328365
95	0x3dfde220	0.123966455
96	0xbd15f674	-0.03661199
97	0x3bca4f3d	0.0061739967
98	0xbaf10880	-0.0018389374
99	0xbd047a77	-0.032343354
100	0x3d8881f0	0.066654086
101	0xbda9eb1e	-0.08296798
102	0x3d6cedad	0.057843853
103	0x3da2def4	0.07952681
104	0xbd440430	-0.047855556
105	0xbda177ef	-0.07884204
106	0xbd9dc224	-0.07703045
107	0x3d181e0a	0.037138022
108	0xbd88d2ec	-0.06680855
109	0x3dfb77ed	0.122787334
110	0x3a95910a	0.0011411023
111	0xbd7d1528	-0.061787754
112	0xbda03914	-0.07823387
113	0x3dfc39b1	0.12315691
114	0xbdfe5ac4	-0.12419656
115	0xbb749140	-0.003731802
116	0xbdef6c08	-0.11690527
117	0x3cc862a8	0.024461105
118	0x3df6fb7a	0.12059684
119	0x3d4c3d20	0.04986298
120	0xbca27304	-0.019830234
121	0x3a38e8b8	0.0007053721
122	0xbdbd8839	-0.09254498
123	0xbd8713f0	-0.065956
124	0xbc1e2fc0	-0.009654939
125	0x3d90be66	0.070675656
126	0x3db5f311	0.08884252
127	0xbdc0b0d8	-0.0940873
128	0xbcd88440	-0.02643025
129	0x3d514901	0.051095013
130	0x3d208e1f	0.039198037
131	0x3d0a4930	0.033761203
132	0x3d95c530	0.07313001
133	0xbcc49300	-0.023995876
134	0x3d68fde3	0.05688275
135	0x3d73823a	0.059450366
136	0x3d8021a6	0.06256418
137	0xbd07d868	-0.033165365
138	0xbd628417	-0.055301752
139	0xbdcaffda	-0.09912081
140	0x3d0f4b20	0.034983754
141	0x3d7cdb40	0.06173253
142	0x3dd5b068	0.104340374
143	0x3c2e266f	0.0106292805
144	0xbde2bc90	-0.11071122
145	0xbde03de5	-0.109493054
146	0xbdc6ba76	-0.09703533
147	0x3dc0c348	0.09412247
148	0x3ddef495	0.10886494
149	0x3cab77e8	0.0209312
150	0x3db697f6	0.08915703
151	0x3de82896	0.11335866
152	0x3c740930	0.014894769
153	0xbb9e9676	-0.0048397137
154	0x3dfe0e44	0.12405065
155	0x3d62ea18	0.05539903
156	0xbdc9dc5e	-0.09856485
157	0x3df53d7d	0.119746186
158	0xbd50525c	-0.050859794
159	0x3da6ea8a	0.081502035
160	0x3d6a6cad	0.057232548
161	0xbd483e2e	-0.048887424
162	0x3d8a5df6	0.06756203
163	0xbcacee48	-0.021109715
164	0x3dec25b6	0.1153063
165	0x3d9fceeb	0.07803138
166	0x3d0ad151	0.033891026
167	0xbdbb1eae	-0.09136711
168	0x3d3b8e28	0.045789868
169	0x3b2ccce3	0.002636724
170	0xbd7817b8	-0.060569495
171	0x3c1b98fd	0.0094969245
172	0x3ca52d53	0.020163214
173	0x3dea6bab	0.11446317
174	0xbdacce40	-0.084377766
175	0xbd88e4ce	-0.06684266
176	0xbde05c6d	-0.10955129
177	0x3cee6499	0.029100703
178	0xbca0c828	-0.019626692
179	0x3db3b898	0.08775443
180	0xbd96d079	-0.07363982
181	0x3cd71928	0.026257113
182	0xbd78cd08	-0.060742408
183	0x3dfc8066	0.123291776
184	0x3d86a545	0.065744914
185	0x3dbe7703	0.093000434
186	0xbbfd28f5	-0.0077258297
187	0xbb9409c0	-0.004517764
188	0xbd651f88	-0.055938274
189	0x3ccbbad0	0.024869353
190	0xbcfc51a5	-0.03080065
191	0x3d92f12e	0.071749076
192	0x3df9a828	0.121902764
193	0x3dfca8a8	0.12336856
194	0x3dc75b4a	0.09734209
195	0x3ab7b300	0.0014015138
196	0xbdc10668	-0.0942505
197	0x3da9857e	0.08277415
198	0xbd9f77bc	-0.077865094
199	0xbd817d02	-0.063226715
200	0xbc832040	-0.016006589
201	0x3d82d916	0.06389062
202	0xbde73c04	-0.11290744
203	0xbbf33c99	-0.0074229953
204	0xbc6aeb70	-0.014338359
205	0x3d291e9c	0.041288957
206	0xbd8a5a04	-0.0675545
207	0x3cfb2e15	0.030661622
208	0x3de403b2	0.11133517
209	0x3a24093e	0.00062574807
210	0xbdb049b2	-0.08607806
211	0xbdf615fa	-0.120159104
212	0x3cfdfc79	0.031004177
213	0x3cd315b8	0.025767192
214	0x3d5c471c	0.053778753
215	0xbc3cbb80	-0.011519313
216	0xbd80c62a	-0.06287797
217	0xbd5f89c3	-0.05457474
218	0xbdde7571	-0.10862244
219	0x3c067027	0.00820545
220	0x3bd53060	0.006506011
221	0xbddcf7fa	-0.10789485
222	0xbd6c3f48	-0.057677537
223	0x3bdb3a80	0.0066903234
224	0x3c865bd0	0.016401201
225	0xbd94dae1	-0.0726831
226	0x3cb20090	0.021728784
227	0x3d0b9438	0.0340769
228	0x3dd6854a	0.104746416
229	0xbddc3290	-0.107518315
230	0x3d5178f0	0.051140726
231	0xbdf87ec6	-0.12133555
232	0x3db00cf6	0.08596222
233	0xbc1eaeb8	-0.009685211
234	0xbde163d9	-0.110053726
235	0xbdcb5515	-0.099283375
236	0xbc3c3483	-0.011487129
237	0x3d68c18c	0.056825206
238	0xbc9fda0d	-0.019513154
239	0xbd580c38	-0.052746028
240	0x3ddf3296	0.108983204
241	0x3d1679af	0.03673714
242	0x3badc860	0.0053034276
243	0xbc8e8850	-0.017398983
244	0xbdc046e1	-0.09388519
245	0x3d075074	0.03303571
246	0x3d851ebc	0.06500003
247	0xbda63cb4	-0.08117047
248	0x3db5714d	0.08859501
249	0xbdf07280	-0.11740589
250	0xbd0b6be8	-0.034038454
251	0x3bd2df00	0.006435275
252	0x3d9903ce	0.07471429
253	0x3d8472f9	0.06467242
254	0xbddd0d59	-0.107935615
255	0xbc797920	-0.015226632

price_head.0.bias f4 [32]
0	0x3d36ed74	0.044660047
1	0xbdb84f1a	-0.089994624
2	0x3dc470b9	0.09591813
3	0xbda5fad8	-0.08104485
4	0x3ddac454	0.10681978
5	0xbc8f014e	-0.017456677
6	0xbe1a2b62	-0.15055612
7	0x3c501be3	0.012701961
8	0xbc03d82e	-0.008047147
9	0x3d9f8f66	0.07791023
10	0x3c8cfdd0	0.017210871
11	0xbd96a546	-0.07355742
12	0xbdfc3694	-0.123150975
13	0x3bde2881	0.006779731
14	0xbd399e90	-0.045317233
15	0x3c3448cc	0.011003684
16	0xbdc6e80f	-0.097122304
17	0xbdbaa270	-0.09113014
18	0xbe0157bc	-0.12631124
19	0xbe21ba7d	-0.15793796
20	0x3e085727	0.13314496
21	0xbe5048c6	-0.20340261
22	0xbc4951b5	-0.012287547
23	0x3cc1b8a8	0.023647621
24	0x3d6c8adb	0.05774961
25	0x3dbbb200	0.0916481
26	0xbcf8f8d5	-0.03039209
27	0x3c741a60	0.014898866
28	0x3c4d7540	0.012540162
29	0x3df10c2c	0.117699
30	0x3d5c2700	0.05374813
31	0xbdddb87f	-0.108262055

price_head.2.weight f4 [1, 32]
0	0x3cd97cbf	0.026548741
1	0x3cbecb98	0.02329044
2	0xbe319574	-0.17342168
3	0x3d70bdfb	0.05877493
4	0x3dbbe74f	0.09174978
5	0x3e2dc2de	0.16968867
6	0xbd68b94c	-0.056817338
7	0xbdef34b5	-0.11679975
8	0xbe09a9ed	-0.13443728
9	0xbdf0240c	-0.117256254
10	0x3daef364	0.08542517
11	0xbe22fb22	-0.15916112
12	0xbdff93c6	-0.124793574
13	0xbd7e9030	-0.062149227
14	0xbc445296	-0.011982581
15	0xbe09c503	-0.1345406
16	0x3e1e176a	0.1543862
17	0xbd37faf6	-0.04491707
18	0xbd4fa505	-0.050694484
19	0xbe1f4a83	-0.15555768
20	0x3c902d9a	0.01759987
21	0xbcf07840	-0.029354215
22	0x3db19e8f	0.08672821
23	0xbdb0d6a8	-0.086346924
24	0x3d75cd33	0.060010146
25	0x3d729fd2	0.059234448
26	0x3db0ebf1	0.08638752
27	0xbe34776c	-0.17623681
28	0x3bf17007	0.007368091
29	0x3cc80826	0.024417948
30	0xbcc2e47b	-0.023790589
31	0x3ce70543	0.028200751
