DQN_Agent/Models_Saved/multi_task_DQN.pth (torch, 84066 bytes, 11 tensors)

main_trunk.0.weight f4 [128, 27]
00000000: e18f d540 8680 f240 d74a d040 b078 9a3f
00000010: 73b0 1a40 917c a33f d182 ec3f 2ffc 973f
00000020: e902 eb3f cec7 4bc0 1591 6dc0 e2ed c63f
00000030: 2b32 16c0 95ca 803f 4289 0740 2b11 ed3f
00000040: 639a 913f c68d 1740 301f 163f 72d9 73c0
00000050: 251f 0240 bb25 5940 c4b1 c53f e512 803f
00000060: c68e d83f 69bf 45c1 49e2 59bc 34d6 8cc0
00000070: f822 b4c0 3e45 e8c0 6740 bebf 0344 aabf
00000080: af3f c0bf 2bb0 8fbf f0e5 cbbf 0291 a1bf
00000090: 5bc7 96bf 2756 c8bf 6a9a 90bf bfe2 b0bf
000000a0: 0c9e a3bf a7be 8dbf e1c1 95bf f1c7 a03e
000000b0: d92c 8dbf 4b77 d9bf c82f a2bf ca6c b3bf
000000c0: e2a6 74bf 52ac afbf 2608 bdbe 511d 2ebf
000000d0: 3afd b340 6eab 9939 bc40 3c3f 3de7 9540
000000e0: 4e85 6340 028c 7a3e 4335 83be caef f2bd
000000f0: cfe0 5e3f 5c9f 9d3e 6c73 603f 1482 80c0
00000100: 2332 583e f2ec 3bbe 37ca dd3f cfbc 0f3f
00000110: b01f a33f 9247 19bd 6c3c babf 3200 353f
00000120: 0d6b 67bf e426 183f 497e 913e 0838 3b40
00000130: 3426 57bf 6a79 8e3e cf8c a1bf 3e08 da3e
00000140: b9f3 0fbe a766 bebd 2b53 0cbe 2c55 1fbd
00000150: 08d8 903d ff36 34be 1bdc c53d 5ce2 443e
00000160: 1ddf 013e cb9f 36be 58ca d43d ef4a e13d
00000170: 5b4f cb3c 125c 38be 8a26 cabd d000 0d3e
00000180: 690e b13d 0675 18be caae 87bd d57c e9bc
00000190: 0d27 233e 2487 1fbe 934c 953d cde8 8bbd
000001a0: 30d8 a73d 87eb f0bd 31d7 db3c 86df 83bd
000001b0: d183 383d 5c1b 29bc c6f0 fbbd 5dcd 183e
000001c0: 0a32 c5bd 4a2f a9bd 0a78 363e e2d5 37be
000001d0: d2a0 933d 9e56 183d 4b01 073e 133a 88bc
000001e0: 0564 c9bd d578 363e bbee 563d 65ca ddbd
000001f0: 0169 923d 47f8 e03c 2bcf 8e3d 70f0 4b3d
00000200: 115c d3bd 293b 693d c3c4 39be 18eb 3e3e
00000210: 669a a5bc 9a87 1c3e 58a4 e7bd 8dbd 35c0
00000220: a64b c9bf 1cbe 8ec0 da49 c03c 7598 e6bd
00000230: 49f8 a43c 841a babe 74dd dcbe d0f5 c3be
00000240: d955 8abf 9f5f c1be 6aee 2fbe 0695 15bf
00000250: e0c0 59bf e404 bcbe 5184 10be c7dc 93be
00000260: 28ac 82be bcd9 05bf d834 8dbe 0353 90be
00000270: 7eec 853f a17b e0be 9e47 36be d4a6 dcbe
00000280: f19e 30bf 8005 33b7 c673 2441 d7fe 4b41
00000290: ff57 6e41 4f0f 9cbe e032 6c3e 219a 293e
000002a0: 0365 89be 3621 9b3d 5bfe 24be 5be6 2040
000002b0: edf8 1241 31c7 b3be 7220 6340 6a53 63be
000002c0: a701 363c 9b7a cdbd 2463 c8be d6fb d93e
000002d0: a230 d3bd 2edb e340 b1ee bcbd f623 fb40
000002e0: 3ce7 30be 1618 88be 3d91 75be ec6a 1a41
000002f0: 663a bd39 f30b 8c40 a685 9140 fff4 9d40
00000300: 07ba 8b3f fffd de3f e93d 9d3f 9cad fd3f
00000310: 057c c13f 9203 643f a8ef 053f 97b2 59c0
00000320: b168 e63f 267c 55c0 c96d ab3f 031a c53f
00000330: b975 873f 68c6 f13f 8709 b8be 091d 353f
00000340: b70c c9c0 7367 fd3f 931c 5540 fd56 2c3f
00000350: 1755 733f 0be3 803f a432 cfbf c37b 8bbd
00000360: 1d97 af40 1cdb 4440 17c8 2240 ab81 aebf
00000370: 413c 95bf 5f68 72bf 232f 183f 1d05 d63e
00000380: d32e a6be 2ecc b240 3c13 1540 31b4 cbbf
00000390: 6bf8 d03e 1700 33bf 0d7a 8dbf 70e3 ce3e
000003a0: 3176 1a40 0a04 6abd 0ca6 ca3e 1ad9 95be
000003b0: ebbd 6cbf 5a4f 93c0 5c2c 73bf d182 91be
000003c0: 417d bbbf 37ee 94bd 4c64 1fbe 4ab5 d53d
000003d0: 83cd e83c 0b53 15be 7397 bcbd 321a a23d
000003e0: e279 44be 820d 943b e4c7 b73a 8ab3 063e
000003f0: 6da2 2a3e c235 35be c263 e43d 53cb 61bd
6.6738133 7.578189 6.5091357 1.2068081 2.4170196 1.277239 1.8477422 1.1873835
1.8360263 -3.18407 -3.71198 1.5541346 -2.346812 1.0061823 2.1177526 1.8520864
1.137524 2.3680282 0.5864134 -3.8101468 2.033151 3.392928 1.5444875 1.0005766
1.6918571 -12.359231 -0.0132985795 -4.401148 -5.6292686 -7.2584524 -1.4863404 -1.3302006
-1.5019435 -1.1225637 -1.5929546 -1.2622378 -1.1779588 -1.5651292 -1.1297123 -1.3819197
-1.2782607 -1.1073807 -1.1699792 0.31402543 -1.1029311 -1.698953 -1.2670832 -1.4017575
-0.9556714 -1.3724463 -0.3692028 -0.68013483 5.6246614 0.0002931016 0.73536277 4.6844773
3.5550113 0.24467471 -0.25626573 -0.118621424 0.8706178 0.30785644 0.8767612 -4.0158787
0.21112876 -0.18352106 1.7327336 0.56147474 1.2744045 -0.03742177 -1.4549689 0.70703423
-0.9039772 0.5943434 0.2841666 2.9252949 -0.8404267 0.27827007 -1.2621096 0.42584413
-0.14057817 -0.09296923 -0.13703601 -0.038899586 0.07072455 -0.17599104 0.096611224 0.19226974
0.12682767 -0.17834394 0.103901565 0.110006206 0.024818113 -0.18003872 -0.09870632 0.13769841
0.08645327 -0.14888391 -0.06625135 -0.028501907 0.15932865 -0.15578896 0.07289996 -0.068315126
0.08195531 -0.11763673 0.02683601 -0.06439118 0.045047585 -0.010321464 -0.12301783 0.1492209
-0.09628685 -0.08260973 0.17819229 -0.17952684 0.072084084 0.03719198 0.13184087 -0.016629254
-0.0983353 0.17819531 0.052473765 -0.10829619 0.07148934 0.027462138 0.06973108 0.049789846
-0.10320295 0.056941185 -0.18141465 0.18644369 -0.020215224 0.15286103 -0.11310643 -2.8396943
-1.5726211 -4.4607067 0.023472715 -0.112595476 0.020137923 -0.36348355 -0.43137705 -0.38273478
-1.0807449 -0.37768266 -0.17180791 -0.58430517 -0.8505993 -0.3672248 -0.14112975 -0.28879377
-0.2552197 -0.5228536 -0.2757938 -0.28188333 1.0462797 -0.4384432 -0.17800757 -0.4309603
-0.68992525 -1.0670512e-05 10.278265 12.749717 14.896483 -0.3048043 0.23066282 0.16562702
-0.26834878 0.07574694 -0.16112654 2.5140598 9.185773 -0.35112908 3.5488553 -0.22199789
0.011108792 -0.10033151 -0.39138138 0.42574948 -0.1031201 7.1205053 -0.09225214 7.84814
-0.17275709 -0.26580876 -0.23981185 9.651104 0.000360924 4.3764586 4.5475645 4.9361567
1.0916146 1.7421263 1.2284518 1.9818606 1.5115973 0.8906795 0.5231881 -3.4015253
1.8000699 -3.3357024 1.3392879 1.5398563 1.0582801 1.8888674 -0.3594477 0.7074743
-6.282802 1.9797195 3.329869 0.67320234 0.9505171 1.0069288 -1.6187329 -0.06810715
5.4871964 3.0758734 2.5434625 -1.3633322 -1.1659013 -0.9469051 0.59446925 0.41800776
-0.324576 5.5874243 2.329299 -1.5914365 0.40814528 -0.6992201 -1.1052872 0.40407896
2.4134638 -0.05713276 0.3957981 -0.29267198 -0.9247729 -4.6034365 -0.9498956 -0.28420117
-1.46476 -0.072719984 -0.15565604 0.10434969 0.028418308 -0.1458246 -0.09208574 0.079151526
-0.1918712 0.004518212 0.0014021364 0.13154426 0.16663523 -0.17696288 0.1115184 -0.055125546

main_trunk.0.bias f4 [128]
00000000: f732 e73f 9590 f4bf 7563 453f 0af5 c33d
00000010: 855d bf3c cf27 29bf 4627 6e40 d891 f43f
00000020: 3304 ec3e 1049 833d 503b 1040 1e71 c73d
00000030: 5f96 823d 26b8 2bbd 8d84 9bbe d950 39bd
00000040: 1572 353f d269 05c0 0d9c 19bd 9fd5 2b3e
00000050: c32e eb3d f285 723f 29f2 db3f 116f 133e
00000060: c584 2dbe ea03 3ebe 32b9 c4bd a76a 24be
00000070: 229e 4abe 5456 4a3c 564d 97bd 64e9 40c0
00000080: 59d7 ab3d 46ad 1740 9ed7 333d 330d 0bc0
00000090: c161 07c0 0cdf f33f 2989 6a3f d215 a33d
000000a0: 5e1f 22be 874c ac3e e97c a43d 1bf0 e8bd
000000b0: b3bb 893f ea06 1e3e da94 f43f 2923 cabd
000000c0: 5bf3 b23f 173c 153f 4285 093d 36f8 73be
000000d0: c8bc 913f 6322 3c3f 013f 8cbe 1877 9c3f
000000e0: dd91 d33d 0400 033d d65d 24be 6796 2c3d
000000f0: 68c6 86bc d61f 35be bed0 d4bd 38e7 24be
00000100: 708e 8f3d 8f4b 7b3e 97c8 b43b 6676 283e
00000110: 0bc4 fdbf 0440 513f 9503 dfbd 940e 8fbc
00000120: c04a db3d 7875 1440 e174 88bd 5793 093e
00000130: 6e7e 46bf 6385 323e 9bdc 5940 afbc 2d40
00000140: 30ef bdbd a310 32be 8f43 2d3e 596b a5bf
00000150: 8784 02be 6a53 6a40 99c6 06bd c45e c73e
00000160: 3e85 c2bd b92c 41be e7ba e63e ee4f 83bd
00000170: 859d 27be 2f9a ec3f 7457 523f 0993 3c3f
00000180: d7a6 71bd ff11 2040 9d4b 1ac0 61ba 79ba
00000190: 4573 a339 a29f c03e 8766 fabc 7be3 a7bd
000001a0: 4f23 1dc0 128b 873f 2b32 0dbc f37f 1140
000001b0: 4409 b53d ce64 df3d e8c8 bc3e 51b9 0a3f
000001c0: 7cba a73e 70ee b7bd a247 253e 76e9 07bd
000001d0: bbe3 5040 2bb8 793f f563 00be 9b6d 92bf
000001e0: a844 013f 94f4 1c3e 83eb 98bd 0b71 3abe
000001f0: 5198 1c3f a5d7 863c 21d4 8a3f ef3d 0fc0
1.8062428 -1.9106623 0.77104884 0.09568222 0.023360023 -0.6607637 3.721147 1.9107008
0.46096954 0.0641042 2.2536201 0.09738372 0.06376337 -0.041923665 -0.30374566 -0.045243118
0.708772 -2.0845838 -0.037502337 0.16780709 0.114835285 0.94735634 1.7183276 0.14397837
-0.16945179 -0.1855618 -0.09605636 -0.1605631 -0.19786885 0.012349684 -0.073877975 -3.014245
0.08390684 2.3699508 0.0439068 -2.1726806 -2.1153414 1.9052444 0.9161554 0.07963146
-0.15832278 0.33652136 0.08031637 -0.113739215 1.0760406 0.15432325 1.9107926 -0.098699875
1.3980516 0.58294815 0.03357435 -0.23825154 1.1385736 0.7348997 -0.27391818 1.2223845
0.103305556 0.031982437 -0.1605142 0.042135622 -0.01645203 -0.17687926 -0.10391377 -0.16103828
0.0700959 0.24540542 0.0055170762 0.16451415 -1.9825453 0.81738305 -0.10889355 -0.017463006
0.10707617 2.3196697 -0.06662918 0.13435112 -0.77536666 0.17433695 3.4040897 2.7146413
-0.09274137 -0.17389159 0.16920303 -1.2923385 -0.12745868 3.6613412 -0.03290424 0.38939488
-0.0949807 -0.18864717 0.4506447 -0.0641173 -0.16368683 1.8484553 0.8216469 0.7366186
-0.058997 2.5010984 -2.410865 -0.0009526369 0.00031175665 0.3762179 -0.030566467 -0.08197685
-2.45528 1.0589316 -0.008617918 2.2734344 0.08839658 0.10907899 0.3687203 0.5418902
0.32759464 -0.08981025 0.16140607 -0.03318163 3.2638996 0.97546643 -0.1253813 -1.1439699
0.50495386 0.15327674 -0.07466795 -0.18207185 0.61169916 0.01646025 1.0845987 -2.2381551

main_trunk.2.weight f4 [64, 128]
00000000: 914b b33c e598 eb3a cd43 643c f3d5 a7bd
00000010: 6429 a8bd 40f9 babd 152d 26be 424a f2bc
00000020: 8c37 f1bd f1f2 91bd e5cc c73c dcb3 783d
00000030: d891 b4bc d471 49bb c5af aebd e56e 9d3d
00000040: 0d78 93bd 4b0f 6cbc b43e 2ebd 2958 5e3d
00000050: 39c2 e53c 789c dbbd 7f4f 88bd 1a82 8dbd
00000060: 6863 93bd 9529 2b3d a70f 3e3d 4d1b 373d
00000070: 0cbf 9a3c fe27 3ebd 4d90 3a3d a05b d53c
00000080: f3aa 8ebd e8e2 013d 8fd5 91bc bfcb 07bd
00000090: c0be 973c 3b5e 413c bde0 82bc b56d 8c3c
000000a0: 516e 383c a009 03bd 1544 f43c cb36 6d3d
000000b0: 758e 5cbd 7bce f73c 3fb2 15be ac00 a2bd
000000c0: bdf0 30bd 149f ebbc 570d 41bd df01 58bd
000000d0: 22e5 c33c e512 0ebe ac55 20bd 0698 56be
000000e0: 73a6 cbbd 033d 97bb f62f 48bc ef51 a03d
000000f0: 3cdb 3fbd 8c4f 593d df0b c7bd 592e a2bd
00000100: f74c 93bd 3335 a7bd 4c87 4f3d ac5a 2dbd
00000110: c1c8 3f3d e75e d33c 25ea 84bd 8216 26bd
00000120: 9b76 c8bc dfe5 dfbd 4c76 d0bc 9b8f 7dbd
00000130: a1cf 7cbd fdbe 99bd a255 4abe 9719 f4bd
00000140: fb64 1abd a333 643d 0e81 c0bc e131 e7bc
00000150: 3a37 c5bc a516 b2bc 927f 2c3c a740 083d
00000160: 0c80 ed3b c82e a83c 00d6 6abd 3ccb 933d
00000170: e701 243d ef59 4ebd d503 14bd 3920 283d
00000180: ee90 9d3c b1bc 12be 212a 6fbd 858a dcbc
00000190: 212d a43d 3394 153d 7f7b cbbc a6cc eabc
000001a0: d9cb de3c 3e79 05be b039 ab3d 1456 febd
000001b0: d11d 913d 19fe 803d df75 1abc 5fbe 8bbd
000001c0: 3ba5 fe3c 179d 783b 6391 8dbd 672c 073d
000001d0: 7b2d 38bd cda6 16bb ee2c 4f3d f978 93bd
000001e0: 77d3 bf3c 8c6d 54bc 9e9f 90bd 5a51 85bd
000001f0: 5a6f d43c f45b 6cbb 3808 f33c 169b d5bd
00000200: a479 e4bd 92b1 6bbd 9a88 c7bd 2a28 c73c
00000210: 445f 5a3d 6def 3fbc 4fec f8bd 9979 afbc
00000220: bc44 90bd 0af4 09bd fd29 9fbc 84ae 7e3c
00000230: 072a f03c d010 4d3d b45d efbc ccbc 8ebd
00000240: 85da e3bc f062 93bd d849 e43b ec63 acbd
00000250: 75f1 3f3d 5557 753d e0c6 bebd d619 493d
00000260: 7ae9 59bd 66f7 923d 45d2 a1bd 90bd 52bd
00000270: 5c68 87bd 928f a23d cb2b a93d 3a62 5b3d
00000280: dde5 833d 9aae 483c c6df 98bc ae4b 00be
00000290: 8efd 3fbd 421c 77bd fdd1 dabc 8d58 593d
000002a0: cadb 26bd cc83 90bd 09c6 823d 0725 b2bd
000002b0: 4543 7a3d 67e7 543d 700e 443d d8f2 10bc
000002c0: d9d8 e93c 93b7 2c3c a9e8 ceba fb8f 11bd
000002d0: ce61 0ebd cf6f aebd 14fd 36bc 54dc b53c
000002e0: ba64 e73c 5db3 2a3d d191 85bd 3fee 34bd
000002f0: 852a 72bd 7d54 81bd 074b 5ebd 646b 873c
00000300: c13e 18bd 8ee9 f9bc 73c6 4b3c 51c6 66bd
00000310: 9734 1c3d f6fa eebc e620 86bd 501a 14bc
00000320: 358b a9bc bd35 04bd 7c6a 0fbc 1579 00bc
00000330: 3d02 1c3d e79b fb3c de7e 9abc 1ae2 97bd
00000340: cd9c 0fbd 8d74 44bd b030 a9bd 4bc0 09bd
00000350: 2c80 e5bd 110d 97bd 7235 aebc 0b3a c83c
00000360: 6ad9 823d baf3 773d 5605 babd d501 703d
00000370: 6bdf 14bd a209 3b3d f88d c5bd 73ca 8cbd
00000380: c5c1 153d 556d 1abd 0b40 9fbc e321 3bbd
00000390: f6aa 68bb 71cb 34bd 3788 46bd 1d22 923d
000003a0: 2bf4 fd3c 8a63 99bd 064a ca3c d1cc 85bd
000003b0: df90 aa3d 3d1a 9c3d dcb9 60bd 6029 ac3b
000003c0: 9c24 9fbd 35b7 393c 5ccf 633d 4958 2bbd
000003d0: 1371 51bd d795 98bd 7a8a edba 3b10 8a3d
000003e0: 704f 46bb 4405 4dbc 4b23 8b3d 4f5a afbd
000003f0: 3928 3e3d 3ca2 bbbd cd89 013d 3ea6 c53c
0.021886619 0.0017974643 0.013932181 -0.081951044 -0.0821102 -0.09129572 -0.16228135 -0.029576425
-0.11778173 -0.071264155 0.024389694 0.060718402 -0.0220422 -0.0030738013 -0.08529619 0.07687167
-0.07200632 -0.014407943 -0.042540267 0.054283295 0.028046714 -0.107232034 -0.06655788 -0.069095805
-0.071966946 0.041787703 0.046401646 0.04470377 0.018889926 -0.04642486 0.045547772 0.026044667
-0.069662 0.031710535 -0.017802028 -0.03315329 0.018523574 0.011802251 -0.015976304 0.017142156
0.01125677 -0.0319916 0.02981762 0.057913583 -0.053846795 0.030249825 -0.14618777 -0.079102844
-0.043198336 -0.028762378 -0.047131862 -0.05273616 0.02391297 -0.13874395 -0.039144203 -0.2095643
-0.09943857 -0.0046154275 -0.012218466 0.078281276 -0.046839938 0.053054377 -0.09719061 -0.07918996
-0.07192414 -0.08164444 0.05066614 -0.0423228 0.046822313 0.025802089 -0.06489972 -0.04054881
-0.024470618 -0.10932516 -0.025447033 -0.06190453 -0.061721448 -0.07507131 -0.19759229 -0.119189434
-0.03769396 0.055713307 -0.023499038 -0.028222026 -0.024074186 -0.021739313 0.010528462 0.033264782
0.0072479304 0.02053012 -0.057332993 0.07216498 0.040040877 -0.050378736 -0.036136467 0.041046355
0.019234147 -0.14329793 -0.058389787 -0.02692152 0.0801642 0.036518287 -0.024839161 -0.028662037
0.027196812 -0.13034531 0.083606124 -0.12418762 0.07085765 0.06298465 -0.009427517 -0.0682342
0.031084647 0.003793543 -0.06912496 0.03300133 -0.04496525 -0.0022987605 0.050579958 -0.07200808
0.023416264 -0.012965571 -0.070616946 -0.06509657 0.025932003 -0.003606555 0.029667005 -0.10429971
-0.111560136 -0.05754239 -0.097428516 0.024311144 0.05331351 -0.011714798 -0.12154447 -0.021420287
-0.0704436 -0.03368 -0.019429201 0.015544537 0.029316915 0.05006486 -0.029219486 -0.06969604
-0.02781416 -0.07196605 0.0069668107 -0.08417496 0.04686113 0.05989774 -0.09315276 0.049096905
-0.053201176 0.07176094 -0.07901434 -0.051450312 -0.06611702 0.0793754 0.08260306 0.053560473
0.06440327 0.0122486595 -0.018661391 -0.1252887 -0.046872668 -0.060329683 -0.026711458 0.053062964
-0.04073695 -0.07056388 0.063854285 -0.08698469 0.06109931 0.051978495 0.04786533 -0.008846961
0.028545784 0.010541814 -0.0015785891 -0.0355377 -0.034761243 -0.085174195 -0.011168737 0.022199787
0.028246272 0.04167496 -0.06521953 -0.04417252 -0.05912258 -0.06314943 -0.05427077 0.0165307
-0.03716922 -0.030506875 0.012437451 -0.056341473 0.03813609 -0.029172402 -0.06549244 -0.0090394765
-0.020696262 -0.03227781 -0.008753415 -0.007841368 0.038088072 0.030713988 -0.018859323 -0.07416172
-0.035061646 -0.047962714 -0.082612395 -0.03363065 -0.112060875 -0.07375539 -0.02126572 0.02444174
0.06389125 0.06053517 -0.09083049 0.058595497 -0.03634588 0.045663483 -0.09646219 -0.068745516
0.036561746 -0.037701923 -0.019439718 -0.045686614 -0.0035502291 -0.04413933 -0.04846975 0.07135413
0.031000217 -0.07489689 0.0246935 -0.06533206 0.08328413 0.07622192 -0.05486475 0.0052539557
-0.077706546 0.011335184 0.055617675 -0.041832242 -0.051133227 -0.07450455 -0.0018122934 0.06741377
-0.003025975 -0.012513462 0.06793841 -0.08562147 0.046425078 -0.09161803 0.031625558 0.024127122

main_trunk.2.bias f4 [64]
00000000: 5933 27bf 4f73 e5bd 5926 76bd fa88 9240
00000010: c613 f8bd 9323 e8bd 6ff4 1bbc bcb0 24bd
00000020: c36d d3be d1d4 dd3e bea9 95bd 4769 12bf
00000030: d869 0d3f e775 833e 45a5 00be c1d8 eebc
00000040: 31b5 843c 7db6 69bf d926 9a40 6405 febc
00000050: e43b 0b40 8ba1 eabf b66e 50bd 7b16 92c0
00000060: aba5 cd3c fe7c 8f3e 3c60 34be 6bc0 2740
00000070: 091a e63e 913a d0bd 1e1e 04be 21c3 42bd
00000080: f056 8a3f 189f f4bf a2e1 2dbc 3ba3 643f
00000090: 1bb9 4abe 798c 0640 27ef ffbd 7727 e9bd
000000a0: 43cc cd40 3d68 96bd df4a 77be 9a6c dbbc
000000b0: 10e0 6dbe 00bb 9bbd 51cb 5fbd 1912 53bf
000000c0: 076b 6cbd b55f 05bf 7f1d 993c 90bc 13be
000000d0: 1f14 a13e 98f9 c9bd c3ac 1d40 9de8 99bf
000000e0: 7a48 0ebd 81c4 d63b 4c92 2fbc 3163 923d
000000f0: 445d 26be 3ea8 bdbd 043f b9bd 0d36 50bf
-0.65312725 -0.11203634 -0.060095165 4.579221 -0.121131465 -0.1133491 -0.009518727 -0.04020761
-0.4129468 0.4332643 -0.073077664 -0.5719189 0.5523963 0.2567589 -0.12563045 -0.02915609
0.01619968 -0.9129408 4.817242 -0.03100843 2.1755304 -1.8330549 -0.050886832 -4.565244
0.02510341 0.2802505 -0.17614836 2.6211193 0.44941738 -0.10167421 -0.12902114 -0.04754937
1.0807781 -1.9111052 -0.010612877 0.8931157 -0.19797175 2.1023238 -0.124967866 -0.113844804
6.4311843 -0.073441006 -0.24149655 -0.026785184 -0.23230004 -0.07604027 -0.054637257 -0.8244949
-0.057719257 -0.5209916 0.018690823 -0.144274 0.31460664 -0.09862059 2.4636695 -1.2024113
-0.034737088 0.006554187 -0.010716032 0.071478255 -0.16246516 -0.09260605 -0.090452224 -0.81332475

keyword_head.0.weight f4 [64, 64]
00000000: 8bd9 df3d 5c24 81bd 6272 9ebd ac20 633d
00000010: 204d 1f3d 960c 6f3d acae ff3d 70ff 1d3c
00000020: d90a 3bbd ca7a d1bd d0b7 743c 80ed eebd
00000030: 0df8 26be 19cd b6bd e6b0 c8bd 769d 89bd
00000040: 406a e93d 369c 30bd 8daf 49be 8027 a13d
00000050: fd00 08be c58e a43c 386d b8bd e76a 1ebd
00000060: 8cd2 b83d e26d 13be 5b7f ee3b 855f 2cbe
00000070: 4de2 8b3c 8884 e3bc 78c8 ba3d 7c37 0ebd
00000080: e059 c0bd 85af e6bd 709d 573d 182a aabd
00000090: 1150 8dbb b404 03bc 3c39 c43d 3f82 503d
000000a0: 6146 8cbd 6608 fbbd 8dbc 4d3d 42e5 cb3d
000000b0: b95a 01bd 40c0 6b3b 2838 50bd 7377 633d
000000c0: e8c1 c43d d601 a83a 86f2 d93d dc0d 6b3d
000000d0: 8883 973b c701 ffbc 9ffa a1bd d88e b53d
000000e0: a09b 8b3b c232 bc3d 0004 c43d d0b0 f7bd
000000f0: b0a3 b5bd f073 95bb 48a7 a0bc 4987 093d
00000100: e6c8 16be 783e cc3c 18c9 c43d 410e cc3e
00000110: 09c6 14be c1bd 10be 6a7e 903d 20c2 503d
00000120: 5e55 6ebd dee5 54be ba9c dc3b 93bb fcbc
00000130: 77e3 9d3d 68e2 783d 1e9a 8cbd 2db4 4dbd
00000140: 0d64 19bd 52c3 36bd c3a8 4a3d 8b94 10bd
00000150: 3e0b cfbc bc92 9c3c 27ec 8abd 0e37 bf3e
00000160: a10f 06be ffa0 4bbd 998d e2bd 2daf e43d
00000170: 24eb 26c0 5c1e b4bc 5410 083e 697e e43d
00000180: f1b3 86c0 2677 c93c 0057 0f3d e0f2 933b
00000190: 7c68 993d 14ea 123d 7229 29bd bf10 8dbd
000001a0: f22a 9a3e 6a32 37bb 56c2 bb3c 702d 823d
000001b0: fca7 b7bd 00fb 4f3a 90db 57bd 4a50 e3bd
000001c0: 3153 c7bd f44e 3ebd 2ac1 0a39 888f 7bbd
000001d0: ee45 a93c e242 4cbd c406 12be 7cdf 3ebd
000001e0: 23ba 52bd 8c30 1abd 746c c63d 84f0 c4bd
000001f0: 004e 8f3d 34df ebbd d092 ba3c f0dd 633d
00000200: 9d8c 28bd 2ea9 fe3d c2f7 d63d 7551 c53e
00000210: ac48 c63d 8c7a e5bb 7cea 29bd f592 04bd
00000220: 2cdc 403f 7627 073d edca 063e 2cb8 f8be
00000230: 9e12 0ac0 49c6 c0bf 39f9 283d 548b 22bc
00000240: 9386 92bd 2072 18be 6d4c 97bd 7bbc 633d
00000250: 3dab 473e de26 2abd 1bfd 373c 9371 b33e
00000260: fefc cfbd 11b6 debe c1b2 0bbe 7301 94bf
00000270: 6a15 11bf 1c14 cdbc 7d1d febd 7a36 493d
00000280: fc16 d4be f1de f5be d006 103d 961a 55bf
00000290: fc14 26bd 544f 133e 8ed7 bfbd eac6 d33b
000002a0: 7fd5 35be b19d a13d b2d2 d73d c945 073d
000002b0: a02a 6a3d 61a5 93bd f898 21bd 31ed 94b9
000002c0: d3b5 5e3d b771 75be fdcf 2c3c 5485 403d
000002d0: a9dd cfbe 2ff3 04be 09b0 b6be b590 babd
000002e0: 6909 f73d f896 afbc e0fb 23bd 4074 49bd
000002f0: 2dfb ebbd 4175 e6bd b907 e63d 4c73 b53c
00000300: b0b4 2e3d f45b f03d 38aa 213d bb3d 34be
00000310: 3023 73bd c783 d8bc 8484 83bd 78ac ddbc
00000320: 64ad 67bd 6301 243c 2afc bdbd d05e fbbd
00000330: f596 df3c 7621 20be 9242 9fbd e0c7 013d
00000340: 64ae 8e3d f7dc e8bd f52c 13be 14c5 89bd
00000350: c1fb a0bd f382 3bbe 3c2c 36bd ad0c f73d
00000360: 40be 1a3b 4655 4d3d 301e 973c 28af a1bd
00000370: b22d 8e3c 78ff 0b3d 080a a83c 407b 2ebc
00000380: 6b48 ecbd b00c fcbd 74af e43d de08 99bd
00000390: d083 f6bd c45c e1bd 007e 8e3b 82d4 fabd
000003a0: 6f6e c0bd a2a2 873d 307b 15bc 9c6b 3d3d
000003b0: a033 5bbd 10dd 2e3d d0d4 13bc fe6a 7d3d
000003c0: 9833 1fbd 4e86 20be aca3 bf3d a058 f5bd
000003d0: 6d28 9dbd a0ec 18bd b532 76bd 5a6f 60bc
000003e0: 7057 713c 285a 8d3c 38d0 083d 30b7 04bc
000003f0: 969d d03d 7044 23bd 0c24 ffbd da0b c6bd
0.10930165 -0.06305763 -0.077366605 0.05545108 0.03889191 0.058361612 0.12484488 0.009643421
-0.045664642 -0.10228498 0.014936402 -0.11666393 -0.16305561 -0.08925838 -0.09799366 -0.067194864
0.11397219 -0.043117724 -0.19695874 0.07868862 -0.13281627 0.020087609 -0.09005207 -0.03867617
0.09024534 -0.14397386 0.0072783655 -0.16833313 0.017075682 -0.027773157 0.09120268 -0.034720883
-0.09392142 -0.112639464 0.05264038 -0.0830881 -0.004312523 -0.007996727 0.09581229 0.050905462
-0.06849361 -0.12257461 0.050228644 0.09955837 -0.03158066 0.0035972744 -0.050834805 0.055533838
0.09607297 0.001281793 0.10641961 0.057386264 0.004623834 -0.031128777 -0.0790913 0.08865136
0.0042604953 0.09189369 0.095710754 -0.12094271 -0.088691115 -0.00456094 -0.019611016 0.033576284
-0.14725074 0.024932131 0.09608668 0.39854625 -0.1452867 -0.14134885 0.070553616 0.050966382
-0.05818688 -0.20790812 0.0067325504 -0.030851161 0.07709401 0.060762793 -0.06865333 -0.050220657
-0.03744893 -0.044619866 0.04947735 -0.03529791 -0.025273915 0.019112937 -0.06783324 0.3734669
-0.130919 -0.049714085 -0.11062164 0.11166225 -2.6081018 -0.021987133 0.13287479 0.11156923
-4.2094655 0.024592947 0.03499508 0.004515037 0.07490632 0.035867766 -0.04129929 -0.0688796
0.3011089 -0.0027953633 0.022919815 0.06356323 -0.08967587 0.0007933825 -0.052699625 -0.11099298
-0.097326644 -0.046462014 0.00013232665 -0.06141618 0.020663228 -0.049868472 -0.14260393 -0.04659985
-0.051447045 -0.037643954 0.096886545 -0.09616187 0.06997299 -0.11517182 0.022775084 0.055631578
-0.041149724 0.12434612 0.10496475 0.3853871 0.0968183 -0.007003134 -0.041483387 -0.03236671
0.75335956 0.032996617 0.13163348 -0.48578012 -2.1573863 -1.5060512 0.041253302 -0.009920914
-0.07154574 -0.14887285 -0.07387624 0.05559967 0.19498916 -0.041540973 0.011229779 0.35047588
-0.10155676 -0.4349828 -0.13642408 -1.1562942 -0.566733 -0.025034003 -0.12407968 0.04912422
-0.41423786 -0.48021653 0.035162747 -0.8324369 -0.040547356 0.1438573 -0.09367286 0.0064629214
-0.17757224 0.078914054 0.10538234 0.033025537 0.057169557 -0.07209278 -0.039452523 -0.0002840548
0.05437262 -0.2396916 0.010547635 0.04700215 -0.405988 -0.12983392 -0.3568118 -0.09109632
0.12062342 -0.021434292 -0.04003513 -0.04918313 -0.11522517 -0.11252833 0.11231942 0.022149704
0.042652786 0.11736289 0.039468974 -0.17601673 -0.05935973 -0.026430024 -0.0642176 -0.027059779
-0.056561843 0.010010096 -0.09276612 -0.122739434 0.027293662 -0.15637764 -0.07776369 0.031684756
0.06966856 -0.11370271 -0.14372618 -0.06727043 -0.07860518 -0.18311672 -0.04447578 0.120629646
0.0023611933 0.05013015 0.018447012 -0.078947365 0.017355774 0.03417918 0.020512596 -0.010649502
-0.1153725 -0.123071074 0.111662775 -0.074723944 -0.1203686 -0.11004022 0.0043485165 -0.12247564
-0.093960635 0.066228166 -0.0091236085 0.046245202 -0.05351603 0.04269129 -0.009022906 0.061869614
-0.038867563 -0.15676233 0.0935739 -0.119797945 -0.07673726 -0.03733504 -0.06010695 -0.013698423
0.014730319 0.017254904 0.033401698 -0.008100316 0.10186307 -0.03986019 -0.12458047 -0.09670229

keyword_head.0.bias f4 [64]
00000000: 4ce2 84be 1667 8b3e 677f 42c0 e7f6 0dbe
00000010: 4074 9cbe e9a7 80bd b6ee dbbf d8a4 24be
00000020: 284e dc40 ce38 c740 26ed f0be 09e4 d4bd
00000030: 19ce 453e ae7e 4140 54c0 a4c0 9476 663f
00000040: 2cb2 19be adc9 c93e 8f92 c640 ee12 26bf
00000050: e5b4 233f 3f11 2d40 386e a340 9dc3 86be
00000060: fd28 973f 5f5d 0abe 1e92 25be d2d8 98bf
00000070: 3162 3ac0 7e05 1cbf 3069 3340 0997 bc40
00000080: c431 2ebf 92f3 a63f 5cb1 f03f a32b 683f
00000090: 857a 02bf ec5a d240 15a4 493f 1eab a640
000000a0: 2bae 6fbf f99c 353f 3589 cc3e 9d0c a83f
000000b0: fc82 713f 760e 0d3f 0c19 d840 78ac 253f
000000c0: e5b4 44c0 e16e 8e40 bb4c 3f3f 0dbf eebe
000000d0: 775c 0b3f ba8f 56be 193e ecbe 21fb d03e
000000e0: 5323 babf 0e11 173f b4b9 9640 bda7 2abf
000000f0: 4dff 2240 19a9 1340 e120 a1bf 86ba 87bf
-0.259539 0.27227086 -3.039026 -0.13863717 -0.30557442 -0.06282026 -1.7182224 -0.16078508
6.8845406 6.225684 -0.4705593 -0.10395057 0.19316901 3.023357 -5.1484776 0.90024686
-0.15009373 0.3941168 6.2053905 -0.64872634 0.639479 2.7041776 5.1072044 -0.26321116
1.1809384 -0.13512181 -0.1616902 -1.1941168 -2.9122431 -0.6094588 2.8032951 5.893437
-0.68044686 1.3043082 1.8804126 0.90691584 -0.509682 6.573599 0.78765994 5.2083883
-0.93625134 0.70942646 0.3994843 1.3128849 0.9434049 0.5510019 6.7530575 0.6471629
-3.073541 4.451035 0.74726456 -0.46630135 0.54437965 -0.20953265 -0.46141127 0.40816596
-1.454203 0.590104 4.710169 -0.666622 2.5468323 2.307196 -1.2588159 -1.0603797

keyword_head.2.weight f4 [27, 64]
00000000: 32d1 b8bc 2f06 d0bb 932c 67be 9176 b4bb
00000010: 4b8b adbc 509e bebd 2893 5b3e 604a 27bd
00000020: f194 bcbe 6ec9 b9be ac09 053a f4d8 bcbd
00000030: c019 01be 0bbf d43d 952b 18bf 3d64 e4be
00000040: 7608 da3d e589 39be 08d1 8ebe 9686 dfbd
00000050: bfd2 093e 9b94 9f3d d56b 97be 0de4 19bd
00000060: e913 b9bc fb32 ec3d c8eb 873d 0e0c 87be
00000070: 4db2 f33e 04f7 f8bb e0b4 2abf 4911 80be
00000080: 80d6 45be b21c 513c f06b 1cbd 54e5 f3bd
00000090: 296f 8fb9 7b9d cabe ba2d 603d d650 05be
000000a0: bb81 b93e 86e7 abbe f5a8 8bbe af05 e73d
000000b0: 3128 123d d4ed 373d 5aeb c6be 6fef 3b3d
000000c0: 0366 babe a1a8 90be 8339 4dbb 7ead dd3d
000000d0: 72c7 bfbd 23a5 b23c 5abf e83d 7f94 783d
000000e0: 309a 7a3e 0af9 383b 16de 43be 5798 12bd
000000f0: 724a f03d 23c9 b0be 0a4f b53c 983e 7fbc
00000100: 0e87 41bd 4e95 99bc eb12 3cbf 57f7 70bd
00000110: 7e53 663e 3bbf d2bd 6ed6 bf3d 40b5 1ebd
00000120: f4a3 c7be aad6 78be d6b6 8a3c 51cb debd
00000130: 3af1 b43c b45b 0ebb d548 9a3e 9713 36be
00000140: beb4 88bd 489d c4bd c139 0fbf d285 aabe
00000150: 6cd6 733d 86c2 43bd bebd fabd f1ed 65bc
00000160: 12ce 87be 4420 36bd 7763 d8bc c3e3 8dbd
00000170: cc03 033f a336 f6ba b48c 09bf 8c20 77bf
00000180: 108c 3f3d 4e49 1f3e 0a26 8f3c 1d9d dabd
00000190: a6da 0abc fa60 d6be 6dca e8ba 5194 9dbc
000001a0: 41b5 ac3e cb6b acbd 84d6 cdbf 2992 62be
000001b0: d663 c6bd 7073 993d f092 a7be 76da dcbd
000001c0: 8834 d6be 53a5 d0bd c820 4f3d 3385 91b8
000001d0: 86e7 86be 1d0b 2dbd a4bc 2abd 3b69 c3bf
000001e0: 8396 38be 397d 043e 4cbc c23c 31e6 093e
000001f0: bf1d d63e 064d 19bb 7b2b 983c 4238 5dbd
00000200: ddb1 2b3d d84f 9dbd b8fb 62bf 7cfd b9bd
00000210: a95e 57be fb1b 04bc d790 42bf 6eb7 163c
00000220: a146 e1be 959c e0be f551 813e 7e1e adbc
00000230: bf31 e8be cf51 b9bd daf2 35bf c36b d4bd
00000240: c4f0 c2bd 6def 8f3e a238 84be a37a 48bf
00000250: 4de6 f73e 6196 733e 27e0 63be d98a 513c
00000260: d593 abbc eb4c dd3e 4200 bd3c 96c5 97be
00000270: 1544 b5bf 400f 803d 1584 58bf 8c22 373d
00000280: 4596 87be e1c9 203f 2187 5dbd 42ce 8bbd
00000290: 6d0a b5bc 447c c5be f6ed 143e 003a b8be
000002a0: 7da7 273f fb73 55bf 3454 4cbf a18d f83d
000002b0: 1a69 c63e a391 f2be c1f9 95be 176f dcbf
000002c0: 02ac 613e 4e86 aebe 4511 f4be 57e0 363d
000002d0: c1d6 27bf 648c 093e 9655 2ac0 e2fc 373e
000002e0: 3449 723e ed5d 1e3e ecea 66be 3379 f9be
000002f0: b942 93bd 14d4 423e 3799 623d c4f8 cdbc
00000300: f22d 4e3d 2379 ca3a b2c8 27c0 e830 aabd
00000310: d61c 753d 6a43 9f3c 4ff2 45c0 10b6 a8bc
00000320: b95d adbe 2ec1 a1be 8924 f2be d64c 043d
00000330: ab13 903d b9c8 03bd 6d18 43c0 e73b 32bf
00000340: e8d1 f4bc f870 2dbf a213 9cbe ba99 34be
00000350: efbf 52bc 795c 83be 61a8 a9be 696d 143d
00000360: c8fc 3d3e 168b 243e 7385 b63d eb0f 4dbd
00000370: 697c 44c0 85c4 823d 62db 37bf 9653 c2be
00000380: 7229 cabe 4813 3dbf f098 943e 25d1 46be
00000390: 2f40 1ebe 41b9 e2be a7ee 243e 55b8 30be
000003a0: 8c5d d03d 8a79 d1be 9778 04bf ce91 6c3f
000003b0: 2a3f 453e bc51 a8be ee18 ffbe e25f 12c0
000003c0: e59d 16bf 2cea 86be 26cb 03be 6727 bbbd
000003d0: 2974 0f3e a818 893d 7373 50be 7aa0 e0bc
000003e0: 1027 913e 1844 3dbf 4ab9 34be 73e1 d5be
000003f0: 6e57 fa3e f24b b5be a689 ca3c bb45 f7bd
-0.02256069 -0.0063483934 -0.22575597 -0.0055072983 -0.021184584 -0.093075395 0.21442854 -0.040842414
-0.36832383 -0.3628649 0.00050749886 -0.09221068 -0.12607479 0.10388001 -0.594415 -0.44607726
0.10646145 -0.18119009 -0.27893853 -0.10914342 0.134593 0.07792016 -0.29574457 -0.037571
-0.022592502 0.11533161 0.066367686 -0.26376384 0.4759697 -0.007597806 -0.66682243 -0.25013188
-0.19320107 0.012763189 -0.038188875 -0.11908975 -0.00027357906 -0.39573273 0.05473111 -0.13019118
0.3623179 -0.33575076 -0.2727734 0.11280381 0.03568286 0.044904545 -0.38851434 0.04588264
-0.36405954 -0.28253654 -0.0031314797 0.10824107 -0.09364213 0.021807259 0.113646224 0.060688492
0.2447288 0.002822461 -0.19127688 -0.035789814 0.11732949 -0.34528455 0.022132415 -0.015578888
-0.04724794 -0.018747952 -0.73466367 -0.05882963 0.22492787 -0.102903806 0.09367071 -0.038747072
-0.38992274 -0.24300638 0.016932886 -0.10878623 0.022087682 -0.002172214 0.3013369 -0.1778091
-0.06675099 -0.096003115 -0.559475 -0.33305222 0.05953066 -0.047792934 -0.12243222 -0.01403378
-0.26524407 -0.044464365 -0.026414616 -0.06928208 0.5117767 -0.0018784594 -0.5373032 -0.9653404
0.046764433 0.15555307 0.017474193 -0.10674498 -0.008474981 -0.41870862 -0.0017760523 -0.019235762
0.33732036 -0.084189974 -1.608109 -0.22126068 -0.09687011 0.07492721 -0.32729292 -0.107838556
-0.41836953 -0.10187783 0.050568372 -6.938949e-05 -0.26348513 -0.042246927 -0.041683808 -1.5266489
-0.18026166 0.12938394 0.023771428 0.13466717 0.4181957 -0.0023391857 0.01857542 -0.05400873
0.04191767 -0.076812446 -0.8866534 -0.090815514 -0.21032204 -0.008063312 -0.7600226 0.0091990065
-0.43999198 -0.43869463 0.2525784 -0.021132704 -0.45350453 -0.09048807 -0.7107369 -0.103721164
-0.09518579 0.28112355 -0.25824457 -0.7831213 0.48417893 0.23787834 -0.22253476 0.0127894515
-0.020944515 0.43222746 0.023071412 -0.29642934 -1.4161402 0.06252909 -0.8457654 0.04471068
-0.26481834 0.6280804 -0.054083947 -0.0682645 -0.022099698 -0.3857137 0.145439 -0.3598175
0.6548994 -0.833801 -0.79815984 0.121363886 0.3875206 -0.47376737 -0.2929211 -1.7221402
0.22038272 -0.3408684 -0.47669426 0.04464754 -0.65562063 0.13432461 -2.6614738 0.17967561
0.23660737 0.15465517 -0.22550553 -0.4872528 -0.07190461 0.19026214 0.0553219 -0.025143035
0.050336786 0.0015447479 -2.6216245 -0.083101094 0.059841953 0.019441325 -3.0929143 -0.020594627
-0.33860567 -0.31592697 -0.472935 0.03229984 0.07035001 -0.032173846 -3.0483658 -0.69622654
-0.029885247 -0.677505 -0.3048373 -0.17636767 -0.012863143 -0.2565649 -0.33136275 0.036237154
0.1855346 0.16068682 0.08912172 -0.05006401 -3.0700934 0.063851394 -0.71819127 -0.37954396
-0.39484745 -0.73857546 0.29022932 -0.1941572 -0.15454172 -0.44281963 0.16106664 -0.17257817
0.10174093 -0.4091304 -0.51746505 0.9240998 0.19262376 -0.32874858 -0.49823707 -2.2871022
-0.5883468 -0.26350534 -0.12870464 -0.09138375 0.14009155 0.06694156 -0.2035654 -0.027420271
0.28350115 -0.7393203 -0.17648807 -0.41773567 0.4889483 -0.35409504 0.024723839 -0.12073847

keyword_head.2.bias f4 [27]
00000000: 5f98 26c0 a3d3 84c0 22bf 21c0 491e d7bf
00000010: 449b ebbf ca03 4dbf 8c03 2ebf 5841 a2bf
00000020: 447c b9bf 4380 2dbf 53e1 afc0 e41c 2ac0
00000030: bd43 88bf e0e0 7fbf b5af d8bf d5c6 acbf
00000040: 4ba1 90bf bfcd f3bf 8213 32bf b65e 4ebf
00000050: 4d08 a3bf 3d99 59bf 52be 89c0 0319 c3bf
00000060: cd41 e2bf a0a0 b9bf e484 3bc0
-2.60305 -4.1508346 -2.5272908 -1.6806117 -1.8406758 -0.80083907 -0.6797416 -1.2676191
-1.4491048 -0.67773837 -5.4962554 -2.6580133 -1.0645672 -0.99952507 -1.6928622 -1.3498179
-1.1299223 -1.9047164 -0.69561017 -0.8061327 -1.2736908 -0.8499945 -4.3044825 -1.5242008
-1.7676331 -1.4502144 -2.929986

price_head.0.weight f4 [32, 64]
00000000: 8c8d ce3c e841 2ebd c0b5 a13b a9d7 7ebc
00000010: 03a5 d93d 26a3 d6bd 553b 273d 6d18 05bd
00000020: 1659 24bf 3875 313d cf8a 31bd aaaa 6ebf
00000030: eabf d33e 6925 6cbf 30ec b93c b5da 71bc
00000040: e252 bfbd 6c4a d63d a9c3 60be 2222 f63b
00000050: de84 38be 15b7 3fbe 9096 66bd ab41 61bd
00000060: 9a89 1d3c 1041 d2be 1d1c 9b3c ae2f 563d
00000070: 6042 ddbf e47c 51bd d418 703d 9e5e 2c3e
00000080: d42c 8abd 6d8c 073e 18e9 aabc 7de1 e73e
00000090: 2ed3 c4bd e88c 01bf fe77 f23d ea9d 023c
000000a0: 1e0e 9ebd 5ca8 22bd e699 c2bd 170d 863b
000000b0: edbd 8f3d 845e b03d be7c bebd 597b 893c
000000c0: da78 81bd ff22 2f3e 181d 17bd c463 8ebd
000000d0: 7229 cebf 9e86 f03d 6eca c2bd 3e7a f5bd
000000e0: 32af 95bd 8cb0 d53d 1447 71bd df4e 003d
000000f0: 2382 203c c832 ce3d 80b6 f9bc 7f7e b9bd
00000100: 9366 663d cc34 debd 8800 f1bc 7185 bcbd
00000110: e86e 183d 89ff 883d 04df 01bd 0ea2 b7bd
00000120: 1f5e 0bbd 7385 aabd 9171 e33c 6cd7 6f3d
00000130: 2ff7 b0bd 0793 8bbd 38e6 5c3d 84c3 cf3c
00000140: 8048 ef3a ee41 bb3c 750a ec3c ed9d ef3d
00000150: c73b 123d 7313 3cbe 6839 853c c8cb c4bd
00000160: 09ee 793d 1c73 89bd 96a6 d2b9 f2ea 46be
00000170: 1586 4d3c 0092 ec3a acfc 3abd 62e9 bf3d
00000180: cf49 623b 292c 3fbc 400f d33d 4be1 d5bd
00000190: d5e6 2b3d 2a3b 22be f84f 85bc 42b8 0fbd
000001a0: ffc9 40be 4ca8 be3d 096c 05bd 92ea 853d
000001b0: 74d9 e6bd 0873 2cbd 4452 e7bd 1a8b 203d
000001c0: d859 d63d 3a84 4b3c e456 a4bd ee5c c9bd
000001d0: 8247 d3bd 2840 be3c 2730 5cbc a2af 9abd
000001e0: 0010 1238 08c5 38bd da43 b43d 7d11 b8bd
000001f0: 6eb8 e53d b119 653d 7c29 6bbd ada3 793d
00000200: 023e 8e3b 6301 bbbd 5192 833d 423b 133e
00000210: fbb9 13bd 2b19 9ebb d89b c7bc f515 aa3c
00000220: 6f67 b8be 0fdb 3fbd 057e 14be 3c97 9e3e
00000230: 1527 e7bf 66a6 3fbf c9e8 c53b a077 76bd
00000240: 9319 da3d 817f 5cbd 3f79 273e 0ad9 9bbd
00000250: b3d8 97bd 809c 52bc 1151 8b3d bbc6 69bd
00000260: 0be6 eabb cce5 17be 6035 993d 4ec4 aebd
00000270: 3d04 00c0 36c7 9b3a 517b b33c d3c1 82bc
00000280: 5197 10be c08c 26be 959a 9cbd 4a44 9e3e
00000290: 5e03 edbb a92a ce3d bf60 b23d 475b f8b7
000002a0: fa42 c3bb 9960 9bbd f39d f1bd d7cc 9e3d
000002b0: 7960 873d dfc3 37bc e007 12bd ebc8 c2bd
000002c0: a955 c03d 9a41 a43c cfa2 943d 3229 893c
000002d0: a623 033f d946 aebd b54f 1bbe 6219 73bd
000002e0: 3ab3 2e3d 98ab 713d 701f 73bd 4f81 7a3a
000002f0: 4d1f 9a3c 0ec9 3fbd b760 71bd 5735 89bd
00000300: 11f6 a9bd f573 273d 4ff2 bcbc f577 7b3d
00000310: fcef 8f3d cd98 01be 15f7 653d ee9b cebd
00000320: ab7a 57bc 4330 b6be 784a cd3b c1a5 213d
00000330: 7c25 c93d 7e4b 13bd 9e89 f5bc 0603 f83d
00000340: db00 58bd 38f6 82bb c478 2b3e 50b4 aa3d
00000350: 656f c83e 2d65 25bc e01d d73d be74 bbbe
00000360: 4d55 b6bd cb7d 29bf 6042 d5bd 2316 27be
00000370: c706 50c0 e900 b8bc 9c32 073e ed9c 8e3d
00000380: 5b47 d33e 975a 353d b540 8b3d 33c5 07bd
00000390: edeb 963d c7fa bd3d 2494 c3bd 3f09 98bd
000003a0: b94e ad3e 7826 83bc 90cc 253d 921c a2bd
000003b0: eb0c ddbd d034 4abd f002 83bc 9cc1 bdbd
000003c0: 916c 0b3d 9333 bcbe b38c e6bd 7f2a 433d
000003d0: d235 b0be b805 b1bd 0d00 42be 6e75 d6bb
000003e0: 065c 523d 7363 91bd 9072 f53c 9131 9f3c
000003f0: ed69 0f3e f1bb 41bd d129 46bc 6140 b93d
0.02521398 -0.04254332 0.0049349964 -0.015554347 0.106271766 -0.10480337 0.040828068 -0.032493997
-0.64198434 0.04332468 -0.04334527 -0.9322916 0.41357356 -0.92244583 0.02269563 -0.0147616165
-0.093419805 0.104634136 -0.21949638 0.007511393 -0.18019435 -0.18722184 -0.05629593 -0.054994266
0.009615326 -0.41065264 0.018934304 0.052291565 -1.7285881 -0.051144496 0.058617428 0.16832969
-0.067468315 0.13237162 -0.0208631 0.4528922 -0.09610592 -0.5060563 0.11839293 0.00797222
-0.077175364 -0.03971134 -0.0950201 0.004090916 0.07018647 0.086117774 -0.093011364 0.01678245
-0.06321879 0.17103194 -0.03689298 -0.069526225 -1.6106398 0.11744426 -0.09511267 -0.119862065
-0.073088065 0.10434064 -0.058905676 0.031325217 0.009796652 0.100682795 -0.03048253 -0.0905733
0.056250166 -0.10849914 -0.029419199 -0.092051394 0.037215143 0.066893645 -0.031706825 -0.08966456
-0.034025308 -0.08326235 0.027764114 0.05855505 -0.086408965 -0.068151526 0.05393049 0.025361784
0.001825586 0.022858586 0.02881358 0.11700044 0.03570154 -0.18366794 0.016262725 -0.09609181
0.061018024 -0.067114085 -0.00040178437 -0.19425562 0.012544175 0.0018048882 -0.045651123 0.09370686
0.0034528857 -0.011668243 0.10305643 -0.10443362 0.041968185 -0.15842882 -0.016273484 -0.03508783
-0.18827055 0.09309444 -0.032573733 0.06538881 -0.11271945 -0.04210189 -0.11294988 0.039195158
0.10466355 0.012421662 -0.080243856 -0.09832178 -0.103163734 0.023223951 -0.013439215 -0.075530306
3.4824014e-05 -0.04510978 0.08802004 -0.089877106 0.11216818 0.055932704 -0.05741261 0.06094711
0.004340888 -0.09131124 0.06424392 0.14378074 -0.036066037 -0.0048247776 -0.024366304 0.020762423
-0.36016414 -0.04683977 -0.14501198 0.30974758 -1.8058802 -0.7486328 0.006039713 -0.060172677
0.10649409 -0.053832535 0.16354845 -0.07609756 -0.07414379 -0.012854695 0.068025716 -0.05707429
-0.0071685365 -0.14833754 0.074808836 -0.08533536 -2.0002587 0.0011884931 0.021909388 -0.015961563
-0.14120223 -0.1626463 -0.07646672 0.30911475 -0.0072330674 0.100667305 0.08709859 -2.9606408e-05
-0.005958912 -0.07586784 -0.117977045 0.07753914 0.066101976 -0.011216133 -0.03565204 -0.09510978
0.093913384 0.020050813 0.07257616 0.016743276 0.5122627 -0.08509607 -0.15167125 -0.05935038
0.042651393 0.059001535 -0.059356153 0.00095560116 0.018813754 -0.0468226 -0.058930125 -0.06699627
-0.082988866 0.04088207 -0.02306476 0.061393697 0.07028195 -0.12655945 0.05614384 -0.10088335
-0.013151805 -0.35583696 0.006264981 0.039464716 0.09821603 -0.035960667 -0.029972848 0.12109952
-0.05273519 -0.0039966367 0.16745287 0.08335173 0.39147487 -0.010094923 0.10503745 -0.36612505
-0.089029886 -0.6620757 -0.10413051 -0.16317038 -3.2504137 -0.022461371 0.132029 0.06963525
0.41265377 0.044275846 0.06799451 -0.03314705 0.07369218 0.092763476 -0.0954974 -0.074236386
0.33849123 -0.016009554 0.04047829 -0.079156056 -0.107934795 -0.049366772 -0.015992612 -0.09265444
0.034039084 -0.36758098 -0.11257305 0.04764795 -0.34416062 -0.08643669 -0.18945332 -0.0065447604
0.05135729 -0.070990466 0.029961854 0.019432815 0.14005251 -0.047298376 -0.012094931 0.090454824

price_head.0.bias f4 [32]
00000000: 0391 33c0 4f44 d5bd dbd0 9640 43c6 9640
00000010: d149 c140 412d 653f d38b b3c0 a8d9 3cbe
00000020: 47ee cd3f 2fc4 f340 f901 c7bf e16e 9340
00000030: d20f 18be b97f f33f 4516 eabf ec4d b4bb
00000040: 7fd3 a140 f3c6 f1bf 2f19 f43e b35c d640
00000050: 88d1 723e b0c4 52be 315c c440 9c40 4dbf
00000060: 5e6e dcbc 0415 65be c161 b1bf 9783 d83e
00000070: 086d 473e f2cf d340 86f9 50c0 7403 1240
-2.8057258 -0.104134195 4.712995 4.711702 6.040261 0.89522177 -5.6108184 -0.18442404
1.6088341 7.617698 -1.5547477 4.607285 -0.14849785 1.9023353 -1.8288046 -0.005502453
5.0570674 -1.888884 0.47675464 6.698816 0.23712742 -0.20582843 6.136254 -0.8017671
-0.026908096 -0.22371298 -1.3857957 0.42287895 0.19475186 6.619134 -3.2652297 2.2814608

price_head.2.weight f4 [1, 32]
00000000: 2449 2dbf e10b 00bc a75b 7f3f 632f 4b3f
00000010: 77a6 f23f 3be3 5d3f 4db6 15c0 78b5 bab9
00000020: 7758 e93f 6f16 de3f dae9 c1be 8c3f 4c3f
00000030: bcbd af3d 4d08 3f3f 6f2c 92bf 7a1d ffbb
00000040: 800c 8a3f c157 58be 938d 81bd 07a9 e03f
00000050: 4adb bcba 8e40 09bc a8c5 c13f f705 a0bd
00000060: 0776 533d db9e 1abd c802 83be 7916 863b
00000070: 1898 08bb 7237 c03f 33b1 a43e 5d34 993e
-0.6768973 -0.007815332 0.99749225 0.7936918 1.8957051 0.8667485 -2.3392518 -0.0003561189
1.8230122 1.7350596 -0.37873727 0.79784465 0.08581111 0.7462204 -1.141981 -0.0077854963
1.0785065 -0.21127225 -0.06325831 1.7551583 -0.0014408615 -0.008377207 1.5138445 -0.07813638
0.05162623 -0.037749153 -0.2558806 0.0040920344 -0.0020842608 1.501692 0.32166442 0.29922763
