DQN_Agent/Models_Saved/multi_task_DQN_gamma0.75_train_batch_size32_replay_buffer_size50000_num_episodes5.0.pth (torch, 86194 bytes, 11 tensors)

main_trunk.0.weight f4 [128, 27]
0.038701747 0.15004079 0.041812398 0.14614248 0.03760424 0.18276447 0.20526119 0.039243773
0.09046665 0.04886336 0.09803826 0.13740583 0.03312486 0.020624526 0.21940528 0.2507902
0.26675403 0.036178797 -0.025609609 0.024540318 -0.0031915798 0.15327375 0.28272226 0.10303034
0.24604781 0.28306937 0.12149069 -0.09437926 -0.02258163 -0.0382498 0.14408518 -0.0685811
-0.07027737 -0.045158073 -0.18153548 -0.109028056 0.043315798 0.17458555 0.14216869 0.023208814
0.11256218 0.12725466 0.016573621 0.038829178 0.14383169 0.09359499 0.10184334 0.16923499
0.09370491 -0.18497786 -0.025728928 0.16744693 -0.08855525 -0.18553166 0.12642956 -0.014039304
-0.06987985 0.026260307 0.012236557 -0.07431745 -0.18787056 -0.13119236 -0.09207664 -0.16830285
-0.16405794 0.038147047 0.1848986 0.01500878 0.18457274 -0.15204586 0.18564437 0.0013744915
0.08460629 0.058923453 0.049266774 0.18364954 -0.11745893 0.044237074 0.05321747 0.081291884
-0.087676436 0.008814851 -0.13730821 -0.1753635 -0.09283613 -0.1722917 0.143326 0.09830642
-0.11270903 -0.09174074 -0.1793227 0.16393024 -0.047149148 0.1604469 0.030959737 0.14751382
0.020959985 -0.07700543 -0.015058036 0.08870412 -0.063748166 0.08182785 0.06486029 -0.05877816
0.14337164 0.032936748 -0.014002345 -0.10874599 0.07671365 0.12235035 0.015944265 0.14075644
0.07900816 0.27563438 -0.07515119 0.040644407 0.087650865 0.21890403 0.23302284 0.1344751
0.11343296 0.041727655 0.14942998 0.07506949 -0.057768535 0.24701504 0.1402357 0.23763135
-0.035355333 -0.024229245 0.18797153 0.16971274 0.0016890483 0.20335372 0.15878753 -0.075058654
-0.025497193 -0.10036972 -0.029623397 0.0018323417 0.08840536 -0.061396766 0.057510898 -0.02063132
-0.024633592 0.11834862 -0.18414755 -0.067124955 0.09893718 -0.119320296 -0.018378362 -0.0838607
-0.15261143 -0.18268485 0.11814698 0.16678639 -0.14839812 -0.08572303 0.12624103 0.022069521
-0.1717792 -0.13853686 -0.1847401 0.104742 0.15022632 -0.07453604 0.14247066 -0.107804
-0.10232253 0.12739922 0.11645816 -0.18731266 0.00093357224 -0.055037357 -0.05898585 0.14232421
0.16739918 0.09849319 0.031615138 0.04742615 0.079074025 0.10525649 -0.12500118 0.18113369
-0.100422986 0.12208497 0.0024537444 -0.08574891 -0.02900952 0.046644226 -0.16152023 -0.24753201
-0.19025557 -0.16308698 -0.009744162 -0.14870922 -0.041808028 -0.09126394 -0.16160615 -0.2413019
-0.27244508 -0.13191444 -0.14704135 -0.1389003 -0.25237265 -0.0036092044 -0.2945243 -0.14651099
-0.12392587 -0.027375912 -0.29058444 -0.25191224 -0.03543523 0.053671952 -0.1269108 0.11642248
-0.2911886 -0.18427517 -0.26587343 -0.05952844 -0.19455552 -0.105169654 -0.17710467 -0.3214765
0.024726477 -0.15588136 0.014759441 0.039461676 -0.095088504 -0.3209637 -0.12100658 -0.20574296
-0.0034105007 -0.20244066 -0.27294144 -0.23771891 0.033275824 -0.24561955 -0.17094715 -0.004814258
-0.2252523 -0.06319097 0.08427454 0.20849517 0.2902552 0.114413664 0.30208367 0.09696496
0.2911129 0.17895399 0.1393582 0.06005097 0.35857967 -9.9432946e-05 0.29742792 0.19799395
00000000: b985 1e3d 4ba4 193e 7a43 2b3d 60a6 153e
00000010: e706 1a3d 9c26 3b3e fd2f 523e 14be 203d
00000020: 9446 b93d f224 483d 49c8 c83d 1db4 0c3e
00000030: efad 073d c4f4 a83c c7ab 603e 9367 803e
00000040: fc93 883e 3830 143d 3ecb d1bc c708 c93c
00000050: d329 51bb cbf3 1c3e f9c0 903e 9201 d33d
00000060: f5f3 7b3e 78ee 903e 1cd0 f83d ea49 c1bd
00000070: 1cfd b8bc d3ab 1cbd 118b 133e 3f74 8cbd
00000080: 95ed 8fbd acf7 38bd 70e4 39be 1a4a dfbd
00000090: e86b 313d 8ec6 323e ab94 113e 6920 be3c
000000a0: 0087 e63d 0c4f 023e 67c5 873c 580b 1f3d
000000b0: 9d48 133e bbae bf3d 3e93 d03d f04b 2d3e
000000c0: 5ce8 bf3d d66a 3dbe 79c5 d2bc 3577 2b3e
000000d0: 745c b5bd 03fc 3dbe c076 013e 1c05 66bc
000000e0: 2b1d 8fbd db1f d73c d77b 483c bf33 98bd
000000f0: 2461 40be 4a57 06be ad92 bcbd 9557 2cbe
00000100: cefe 27be 1440 1c3d 0f56 3d3e 63e7 753c
00000110: a300 3d3e e9b1 1bbe 8f19 3e3e 4828 b43a
00000120: 1046 ad3d b859 713d f5cb 493d a00e 3c3e
00000130: 4f8e f0bd ef31 353d 90fa 593d 5c7c a63d
00000140: b48f b3bd 2a6c 103c 869a 0cbe 7d92 33be
00000150: de20 bebd 3c6d 30be 0dc4 123e e054 c93d
00000160: fed3 e6bd 92e2 bbbd 5fa0 37be 54dd 273e
00000170: 771f 41bd 314c 243e 469f fd3c dd0d 173e
00000180: 46b4 ab3c 06b5 9dbd fbb5 76bc 81aa b53d
00000190: 668e 82bd 5c95 a73d 79d5 843d 5ec1 70bd
000001a0: 04d0 123e afe8 063d 176a 65bc 38b6 debd
000001b0: 0c1c 9d3d d292 fa3d 8c9d 823c 7522 103e
000001c0: 08cf a13d f31f 8d3e dee8 99bd c07a 263d
000001d0: 4c82 b33d 6128 603e 8a9d 6e3e d7b3 093e
000001e0: 8a4f e83d 9eea 2a3d 2c04 193e 08be 993d
000001f0: b39e 6cbd 83f1 7c3e f399 0f3e a255 733e
00000200: c1d0 10bd 697c c6bc 9c7b 403e 2dc9 2d3e
00000210: 0e63 dd3a f53b 503e 3399 223e 5ab8 99bd
00000220: 7ddf d0bc a48e cdbd c4ac f2bc 2f2b f03a
00000230: df0d b53d 2d7b 7bbd 8c90 6b3d 0403 a9bc
00000240: 63cc c9bc c360 f23d 2d91 3cbe cf78 89bd
00000250: 949f ca3d 335e f4bd 388e 96bc 29bf abbd
00000260: 2c46 1cbe bd11 3bbe 0bf7 f13d 0dca 2a3e
00000270: adf5 17be 8e8f afbd 5445 013e 24cb b43c
00000280: e3e6 2fbe 9bdc 0dbe 822c 3dbe f982 d63d
00000290: eed4 193e 5aa6 98bd d4e3 113e 58c8 dcbd
000002a0: 798e d1bd f174 023e 9e81 ee3d e4ce 3fbe
000002b0: f9ba 743a da6e 61bd 269b 71bd 70bd 113e
000002c0: b16a 2b3e ccb6 c93d e07e 013d ec41 423d
000002d0: 90f1 a13d b790 d73d 4f00 00be 1c7b 393e
000002e0: 91aa cdbd af07 fa3d 00cf 203b 209d afbd
000002f0: 5fa5 edbc 040e 3f3d 8f65 25be 0879 7dbe
00000300: 5bd2 42be 4600 27be faa5 1fbc 3b47 18be
00000310: e53e 2bbd 97e8 babd 157c 25be d817 77be
00000320: ec7d 8bbe 9414 07be 0292 16be e13b 0ebe
00000330: fd36 81be 6788 6cbb e4cb 96be fa06 16be
00000340: d9cc fdbd 7343 e0bc 7cc7 94be a4fa 80be
00000350: 8824 11bd 1fd7 5b3d e8f4 01be e96e ee3d
00000360: ac16 95be a1b2 3cbe 9020 88be 18d4 73bd
00000370: 9039 47be 3063 d7bd ed5a 35be 9198 a4be
00000380: 2e8f ca3c 5d9f 1fbe 95d1 713c 91a2 213d
00000390: c3bd c2bd 5b55 a4be 4cd2 f7bd 48ae 52be
000003a0: b582 5fbb 9b4c 4fbe fbbe 8bbe 966c 73be
000003b0: 3b4c 083d b183 7bbe c50c 2fbe ecc0 9dbb
000003c0: 8aa8 66be 446a 81bd 2198 ac3d c27f 553e
000003d0: 549c 943e b651 ea3d b6aa 9a3e 9195 c63d
000003e0: c00c 953e b73f 373e eab3 0e3e 02f8 753d
000003f0: c197 b73e a886 d0b8 7948 983e edbe 4a3e

main_trunk.0.bias f4 [128]
0.07582554 -0.17514126 0.095639706 -0.08397649 0.30714077 -0.11405941 0.13715927 0.014394068
-0.1661241 0.0123617025 0.15346852 0.11808524 0.0726574 0.19440524 0.101343915 0.1027346
-0.15988362 0.10691365 0.13255298 0.08922095 -0.1122368 -0.07937096 -0.11877708 -0.03813038
-0.017057803 0.26093486 0.3011083 -0.22913131 0.025935696 0.32499507 -0.2972731 0.056078825
-0.17668836 0.377252 -0.14312534 0.21599282 -0.11932151 -0.2528821 0.24152173 -0.13284683
0.03931476 -0.110560164 -0.16749987 0.024022574 0.31421688 -0.116924345 0.27719122 0.21477617
0.15257317 -0.15803534 0.03768795 0.095085315 0.06202489 0.1861021 -0.16130991 0.1918952
0.03595695 0.052509952 0.16952634 -0.013561377 -0.3083492 -0.24097584 0.08200337 0.20562284
-0.28810212 0.061066166 -0.072119296 -0.048832946 0.03915038 -0.02439139 0.033425696 0.13778606
-0.15278584 -0.19810222 -0.12532815 0.11422896 0.10745342 -0.20162947 0.06613649 -0.2339502
0.08227608 0.0204524 -0.13553329 0.1289832 0.1981325 0.12805244 0.050975252 -0.23464443
0.08106262 -0.08781505 -0.0658662 0.18376161 -0.029567098 0.11907661 0.1775355 -0.17373683
-0.119627945 0.028989956 0.0050666393 0.08095633 0.08019969 0.08774459 -0.044162832 -0.054409415
-0.07572658 -0.025681086 0.11463367 -0.2825514 -0.112506524 0.24678822 0.21113189 -0.16563569
0.05463826 -0.13176875 -0.025643934 0.090101495 -0.10727483 -0.23322704 0.15811913 -0.020531293
-0.11914642 -0.057906073 0.11094375 0.044655763 0.38187867 -0.19085407 -0.16663834 0.047292672
00000000: 6c4a 9b3d 3b58 33be c0de c33d defb abbd
00000010: 8e41 9d3e fb97 e9bd 7b73 0c3e 19d5 6b3c
00000020: 701c 2abe bd88 4a3c da26 1d3e add6 f13d
00000030: 67cd 943d 2b12 473e 668d cf3d 8566 d23d
00000040: 88b8 23be 8bf5 da3d f8bb 073e 79b9 b63d
00000050: 68dc e5bd 3e8d a2bd 6641 f3bd 9a2e 1cbd
00000060: cebc 8bbc 4199 853e de2a 9a3e 66a1 6abe
00000070: 1977 d43c c165 a63e 2e34 98be e9b2 653d
00000080: cbed 34be 2d27 c13e 738f 12be 392d 5d3e
00000090: d65e f4bd c379 81be 7951 773e 0009 08be
000000a0: 8408 213d 5e6d e2bd 1685 2bbe fdca c43c
000000b0: 09e1 a03e 0876 efbd 02ec 8d3e 49ee 5b3e
000000c0: 243c 1c3e 04d4 21be ae5e 1a3d 17bc c23d
000000d0: d00d 7e3d 8d91 3e3e 6d2e 25be 2d80 443e
000000e0: 9847 133d ad14 573d 5098 2d3e 8a30 5ebc
000000f0: f2df 9dbe 5fc2 76be 62f1 a73d cb8e 523e
00000100: 1f82 93be 8420 7a3d 48b3 93bd 0e05 48bd
00000110: 265c 203d 74d0 c7bc 62e9 083d ca17 0d3e
00000120: e473 1cbe 4fdb 4abe 0656 00be dff0 e93d
00000130: 8a10 dc3d f577 4ebe 9172 873d a490 6fbe
00000140: 5d80 a83d cb8b a73c 3dc9 0abe 2c14 043e
00000150: 3fe3 4a3e 2e20 033e 6dcb 503d a146 70be
00000160: 2904 a63d 60d8 b3bd dce4 86bd 012c 3c3e
00000170: b336 f2bc 70de f33d decb 353e 11e8 31be
00000180: 7fff f4bd 587c ed3c 0d06 a63b 6fcc a53d
00000190: bc3f a43d 70b3 b33d 16e4 34bd 68dc 5ebd
000001a0: 8a16 9bbd 2461 d2bc 0fc5 ea3d 94aa 90be
000001b0: d269 e6bd 0db6 7c3e f532 583e 679c 29be
000001c0: 5ecc 5f3d 63ee 06be 3a13 d2bc 2287 b83d
000001d0: e8b2 dbbd 12d3 6ebe fbe9 213e 3e31 a8bc
000001e0: 0a03 f4bd eb2e 6dbd 7a36 e33d f6e8 363d
000001f0: 9a85 c33e 406f 43be 3ea3 2abe f6b5 413d

main_trunk.2.weight f4 [64, 128]
-0.08186453 0.07618735 -0.022280825 0.08258274 -0.06715353 -0.04825968 0.08103625 0.0648695
-0.07227368 0.020432107 0.07338522 0.03705342 -0.027670627 -0.05390763 0.082864605 -0.024771525
-0.08083314 0.0096660005 0.053706314 -0.074815914 0.021178117 -0.061394576 0.028000627 -0.02959286
-0.07070475 -0.04824854 -0.04080426 -0.018972203 -0.0592232 0.05181863 -0.07880682 -0.042667866
-0.0816437 0.06527776 -0.068120345 0.0008602593 -0.05246212 0.06683661 -0.06321638 -0.044091355
0.07236419 0.03390795 0.050362594 0.018014753 -0.08387513 -0.007273176 0.031066326 -0.07404751
-0.018438034 0.05244969 0.039795864 0.020991154 0.02842787 -0.04816293 -0.023967331 0.029009148
-0.043864902 -0.06622981 -0.0020013326 -0.06553561 -0.02268591 -0.006363879 0.052175194 0.07699943
-0.039137784 -0.06379645 -0.038000252 0.044154778 -0.0064421142 0.02796159 -0.026385887 -0.033021033
0.044459824 -0.031187551 0.074741915 0.07113183 -0.056512147 0.07963003 0.006699431 0.027579159
0.0062415795 -0.06875491 -0.049404915 -0.04001977 -0.08783522 -0.0657799 -0.019415967 -0.07558041
-0.0008071859 -0.05807688 -0.015595935 0.036365513 -0.023729296 0.047211803 -0.011975595 0.052007914
0.048817366 0.08649611 -0.000258887 -0.054223333 -0.06242393 0.019263376 -0.06289703 0.06793711
-0.047697313 -0.035339415 0.07349435 0.024565902 -0.08642463 0.05058648 -0.025880072 0.034779757
0.048960973 0.08531006 -0.05886312 0.08723303 -0.025443884 -0.060090195 -0.035862647 -0.007861598
-0.040764675 -0.018966345 -0.08523662 0.05110433 -0.07343868 -0.035698432 0.040651266 0.04474068
-0.08655385 -0.026165985 -0.07755566 -0.03425449 0.042381734 0.014424779 -0.03708676 0.013971154
-0.048960276 0.025194153 -0.083134174 -0.010570461 0.0056144344 0.065782696 0.05013926 0.026404357
0.029965155 0.053109434 0.08203035 -0.07238699 -0.037849333 0.08259443 0.008142023 -0.067311764
0.0319923 0.051596835 -0.07135524 -0.026189841 -0.072658904 0.051653523 -0.020321166 0.041402146
-0.03328658 0.024521068 0.059778 -0.025552664 -0.08394455 0.053853102 -0.035812926 -0.08111275
0.044475734 -0.021318529 -0.079724304 -0.05563018 -0.035981987 0.021031214 0.033847734 -0.08828032
0.029877078 0.023644203 0.060183454 0.010448203 0.04764816 0.01712224 0.005299218 0.08697158
-0.014038377 -0.050631188 -0.0013225365 0.06321104 -0.08421152 0.054533668 -0.00990786 0.0385904
0.082750246 -0.06443383 -0.017730473 0.079800576 -0.010877817 -0.062794454 0.056217015 0.01529427
-0.058888733 0.04584808 -0.083839715 -0.016379265 -0.012639271 -0.00436281 -0.05062298 -0.086544886
0.06249321 0.011539606 -0.07477745 -0.057414163 -0.05456947 0.007946662 -0.043845113 -0.029227354
0.0003285979 0.015667154 0.006657632 0.0713179 0.0067094304 0.060328282 0.052520547 0.0033518334
-0.01337407 0.008396884 -0.0066560516 -0.058722317 -0.0013620808 -0.030773036 0.079948306 -0.00076363765
0.002481206 0.08440609 0.034161516 -0.057847295 0.03684367 -0.05743454 0.008355318 0.022139529
0.056155354 0.076061465 0.024575269 0.022657756 0.020951388 -0.07292497 -0.054545786 0.08673239
0.085096866 0.06931826 -0.006616992 0.05935273 0.04028868 -0.019640947 -0.008946923 0.059626717
00000000: 97a8 a7bd 1d08 9c3d 4786 b6bc 2421 a93d
00000010: ca87 89bd f1ab 45bd 55f6 a53d 4dda 843d
00000020: 3904 94bd 3c61 a73c fd4a 963d 54c5 173d
00000030: 83ad e2bc 3fce 5cbd ebb4 a93d a7ed cabc
00000040: d88b a5bd 255e 1e3c 27fb 5b3d 1639 99bd
00000050: bb7d ad3c e178 7bbd 9261 e53c ba6c f2bc
00000060: a7cd 90bd 43a0 45bd 5e22 27bd 986b 9bbc
00000070: 0794 72bd c63f 543d 7865 a1bd 80c4 2ebd
00000080: d034 a7bd 59b0 853d ae82 8bbd 0683 613a
00000090: 85e2 56bd a2e1 883d 9777 81bd 2399 34bd
000000a0: ad33 943d 10e3 0a3d 0249 4e3d ad93 933c
000000b0: b9c6 abbd d353 eebb cf7e fe3c 39a6 97bd
000000c0: 5c0b 97bc 7cd5 563d fd00 233d a4f5 ab3c
000000d0: 90e1 e83c 7e46 45bd 2357 c4bc 98a4 ed3c
000000e0: afab 33bd 7fa3 87bd ca28 03bb 8937 86bd
000000f0: cdd7 b9bc 1688 d0bb a8b5 553d e1b1 9d3d
00000100: f14e 20bd b7a7 82bd 27a6 1bbd a4db 343d
00000110: 5f18 d3bb b40f e53c 3727 d8bc 1041 07bd
00000120: 811b 363d 097d ffbc 4a12 993d 91ad 913d
00000130: 4879 67bd 1215 a33d e786 db3b b0ed e13c
00000140: 2a86 cc3b 60cf 8cbd cf5c 4abd c5eb 23bd
00000150: f4e2 b3bd 9db7 86bd 3c0e 9fbc e7c9 9abd
00000160: 5499 53ba 06e2 6dbd 1886 7fbc 01f4 143d
00000170: f163 c2bc 2a61 413d 4935 44bc 4006 553d
00000180: b8f4 473d df24 b13d 3abb 87b9 4919 5ebd
00000190: 3cb0 7fbd 3ace 9d3c 28d0 80bd 9d22 8b3d
000001a0: 425e 43bd 10c0 10bd 3584 963d 6e3e c93c
000001b0: 65ff b0bd c533 4f3d 7202 d4bc 3875 0e3d
000001c0: 4d8b 483d 0ab7 ae3d 741a 71bd 3ba7 b23d
000001d0: b16f d0bc 2321 76bd b6e4 12bd efcd 00bc
000001e0: dcf8 26bd 4f5f 9bbc 8990 aebd c652 513d
000001f0: 0567 96bd 8538 12bd f181 263d 0142 373d
00000200: 2543 b1bd 0c5a d6bc 80d5 9ebd 704e 0cbd
00000210: 7898 2d3d e955 6c3c 49e8 17bd 44e7 643c
00000220: 928a 48bd f863 ce3c 4042 aabd ba2f 2dbc
00000230: 4af9 b73b 14b9 863d d35e 4d3d f34d d83c
00000240: 7c79 f53c 4789 593d 87ff a73d a13f 94bd
00000250: e707 1bbd 4527 a93d 1f66 053c c0da 89bd
00000260: 5c0a 033d 3457 533d b222 92bd 148c d6bc
00000270: 31ce 94bd a592 533d 9378 a6bc 4c95 293d
00000280: 8257 08bd 68e0 c83c c7d9 743d d253 d1bc
00000290: 1feb abbd 1295 5c3d 93b0 12bd 711e a6bd
000002a0: 302c 363d 32a4 aebc 7f46 a3bd 79dc 63bd
000002b0: d961 13bd a749 ac3c eca3 0a3d 50cc b4bd
000002c0: c6c0 f43c 7db1 c13c ed82 763d f12e 2b3c
000002d0: b82a 433d f143 8c3c 10a5 ad3b 281e b23d
000002e0: 3901 66bc a662 4fbd f658 adba ca74 813d
000002f0: 1777 acbd b25e 5f3d 9454 22bc f810 1e3d
00000300: f678 a93d e2f5 83bd 7f3f 91bc 7c6e a33d
00000310: df38 32bc 619a 80bd d043 663d d194 7a3c
00000320: 5035 71bd 32cb 3b3d 28b4 abbd cf2d 86bc
00000330: f214 4fbc e7f5 8ebb 0b5a 4fbd 723e b1bd
00000340: e1f8 7f3d 9e10 3d3c eb24 99bd 1d2b 6bbd
00000350: 3d84 5fbd b732 023c ef96 33bd 346e efbc
00000360: aa47 ac39 6758 803c 4428 da3b 1f0f 923d
00000370: c8da db3b ca1a 773d c91f 573d 6faa 5b3b
00000380: ea1e 5bbc 1693 093c 021b dabb d086 70bd
00000390: d987 b2ba bc17 fcbc f0bb a33d db2e 48ba
000003a0: bb9b 223b 1add ac3d f2ec 0b3d 49f1 6cbd
000003b0: 63e9 163d 7b40 6bbd bee4 083c f55d b53c
000003c0: 2803 663d 1dc6 9b3d 1352 c93c c29c b93c
000003d0: 3fa2 ab3c b059 95bd 676b 5fbd c0a0 b13d
000003e0: 4447 ae3d bbf6 8d3d 5ad3 d8bb d91b 733d
000003f0: be05 253d 0de6 a0bc 1d96 12bc 253b 743d

main_trunk.2.bias f4 [64]
-0.025949297 -0.07782656 0.054497495 0.21718204 -0.009617972 0.05061315 -0.0708292 -0.032540508
-0.07199157 -0.04453138 -0.1138387 0.05850967 -0.0368712 0.04366839 -0.15163973 0.04863866
-0.09926844 -0.022691727 0.053850133 0.027486298 0.1250236 -0.053851906 0.057942305 0.05536215
0.11109789 0.1256775 0.16475303 0.026143298 -0.059473354 -0.09616306 -0.011833573 0.06084731
0.058776177 0.014084012 0.050828528 0.04477441 -0.038110506 0.077131055 0.11718583 0.0738423
0.11830001 -0.007250101 -0.07179634 -0.08499162 0.066216156 0.07717981 -0.19560456 0.062247977
0.1272144 -7.27148e-05 -0.048176814 0.0064882855 0.011875507 0.044356953 0.02028257 -0.01740591
0.17783867 -0.03787402 0.06152247 0.20898582 -0.05745356 0.12647615 -0.06424072 -0.16367397
00000000: 9f93 d4bc 8863 9fbd c438 5f3d f864 5e3e
00000010: b394 1dbc bc4f 4f3d e60e 91bd 3249 05bd
00000020: 5170 93bd 8966 36bd 4424 e9bd d6a7 6f3d
00000030: 4106 17bd a0dd 323d 7247 1bbe 5539 473d
00000040: 404d cbbd 00e4 b9bc f591 5c3d f22a e13c
00000050: 3006 003e d193 5cbd e954 6d3d 6cc3 623d
00000060: 4a87 e33d 9ab1 003e 05b5 283e 782a d63c
00000070: 559a 73bd 23f1 c4bd 9ae1 41bc 073b 793d
00000080: 4abf 703d a1c0 663c 9331 503d 5f65 373d
00000090: c319 1cbd e3f6 9d3d 20ff ef3d a23a 973d
000000a0: 4747 f23d 4192 edbb f609 93bd 1610 aebd
000000b0: 569c 873d 7310 9e3d 904c 48be bcf7 7e3d
000000c0: 7e44 023e 767e 98b8 0d55 45bd af9b d43b
000000d0: 7d91 423c a3af 353d a227 a63c d796 8ebc
000000e0: 571b 363e ca21 1bbd fcfe 7b3d 6100 563e
000000f0: 6d54 6bbd f782 013e a390 83bd 269a 27be

keyword_head.0.weight f4 [64, 64]
-0.0033601224 0.11536199 -0.040805012 -0.024542123 -0.008779526 -0.02491954 -0.014931381 -0.123744816
-0.10337557 -0.040178105 -0.05500266 0.0852831 -0.118528575 0.060729668 -0.045148686 -0.047971547
-0.018952966 0.04167922 -0.012554839 0.10663229 0.09669618 -0.011398286 -0.066770315 -0.07663815
0.10317077 0.108953536 -0.09335914 0.0988294 0.025109828 -0.060504183 -0.067769244 -0.03606458
0.053927764 -0.09183562 -0.07335305 -0.079000846 -0.04230793 0.10556139 -0.09816596 -0.003274262
-0.06031002 -0.11769825 0.0106251985 0.0071499795 -0.046971187 -0.039028212 0.031204388 -0.00064371526
0.11346087 -0.014301658 0.11198236 0.09406333 0.026118323 -0.035811722 -0.11395624 0.041291103
-0.08463082 0.099556744 -0.08598347 -0.053425297 0.11759044 0.049433112 0.035319388 0.04462172
0.035352737 0.104472965 0.11622962 0.078338526 -0.107181594 -0.124205515 0.053601533 -0.09445784
0.059704743 0.11021039 0.089514986 0.066427104 -0.0176564 0.06119305 0.04508503 0.036794797
-0.08336579 0.09675644 0.031829998 0.025028646 -0.11653979 0.057680205 0.06843746 -0.08357239
0.027448276 -0.0811513 -0.12350582 -0.003181748 -0.033885732 0.09942328 -0.0917616 -0.048963718
0.050617162 -0.056815073 0.049635753 -0.09897432 -0.062096342 -0.10375178 0.0067505236 -0.029954627
0.073608376 0.098158084 -0.06688695 -0.0845142 -0.09865163 -0.011147845 0.044089507 -0.04384987
0.038620617 0.11355615 -0.10507538 -0.0001466406 -0.108712606 0.03553629 0.013212159 0.11245333
-0.03980459 0.05817175 -0.12456089 0.038140852 0.008816585 -0.03240069 -0.11957446 0.093290806
0.05774319 0.09404528 -0.07368332 -0.042273417 0.08628668 0.04012485 0.019485876 0.038798735
0.052538678 -0.1225557 -0.12356295 -0.038912535 -0.078997806 0.102989465 -0.016554162 0.028387532
-0.08686592 0.008162841 0.010502234 0.09166752 -0.0019755065 -0.10845974 -0.07527402 -0.08115417
0.02828537 -0.04568261 0.07018429 -0.0818114 -0.09031452 0.04587692 0.023576409 0.080139026
0.0300771 0.008659959 -0.03358504 -0.03295195 -0.04998809 -0.0061486214 -0.09796333 -0.018589854
0.048421726 0.08600335 -0.0046629906 0.0014142692 -0.034507036 0.06839454 0.033504874 -0.053910032
0.038708955 -0.041801304 -0.116385475 -0.09874737 -0.06696722 -0.12288822 0.0091139525 0.015265167
0.004027605 -0.028251499 -0.025983319 -0.10195111 -0.0121380985 -0.10240696 -0.050094873 -0.019283935
0.035608545 -0.042159393 -0.024933144 -0.009227924 0.096785605 -0.085560195 -0.0864231 0.09145928
-0.069128715 -0.1030178 0.07968337 0.10397583 -0.013415575 -0.046969622 -0.066898294 -0.008445017
-0.10137597 0.032806024 0.06888677 -0.043540403 0.03204313 0.06160995 0.07640974 0.10942133
0.022414755 -0.11942074 0.09978391 -0.0603652 0.11606619 0.015286808 -0.06252325 -0.11200232
-0.06973008 0.10741061 0.06397243 0.001979366 0.02253369 0.013584668 -0.11768323 0.00054620206
-0.030531013 0.08345459 0.020580024 0.06486057 0.030286059 -0.09616965 -0.1193677 -0.0045071095
-0.017686972 -0.10561107 -0.036159072 -0.08142777 0.02197663 0.047432587 -0.115843564 0.06635913
-0.014431447 -0.07397972 0.00506483 -0.1043675 0.03582056 0.1153842 0.102694735 -0.019504994
00000000: 8035 5cbb e842 ec3d 2823 27bd 900c c9bc
00000010: 00d8 0fbc 1024 ccbc c0a2 74bc ec6d fdbd
00000020: 92b6 d3bd cc91 24bd 784a 61bd e8a8 ae3d
00000030: 1cbf f2bd acbf 783d d4ed 38bd d07d 44bd
00000040: 4043 9bbc d4b7 2a3d d0b2 4dbc 0862 da3d
00000050: a608 c63d e0bf 3abc e0be 88bd 76f4 9cbd
00000060: 324b d33d 0823 df3d 1433 bfbd 1267 ca3d
00000070: 20b3 cd3c 3cd3 77bd 9aca 8abd 74b8 13bd
00000080: 5ce3 5c3d 5014 bcbd 203a 96bd 32cb a1bd
00000090: 144b 2dbd 9230 d83d 3c0b c9bd 0095 56bb
000000a0: a407 77bd c80b f1bd 5015 2e3c 604a ea3b
000000b0: dc64 40bd 0cdc 1fbd 58a0 ff3c 00bf 28ba
000000c0: 2c5e e83d 8051 6abc 0257 e53d 46a4 c03d
000000d0: 18f6 d53c 50af 12bd e461 e9bd dc20 293d
000000e0: ec52 adbd 68e4 cb3d 1a18 b0bd 7cd4 5abd
000000f0: 42d3 f03d 607a 4a3d 10ab 103d 44c5 363d
00000100: 08ce 103d ecf5 d53d cc09 ee3d f36f a03d
00000110: 0682 dbbd 765f febd 488d 5b3d 1d73 c1bd
00000120: f68c 743d fcb5 e13d a253 b73d ef0a 883d
00000130: 28a4 90bc 90a5 7a3d 15ab 383d 24b6 163d
00000140: afbb aabd 3e28 c63d 2c60 023d e008 cd3c
00000150: 6aac eebd 1442 6c3d f028 8c3d 0028 abbd
00000160: 35db e03c a732 a6bd 9ff0 fcbd e084 50bb
00000170: c4cb 0abd 6f9e cb3d 81ed bbbd 2e8e 48bd
00000180: f153 4f3d ecb6 68bd dc4e 4b3d 0cb3 cabd
00000190: bc58 7ebd d07b d4bd 7f33 dd3b 6863 f5bc
000001a0: fdbf 963d 1b07 c93d 06fc 88bd c815 adbd
000001b0: de09 cabd 73a5 36bc 3397 343d ec9b 33bd
000001c0: a730 1e3d 2090 e83d c331 d7bd 89c3 19b9
000001d0: b7a4 debd 808e 113d d077 583c ee4d e63d
000001e0: 230a 23bd 8045 6e3d c819 ffbd 9539 1c3d
000001f0: 7073 103c 96b6 04bd 74e3 f4bd 400f bf3d
00000200: 2084 6c3d d09a c03d 48e7 96bd e426 2dbd
00000210: 12b7 b03d f459 243d d8a0 9f3c 6ceb 1e3d
00000220: cc32 573d 7cfe fabd 920e fdbd c062 1fbd
00000230: 9ac9 a1bd 24ec d23d 989c 87bc f88c e83c
00000240: c2e6 b1bd 70bd 053c 9011 2c3c 2ebc bb3d
00000250: 8077 01bb 2420 debd 4429 9abd 2834 a6bd
00000260: b8b6 e73c b01d 3bbd c8bc 8f3d bc8c a7bd
00000270: d2f6 b8bd 70e9 3b3d 5023 c13c ee1f a43d
00000280: 4064 f63c 80e2 0d3c 7890 09bd a0f8 06bd
00000290: 50c0 4cbd 607a c9bb 00a1 c8bd c049 98bc
000002a0: dc55 463d 8622 b03d 00cc 98bb 005f b93a
000002b0: 4057 0dbd 7012 8c3d 683c 093d c4d0 5cbd
000002c0: 488d 1e3d d837 2bbd 825b eebd 103c cabd
000002d0: 1c26 89bd d2ac fbbd b052 153c c01a 7a3c
000002e0: 00fa 833b b06f e7bc f8da d4bc becb d0bd
000002f0: e0de 46bc beba d1bd 4830 4dbd 58f9 9dbc
00000300: 44da 113d 54af 2cbd 9840 ccbc b830 17bc
00000310: 8837 c63d 2f3a afbd 98fe b0bd 014f bb3d
00000320: 5b93 8dbd fffa d2bd 0931 a33d 48f1 d43d
00000330: 00cd 5bbc 3863 40bd f901 89bd f85c 0abc
00000340: 349e cfbd 9c5f 063d 8214 8d3d 6c57 32bd
00000350: a83f 033d b75a 7c3d b67c 9c3d 4a18 e03d
00000360: 269f b73c dc92 f4bd 825b cc3d 8041 77bd
00000370: 1cb4 ed3d 8575 7a3c 310c 80bd 7961 e5bd
00000380: a5ce 8ebd 18fa db3d fa03 833d 40b8 013b
00000390: 9398 b83c 3a92 5e3c e803 f1bd 002f 0f3a
000003a0: 2d1c fabc 3dea aa3d 7097 a83c 9ed5 843d
000003b0: 781a f83c 98f4 c4bd 0d77 f4bd 60b0 93bb
000003c0: 45e4 90bc 9e4a d8bd 891b 14bd 9ac3 a6bd
000003d0: 5508 b43c ac48 423d 643f edbd 4ce7 873d
000003e0: e071 6cbc ae82 97bd e0f6 a53b a1be d5bd
000003f0: 94b8 123d 8d4e ec3d 9e51 d23d f0c8 9fbc

keyword_head.0.bias f4 [64]
0.003455624 0.055247396 0.05026579 -0.0051165894 -0.1303978 0.10013788 -0.12260728 0.051091794
-0.112187 0.021361798 -0.095765375 -0.009648988 -0.008482604 0.23625624 0.047524206 0.18930016
0.24703781 0.14199886 0.04400888 0.05412166 0.03240624 0.109467246 -0.06979582 0.088438764
0.22434534 0.018662535 -0.056957364 0.10103786 -0.08041577 0.015499055 -0.040854245 0.11853355
0.04716611 0.04596916 -0.1099392 0.01848125 -0.20318945 -0.085436806 0.2597746 -0.073831156
0.1824278 -0.03938201 0.20401561 0.037501648 0.18423411 -0.103833675 -0.061395884 0.091433786
0.07928458 0.036291525 0.24034218 0.027958432 -0.06032842 0.10700575 0.08193837 -0.07939859
0.2736244 0.041133463 -0.038943276 -0.023977965 0.019807672 -0.11668917 -0.091225594 0.11368458
00000000: c077 623b 184b 623d 80e3 4d3d 10a9 a7bb
00000010: 0087 05be 1715 cd3d 8719 fbbd a145 513d
00000020: 4cc2 e5bd f0fe ae3c a320 c4bd ca16 1ebc
00000030: 9ffa 0abc 28ed 713e bea8 423d e7d7 413e
00000040: 7bf7 7c3e 2668 113e a842 343d acae 5d3d
00000050: 68bc 043d 5d30 e03d 1cf1 8ebd 621f b53d
00000060: c9ba 653e 2ce2 983c 204c 69bd f0ec ce3d
00000070: 06b1 a4bd c0ef 7d3c c856 27bd b8c1 f23d
00000080: 4031 413d 284a 3c3d ce27 e1bd fe65 973c
00000090: e510 50be 7ef9 aebd 2d01 853e ca34 97bd
000000a0: 5ace 3a3e 084f 21bd 78e9 503e 549b 193d
000000b0: dea7 3c3e c0a6 d4bd 407a 7bbd a341 bb3d
000000c0: f45f a23d 6ca6 143d 431c 763e 1509 e53c
000000d0: ef1a 77bd d525 db3d 4ecf a73d ba9b a2bd
000000e0: 7f18 8c3e 907b 283d fc82 1fbd 706d c4bc
000000f0: b343 a23c bbfa eebd 7cd4 babd 76d3 e83d

keyword_head.2.weight f4 [27, 64]
-0.006757349 0.07985478 -0.10607697 0.040398523 0.094567455 -0.037067976 -0.09085135 0.054440286
-0.09030542 -0.09562899 0.099364795 -0.031347297 0.039722856 0.025078353 -0.096219584 -0.043793976
-0.08723482 0.12746151 -0.094447896 0.05458434 -0.06737931 -0.0035638174 0.020880252 -0.044296157
-0.072386734 0.102117434 0.12220687 0.037572637 -0.010820046 -0.018112043 -0.10171533 0.1159111
-0.02165088 -0.102672726 -0.101747744 0.07920548 0.06776623 0.013146743 -0.036165696 -0.082569815
-0.11382341 -0.081041306 0.019299071 0.009207098 0.020327372 0.015981555 -0.10109964 -0.11484078
0.1188876 -0.11900753 0.0049168244 -0.114098966 0.015764616 -0.014230817 0.05609387 -0.083238624
0.038053755 -0.07889879 -0.11213146 0.07045832 -0.084286466 0.06178046 -0.063664846 0.058060233
-0.0059063733 0.015189948 0.08618851 0.06596055 0.12582281 -0.04175111 0.048621397 0.05546281
-0.07606245 -0.059986785 0.1061762 0.06853357 0.08716518 -0.033816513 0.05129994 -0.02114715
0.0939321 -0.03152016 -0.10847208 0.11013888 -0.06923324 -0.099923946 0.064402714 -0.0561839
-0.02890059 0.082816504 -0.067308575 -0.03553486 0.1162896 -0.064943455 0.030684024 -0.01885517
0.030568063 -0.029346809 0.105300836 -0.09779593 0.07397797 -0.059234455 -0.09613166 0.11449062
-0.109723434 0.02164971 -0.06227219 -0.050184105 -0.0663568 -0.046222672 -0.035556436 0.015067702
-0.04589729 -0.101565406 0.14770995 -0.06971137 0.101531066 0.045022793 -0.015705839 -0.06013022
-0.038920738 -0.111839294 0.1194577 -0.023284983 -0.07466221 -0.10750971 0.12392171 -0.026285525
-0.00043664873 0.097530715 0.03697969 0.0005493768 -0.061087016 -0.017510382 0.06751477 -0.02045447
0.007990776 -0.04547979 -0.10429967 0.1036181 -0.007446601 0.011667705 -0.083906464 -0.0063190907
-0.05119973 -0.07621231 -0.04572931 0.09474543 -0.058756456 0.011063518 -0.02480553 -0.09884238
-0.14597699 -0.032980923 0.009963602 -0.04079917 0.060668766 -0.07118825 -0.06711769 0.09183563
0.120010495 -0.055706397 0.06746715 0.012440753 -0.009299088 -0.09590167 -0.044707477 -0.09972308
-0.14759076 0.023710713 -0.098788746 -0.04139351 0.05664014 -0.038397744 -0.02414 -0.01681298
-0.031806633 0.035715178 -0.1364333 -0.039075658 -0.05184738 -0.08787767 -0.081844345 0.08866709
-0.09416696 0.116329625 -0.10819045 -0.0057099434 -0.019618273 0.058135197 -0.124448985 -0.0118630715
-0.04009576 0.049668837 0.08859463 -0.124781236 -0.045736056 -0.019615978 0.004315224 -0.033316933
-0.009478785 -0.054855257 -0.10440187 -0.028107092 -0.027467826 -0.08287402 -0.08187635 -0.0685572
-0.055417057 -0.10671595 0.103363775 -0.050006896 -0.10535963 -0.028582422 0.07748957 -0.06377549
-0.10238543 0.013522735 0.03367564 0.029548943 0.09165764 -0.013914157 -0.07326229 0.09712024
0.099851996 0.029001415 0.08748685 0.11095859 0.01951272 -0.0058197826 0.06207991 -0.105287015
-0.012276707 0.021318331 -0.08426136 0.05014748 -0.13013753 -0.08797039 0.038974404 0.058071353
0.030120224 0.045768455 -0.13610321 0.10272261 -0.038615756 0.017988738 0.121643335 0.03014583
-0.05462033 0.026081264 -0.076388404 -0.1395212 0.05196823 -0.0062342114 -0.0053136945 -0.029499589
00000000: c06c ddbb e78a a33d e23e d9bd ec78 253d
00000010: 95ac c13d 97d4 17bd 4610 babd c7fc 5e3d
00000020: 0cf2 b8bd 22d9 c3bd c57f cb3d 0666 00bd
00000030: 6fb4 223d 1e71 cd3c c60e c5bd 5061 33bd
00000040: 2ba8 b2bd 4585 023e e66d c1bd d493 5f3d
00000050: 2afe 89bd ef8e 69bb 100d ab3c e36f 35bd
00000060: 7f3f 94bd f222 d13d 9847 fa3d c4e5 193d
00000070: 9046 31bc b55f 94bc 2050 d0bd cc62 ed3d
00000080: 305d b1bc 1446 d2bd 1f61 d0bd 7c36 a23d
00000090: 05c9 8a3d 7065 573c 7b22 14bd 5d1a a9bd
000000a0: 3f1c e9bd fcf8 a5bd 1619 9e3c 5ed9 163c
000000b0: 9785 a63c c0eb 823c 540d cfbd a531 ebbd
000000c0: 587b f33d 38ba f3bd 501d a13b b8ac e9bd
000000d0: cc24 813c 5f28 69bc b0c2 653d 0379 aabd
000000e0: 41de 1b3d b095 a1bd 2ea5 e5bd 744c 903d
000000f0: 629e acbd 820d 7d3d b762 82bd 91d0 6d3d
00000100: 408a c1bb 42df 783c 9a83 b03d 5316 873d
00000110: b2d7 003e 3603 2bbd 3b27 473d f92c 633d
00000120: a1c6 9bbd b4b4 75bd e872 d93d 545b 8c3d
00000130: a883 b23d 2f83 0abd e31f 523d ca3c adbc
00000140: 795f c03d 491b 01bd 9c26 debd 7e90 e13d
00000150: 28ca 8dbd eda4 ccbd 92e5 833d 1721 66bd
00000160: eec0 ecbc b39b a93d 14d9 89bd 008d 11bd
00000170: 3e29 ee3d 1301 85bd 105d fb3c 2876 9abc
00000180: e069 fa3c b868 f0bc f7a7 d73d 3c49 c8bd
00000190: c381 973d d49f 72bd ade0 c4bd 0f7a ea3d
000001a0: aeb6 e0bd bc5a b13c 2011 7fbd d98d 4dbd
000001b0: 13e6 87bd fc53 3dbd a0a3 11bd 86de 763c
000001c0: ccfe 3bbd 8601 d0bd 4741 173e d6c4 8ebd
000001d0: 85ef cf3d d269 383d 88a9 80bc 1b4b 76bd
000001e0: 5a6b 1fbd 000c e5bd 3da6 f43d 26c0 bebc
000001f0: 80e8 98bd 0d2e dcbd aaca fd3d be54 d7bc
00000200: 00ee e4b9 2fbe c73d 0478 173d 0e04 103a
00000210: 6136 7abd ef71 8fbc 2f45 8a3d 2290 a7bc
00000220: beeb 023c 0449 3abd 119b d5bd ba35 d43d
00000230: 9e02 f4bb e729 3f3c 27d7 abbd 6010 cfbb
00000240: cfb6 51bd 3315 9cbd a84e 3bbd e409 c23d
00000250: 9caa 70bd c243 353c f834 cbbc e06d cabd
00000260: fe7a 15be 0117 07bd 603e 233c 081d 27bd
00000270: d07f 783d 25cb 91bd 0075 89bd 5214 bc3d
00000280: 10c8 f53d 642c 64bd 382c 8a3d 4dd4 4b3c
00000290: 345b 18bc 1868 c4bd 301f 37bd 9d3b ccbd
000002a0: 0822 17be f83c c23c c151 cabd 3e8c 29bd
000002b0: 7eff 673d f446 1dbd 40c1 c5bc 60bb 89bc
000002c0: ac47 02bd 144a 123d 2cb5 0bbe cc0d 20bd
000002d0: eb5d 54bd 35f9 b3bd 029e a7bd 1797 b53d
000002e0: 9bda c0bd 3a3e ee3d f492 ddbd 7a1a bbbb
000002f0: 80b6 a0bc 2c1f 6e3d 1cdf febd 545d 42bc
00000300: 743b 24bd 8d71 4b3d 1a71 b53d 4e8d ffbd
00000310: bb55 3bbd b0b1 a0bc b966 8d3b 5677 08bd
00000320: e84c 1bbc e8af 60bd a6d0 d5bd d840 e6bc
00000330: 3504 e1bc dbb9 a9bd caae a7bd b867 8cbd
00000340: fffc 62bd e48d dabd 63b0 d33d 08d4 4cbd
00000350: cac6 d7bd af25 eabc dab2 9e3d b99c 82bd
00000360: 74af d1bd 768e 5d3c 78ef 093d a010 f23c
00000370: 00b7 bb3d 34f8 63bc 8a0a 96bd fae6 c63d
00000380: 347f cc3d 6094 ed3c 4e2c b33d 423e e33d
00000390: 24d9 9f3c e0b3 bebb 8147 7e3d b8a0 d7bd
000003a0: 3e24 49bc c8a3 ae3c 3891 acbd 7267 4d3d
000003b0: c642 05be d229 b4bd a0a3 1f3d 3adc 6d3d
000003c0: b0be f63c b477 3b3d a45e 0bbe 3b60 d23d
000003d0: 8e2b 1ebd 1e5d 933c 2420 f93d 63f4 f63c
000003e0: 91b9 5fbd 60a8 d53c 8671 9cbd a5de 0ebe
000003f0: a4dc 543d 5b48 ccbb 801e aebb 1fa9 f1bc

keyword_head.2.bias f4 [27]
-0.21475592 -0.12313753 -0.19353779 -0.17913109 -0.15329857 -0.22362818 -0.0868321 -0.113807775
-0.07500258 -0.07981761 -0.16564998 -0.07673315 -0.23502396 -0.19330531 -0.09092501 -0.048728164
-0.10489105 -0.06968834 -0.09746744 -0.06747822 -0.1696986 -0.09242283 -0.030093396 -0.00014855945
-0.11695849 -0.013250904 -0.15163
00000000: fae8 5bbe 882f fcbd c52e 46be 246e 37be
00000010: 4dfa 1cbe c9fe 64be 07d5 b1bd 0d14 e9bd
00000020: f49a 99bd 6a77 a3bd 26a0 29be 4526 9dbd
00000030: 1faa 70be d4f1 45be e436 babd 2f97 47bd
00000040: 1ed1 d6bd c3b8 8ebd 029d c7bd 0532 8abd
00000050: 78c5 2dbe 2e48 bdbd 6d86 f6bc a0c6 1bb9
00000060: ef87 efbd 521a 59bc e544 1bbe

price_head.0.weight f4 [32, 64]
0.09900755 -0.09605196 -0.068810046 -0.08582334 0.07553978 0.11958641 -0.025840968 0.105432376
0.073234856 -0.016588748 0.0361823 0.013149902 0.044161215 0.09397037 -0.09729777 -0.05875756
-0.047574818 -0.023746744 -0.123178795 -0.04092729 -0.036117494 -0.03813176 -0.019237071 -0.119696274
-0.09737867 0.063917994 -0.055339545 0.08517484 -0.037752375 0.003584966 0.072700635 0.12051992
-0.023882672 0.041442096 -0.052852094 -0.06838369 0.03229864 0.060031697 -0.087879285 0.089270905
-0.07340616 -0.10958652 0.07435313 -0.08894184 -0.042245537 0.033632442 -0.097469896 0.10490988
-0.09940262 0.079317436 -0.08250697 0.05478318 -0.094002455 0.021202743 0.08035579 -0.028012931
-0.09350371 0.07045959 0.03601016 -0.04092887 -0.011428922 0.096019626 -0.06029983 -0.0012345314
0.09783949 -0.018461615 0.11698638 0.039269358 -0.06301741 0.044658363 0.05847548 0.10930906
0.03546755 -0.07908675 0.009766951 -0.031670883 0.008470103 -0.037589774 0.121456146 -0.022140339
-0.10721071 0.008307725 -0.11635956 0.021683082 -0.002549857 0.08425014 0.06839278 -0.012575254
0.054755837 -0.059363246 0.024975717 0.05989313 0.031656012 0.021610826 -0.098233595 -0.075280204
0.09248777 0.0006817132 -0.08767228 -0.03794317 -0.10726641 0.05484587 0.08979212 0.01296562
-0.05456692 -0.07970652 -0.04073198 -0.090739235 0.102664754 -0.04972802 -0.060952872 0.11534427
-0.042325884 -0.07847339 -0.010793805 -0.023065701 -0.08607277 -0.017284319 0.11733629 0.08615902
-0.046255425 -0.12437633 0.09269473 0.024365336 -0.05481966 0.054674193 0.09843223 0.120872006
-0.060830176 -0.0023640245 -0.05160837 0.08369221 0.015651627 0.055651292 0.12246339 -0.083158694
-0.10602923 -0.06458466 0.037167814 -0.030674547 -0.012594998 0.04522127 0.072149225 0.06684274
-0.020986324 -0.12076786 -0.062748164 0.011648908 0.07207987 0.0074625835 -0.06703937 0.039840396
0.07816577 -0.0150992265 -0.0037500858 -0.07764088 -0.07727229 0.02324252 0.054511722 0.019844133
0.101890765 0.081492886 0.114393175 -0.014499173 0.045949817 -0.08557359 -0.0060393424 0.11103253
0.058218412 -0.03493282 -0.00339818 -0.11506501 -0.05752033 0.005335018 -0.12561801 -0.082781106
0.049202967 0.023142187 0.0804307 0.08335379 0.041763116 0.029914632 -0.11014795 -0.11262974
0.02492706 -0.052552223 0.112132385 -0.012377684 -0.077370256 -0.061291102 -0.10228263 -0.11212663
0.0640828 -0.1229645 0.0056613535 -0.06715803 -0.022531357 0.019335434 -0.09201604 0.039959926
-0.010143658 -0.073156916 0.025851244 0.06133715 0.0538058 -0.03434731 -0.010827073 -0.107322864
0.005562385 0.01921904 -0.014807776 -0.11245768 0.09335067 0.074852146 -0.055210173 0.016220912
0.068847895 0.034833763 0.11617625 -0.005612191 -0.011762826 -0.105298124 0.018117614 -0.039771594
-0.017804133 0.013545364 -0.016614333 0.109073445 -0.09783052 -0.09797306 0.013640395 -0.091704756
0.11619932 0.106250085 -0.009951234 -0.12088159 -0.010726169 0.091758244 0.101799294 0.064658806
0.011875735 -0.038980413 0.089747466 0.11870462 -0.050999884 -0.042167693 0.12174705 0.07175173
-0.08735403 -0.09553197 -0.11221114 0.06018416 0.056852534 0.03498646 -0.09321762 0.06500246
00000000: 78c4 ca3d e4b6 c4bd 48ec 8cbd 26c4 afbd
00000010: 9ab4 9a3d b8e9 f43d 70b0 d3bc eeec d73d
00000020: 28fc 953d 20e5 87bc e433 143d b072 573c
00000030: 64e2 343d 8a73 c03d 0e44 c7bd c4ab 70bd
00000040: d0dd 42bd 8888 c2bc 2a45 fcbd 60a3 27bd
00000050: f0ef 13bd 0c30 1cbd 1097 9dbc 5223 f5bd
00000060: 786e c7bd 70e7 823d b8ab 62bd 2670 ae3d
00000070: 3ca2 1abd c0f1 6a3b 12e4 943d 26d3 f63d
00000080: 98a5 c3bc 30bf 293d 707b 58bd c00c 8cbd
00000090: 944b 043d cce3 753d 0efa b3bd aad3 b63d
000000a0: f855 96bd e66e e0bd 7446 983d 2427 b6bd
000000b0: a809 2dbd 2cc2 093d 4c9e c7bd feda d63d
000000c0: 9a93 cbbd 2e71 a23d 6af9 a8bd 5464 603d
000000d0: 5c84 c0bd 60b1 ad3c 9491 a43d 607b e5bc
000000e0: e07e bfbd 1e4d 903d 647f 133d 08a5 27bd
000000f0: 6040 3bbc f0a5 c43d f4fc 76bd 00d0 a1ba
00000100: 1260 c83d d03c 97bc 8e96 ef3d e8d8 203d
00000110: 460f 81bd b0eb 363d fc83 6f3d 6edd df3d
00000120: 6c46 113d 3cf8 a1bd 9005 203c 54b9 01bd
00000130: 30c6 0a3c bcf7 19bd 00be f83d a85f b5bc
00000140: 4a91 dbbd 201d 083c ec4d eebd b8a0 b13c
00000150: 801b 27bb 568b ac3d 8411 8c3d 7008 4ebc
00000160: a847 603d e026 73bd e099 cc3c 8052 753d
00000170: bca9 013d 3009 b13c b22e c9bd 822c 9abd
00000180: 3a6a bd3d 00b5 323a 868d b3bd 4c6a 1bbd
00000190: 7eae dbbd 10a6 603d eee4 b73d c06d 543c
000001a0: 9081 5fbd 2c3d a3bd 94d6 26bd 7ed5 b9bd
000001b0: e641 d23d 9caf 4bbd b8a9 79bd 9e39 ec3d
000001c0: e85d 2dbd a8b6 a0bd 80d8 30bc 48f4 bcbc
000001d0: ec46 b0bd d897 8dbc 024e f03d 2474 b03d
000001e0: 5476 3dbd 04b9 febd bcd6 bd3d d099 c73c
000001f0: 948a 60bd 0cf2 5f3d d696 c93d be8b f73d
00000200: 1029 79bd c0ed 1abb 4c63 53bd d266 ab3d
00000210: d737 803c 9cf2 633d 16ce fa3d 1b4f aabd
00000220: da25 d9bd f644 84bd 473d 183d 3049 fbbc
00000230: 405b 4ebc f039 393d f9c2 933d d9e4 883d
00000240: 83eb abbc 2455 f7bd 1c82 80bd 10db 3e3c
00000250: 9c9e 933d b088 f43b f04b 89bd af2f 233d
00000260: 6015 a03d bf62 77bc 00c4 75bb 2f02 9fbd
00000270: ef40 9ebd 1967 be3c af47 5f3d 2a90 a23c
00000280: 1bac d03d bee5 a63d f846 ea3d f08d 6dbc
00000290: e035 3c3d 3541 afbd ade5 c5bb 0665 e33d
000002a0: 6e76 6e3d b715 0fbd 00b4 5ebb 34a7 ebbd
000002b0: 709a 6bbd 60d1 ae3b 02a2 00be 2489 a9bd
000002c0: 0d89 493d af94 bd3c dab8 a43d 64b5 aa3d
000002d0: cd0f 2b3d 880f f53c 4095 e1bd 6caa e6bd
000002e0: d533 cc3c 0041 57bd aaa5 e53d c5cb 4abc
000002f0: 4c74 9ebd 610c 7bbd 8e79 d1bd a6a2 e5bd
00000300: d83d 833d d0d4 fbbd e082 b93b 268a 89bd
00000310: ae93 b8bc 5865 9e3c e872 bcbd 05ad 233d
00000320: 9631 26bc 4bd3 95bd fdc5 d33c aa3c 7b3d
00000330: 7863 5c3d c4af 0cbd 0964 31bc 17cc dbbd
00000340: ab44 b63b 4071 9d3c 509c 72bc 3650 e6bd
00000350: a32e bf3d 154c 993d 1024 62bd b8e1 843c
00000360: 2000 8d3d d9ad 0e3d d0ed ed3d 78e6 b7bb
00000370: deb8 40bc 8ba6 d7bd 646b 943c 8ae7 22bd
00000380: f9d9 91bc 60ed 5d3c c81a 88bc e661 df3d
00000390: 5e5b c8bd 1aa6 c8bd f77b 5f3c b4cf bbbd
000003a0: e9f9 ed3d a599 d93d 800a 23bc c490 f7bd
000003b0: d0bc 2fbc bfeb bb3d 267c d03d d66b 843d
000003c0: 7192 423c eda9 1fbd 85cd b73d 681b f33d
000003d0: 41e5 50bd 08b8 2cbd 8456 f93d 92f2 923d
000003e0: abe6 b2bd 44a6 c3bd f4ce e5bd aa83 763d
000003f0: 34de 683d f64d 0f3d e1e8 bebd 0220 853d

price_head.0.bias f4 [32]
-0.020613536 -0.052330837 0.15727548 0.05004499 -0.036035456 -0.039942577 0.08007292 0.15122104
0.0068677664 0.012780072 0.13622807 0.22969672 0.07526728 0.0453171 -0.10617839 -0.14167577
0.02590014 -0.09574589 -0.1829916 0.04587754 -0.075455174 -0.06708802 -0.05764392 0.08511955
-0.045570783 0.175061 -0.07513837 -0.22517315 0.04194789 -0.20697398 0.06087403 0.05619796
00000000: b8dd a8bc dc58 56bd d30c 213e fafb 4c3d
00000010: ea99 13bd d49a 23bd 45fd a33d b0d9 1a3e
00000020: 000b e13b 8263 513c 5f7f 0b3e 9e35 6b3e
00000030: bb25 9a3d 6c9e 393d 0e74 d9bd 7413 11be
00000040: 882c d43c 6c16 c4bd 2662 3bbe 16ea 3b3d
00000050: 3e88 9abd 7265 89bd 081c 6cbd 2953 ae3d
00000060: 6ea8 3abd 3143 333e 25e2 99bd ca93 66be
00000070: 8dd1 2b3d fdf0 53be 0c57 793d d52f 663d

price_head.2.weight f4 [1, 32]
0.0032002523 0.14216545 0.034042373 0.08983506 -0.04286345 0.1474652 0.08460095 0.15749574
0.16876422 0.1192443 0.16391107 0.08500242 0.067400634 0.08511638 0.12649119 -0.00083504926
0.07583976 -0.15062068 -0.022945728 0.06492782 0.014113588 0.16520958 0.026386077 0.08784396
-0.15040372 0.08097235 -0.013733075 -0.10764597 -0.11355969 -0.07616513 -0.06182013 0.16509034
00000000: 53bb 513b d293 113e 0470 0b3d 72fb b73d
00000010: 9691 2fbd 1e01 173e 4343 ad3d 9046 213e
00000020: 87d0 2c3e 5b36 f43d 4ed8 273e c015 ae3d
00000030: 5809 8a3d 7f51 ae3d e886 013e 35e7 5aba
00000040: e051 9b3d 4f3c 1abe aef8 bbbc e0f8 843d
00000050: ae3c 673c b32c 293e 9d27 d83c 89e7 b33d
00000060: 6f03 1abe d5d4 a53d b100 61bc 7e75 dcbd
00000070: fc91 e8bd 77fc 9bbd 1b37 7dbd 710d 293e
