DQN_Agent/Models_Saved/multi_task_DQN_gamma0.0_train_batch_size64_replay_buffer_size100_num_episodes5.pth (torch, 86114 bytes, 11 tensors)

main_trunk.0.weight f4 [128, 27]
000000 c1 43 05 3e d1 73 f6 bd 64 0e 24 be 21 ab 0d 3e
       0.13014127 -0.12033809 -0.16021115 0.13834812
000010 10 ca 3a 3e e0 f6 df 3c 6c a2 90 bd 00 d6 28 be
       0.18241143 0.027339399 -0.070622295 -0.16487885
000020 08 8d ee bd 3b 18 36 3e df f9 3f 3e 1d 51 8e bd
       -0.11647993 0.1778268 0.18747662 -0.06949065
000030 b5 f2 15 3e 21 85 c3 3d 49 22 02 be 50 7b dc bd
       0.14643367 0.09546877 -0.12708391 -0.107657075
000040 7c b1 3f 3e 38 7d 7b bd 40 7f 03 bd d2 24 20 3e
       0.18720049 -0.061398715 -0.032103777 0.15639046
000050 98 9a e4 3d 77 d7 1d 3e 1c 59 d9 bd 93 4d e7 3c
       0.11162299 0.15414225 -0.106126994 0.028235232
000060 cd 22 04 be 22 d9 7a bd 6c 55 02 be 55 e4 d1 bd
       -0.129039 -0.06124223 -0.12727898 -0.10248629
000070 5a f4 3f bd 92 02 11 be 00 56 d8 3d 8f 72 3e 3d
       -0.04686389 -0.14161137 0.10563278 0.04649597
000080 df 9f 34 3e b0 e9 37 be 30 b2 13 bd 6d fa 1d 3e
       0.17639111 -0.17960238 -0.036058605 0.15427561
000090 bc 46 00 3e fd 6f 49 bd 75 1a 44 3e a2 95 fc bd
       0.12526983 -0.049179066 0.19150718 -0.12333228
0000a0 83 c7 8d 3b 0b ef 19 be a2 55 05 3e c3 02 d9 bc
       0.004326762 -0.15032594 0.13020948 -0.026490575
0000b0 c2 e4 b7 bc 41 34 81 3c 3e d7 84 3d a2 05 95 bd
       -0.022447947 0.015771987 0.06486367 -0.07276465
0000c0 48 a9 25 be 41 0a 2d 3e d8 7a 08 3e 7e e6 22 bc
       -0.16177857 0.16898443 0.13328111 -0.009942649
0000d0 87 ee 8d 3d 34 fe 73 bd d1 f8 18 3e 40 4d f4 3d
       0.06930261 -0.0595686 0.14938666 0.11928797
0000e0 ce 2c 30 3e 80 16 b2 bd 08 4f a9 3b 2e fa 39 3e
       0.17204592 -0.08695698 0.005166892 0.18161842
0000f0 71 75 7a 3c 61 8c c6 bd ac e4 9e bd cd 69 21 3e
       0.015286789 -0.09694744 -0.077584594 0.15763016
000100 80 59 46 bd aa 6d 75 3c b0 9a c0 bd f2 e0 f6 3d
       -0.048425198 0.014979759 -0.09404504 0.12054624
000110 9e 27 c6 3d 4c 03 2b 3e 20 e7 4e bd b0 36 09 be
       0.09675525 0.16700476 -0.050513387 -0.13399768
000120 f3 09 5c 3c 08 8a 24 3d 3c 64 e5 bd cc 32 86 3c
       0.013430106 0.0401707 -0.11200759 0.016381644
000130 13 0a 3a 3e a8 b2 01 3e 4d d6 90 3d 38 07 ca 3d
       0.18167906 0.12665808 0.07072125 0.09864658
000140 58 1b 1c be 52 5a 8a 3d 9c cb 65 bd 0d 7e ad 3b
       -0.15244806 0.067555085 -0.05610238 0.0052945674
000150 5d 5a 23 3e bb 01 07 3e c7 30 f4 3d 94 08 0f 3e
       0.1595244 0.13184254 0.11923366 0.13968116
000160 3b 42 59 3d 71 da 2f be e7 be 9c 3c 05 28 74 3d
       0.053041678 -0.17173173 0.019133998 0.059608478
000170 14 c9 82 3d 2f 3a a1 3d 61 b5 e1 bd c8 e5 3f bd
       0.06386009 0.07872426 -0.110209234 -0.046849996
000180 a3 8e 6c 3d 8f 77 99 bd 17 c1 03 3d 7b 1f 3e be
       0.057753216 -0.07493507 0.032166567 -0.18566696
000190 f8 32 e4 3d bc 45 f8 bd 3d 69 e3 3d 1a 0b 35 3e
       0.11142534 -0.12122676 0.11104057 0.17680016
0001a0 4a 3d 43 3d c2 c5 ad bd 10 45 e3 3d 11 7c 40 bc
       0.04766587 -0.08484985 0.11097157 -0.01174833
0001b0 ba 7f 20 3d 55 69 88 3e 14 7e 36 bd c9 5b 51 3e
       0.03918431 0.26642862 -0.04455383 0.2044517
0001c0 a2 e6 77 3e 71 27 eb bc c7 ba 5c bc fa 6d 7c 3e
       0.24209073 -0.02870533 -0.013472266 0.24651328
0001d0 49 dc 5c 3d 5b 3f 93 3d 0b a3 12 3e 67 39 81 3e
       0.053921018 0.071898185 0.14320008 0.25239107
0001e0 28 35 81 bc 4e 92 ed 3d 16 ef 0b bc 69 d8 aa 3d
       -0.015772417 0.11600171 -0.008540889 0.08342058
0001f0 63 75 be bd a4 11 38 3e d3 a9 43 3e ee eb df ba
       -0.092997335 0.1797548 0.19107752 -0.0017083862
000200 c2 1e 32 3e 09 56 1c 3e 55 aa 30 3e 3d f4 e1 bd
       0.17394546 0.15267195 0.17252477 -0.11032913
000210 3d ea 70 3e b9 33 5d 3e 2e 37 ba 3d 76 60 cd bc
       0.23526855 0.21601762 0.09092556 -0.02507041
000220 be cf 52 bd 4f 93 46 3e 8e 5d bf 3d a3 90 5d 3b
       -0.05146765 0.19392131 0.09344016 0.0033808134
000230 74 2d 3e 3e 10 b6 dc bd da 59 14 3e fa e1 62 3d
       0.18572026 -0.10776913 0.144874 0.05539129
000240 5d 99 71 3e 3f f5 d7 3d 65 8b 15 3e ef 7e 3d bd
       0.2359366 0.10544824 0.14603956 -0.04626363
000250 fe bd ce bd 31 50 ab 3d f6 a9 72 3e dd 46 34 3e
       -0.10094832 0.08364905 0.23697647 0.17605157
000260 0c 6d f0 3d 98 fa 09 bc 6b fb bd 3d 9e df c2 bc
       0.11739549 -0.008421563 0.0927647 -0.02378827
000270 a7 12 56 3e 61 2f fa 3c bb e3 e6 3d 90 57 b5 bd
       0.20905553 0.03054017 0.11273905 -0.08854592
000280 a3 4a 93 3d 35 71 6b 3e 73 b3 7f bc d4 7f 16 3e
       0.0719197 0.22992404 -0.015606749 0.146972
000290 94 a7 1f bd c3 af 09 3d 9f 98 0e 3d df 75 d1 3d
       -0.038978174 0.033614885 0.03481352 0.1022756
0002a0 c0 01 6d 3d 5d 93 d3 3d 5e 48 2e be b6 b6 26 be
       0.057862997 0.10330842 -0.17019793 -0.16280636
0002b0 c4 6f cb bd e3 04 e1 3d c3 a4 04 be 67 ac 06 3d
       -0.09933427 0.1098726 -0.12953477 0.03287926
0002c0 88 fd 09 3e b7 bd 90 3d cf 01 f7 3c 40 82 ad ba
       0.13475621 0.07067435 0.03015223 -0.001323767
0002d0 6d 59 89 bd 58 b2 ca bd cc ed 3b be d1 5c 2b be
       -0.0670651 -0.098972976 -0.18352431 -0.16734625
0002e0 31 a1 ee 3c a3 7e 2d be a7 68 8b 3d c9 10 c9 bd
       0.029129596 -0.1694284 0.0680707 -0.09817655
0002f0 60 a6 4b bc 32 02 21 3e b9 46 f6 3d 99 90 0e be
       -0.012429804 0.15723494 0.12025208 -0.13922347
000300 27 88 20 3d d5 2b e5 3d 85 9e 3f 3e 02 cf 34 3e
       0.039192345 0.11190001 0.18712814 0.17657092
000310 86 53 8d bd fa cc 15 3d d8 05 d8 3d 4e b8 dd 3d
       -0.069006965 0.036572434 0.105479896 0.10826169
000320 3e 1c 1d bd 14 8e e5 3d b2 65 04 3e cd 71 fc 3d
       -0.038357012 0.1120874 0.12929419 0.12326393
000330 89 d1 c0 bd 1c bf 69 3d e1 95 22 bd cc 5a 23 3e
       -0.09414966 0.05706702 -0.039693717 0.15952605
000340 25 fc 0a be e3 e4 de 3d 37 31 c0 bb 57 82 8a 3d
       -0.13572748 0.108835004 -0.005865242 0.067631416
000350 0a f9 2d bd 9b e5 38 3e c3 8c ad 3d 20 06 0a be
       -0.04247383 0.18056338 0.08474114 -0.13478899
000360 13 a6 51 3d 2c 6b a1 bc 1a bf e6 3d cd 88 3f 3e
       0.05118377 -0.019704424 0.112669185 0.18704529
000370 c2 80 ab 3d b8 73 28 be ed df 05 3e a6 27 25 3d
       0.08374168 -0.16450393 0.13073702 0.040321015
000380 f8 4f 8e 3d 2e 32 3c 3e 85 45 9d 3c 88 e4 00 3d
       0.069488466 0.18378517 0.019198189 0.031467944
000390 84 c3 3d 3e d3 1e 2b 3e 9c c7 c5 3d ab a6 42 bd
       0.18531615 0.16710977 0.09657213 -0.04752223
0003a0 68 37 77 bd 23 3a 1b 3e 3e de 46 3d f7 19 bd 3d
       -0.060355574 0.15158896 0.04855179 0.09233468
0003b0 ce 0c d0 bd 34 79 bb 3a 4d c6 85 bd 4c b7 b6 bd
       -0.10158692 0.0014303089 -0.065319635 -0.0892168
0003c0 80 e2 ff 3c 0c 01 af bd ef 9a 27 be dd cf 67 bd
       0.031235933 -0.085451216 -0.16367696 -0.05659472
0003d0 77 e2 e3 bd 18 13 24 3e c8 96 01 be 8b 42 22 be
       -0.11127179 0.16022909 -0.12655175 -0.15845697
0003e0 31 62 c7 3c 52 2a c0 bd 53 41 8f 3d f4 6e 16 be
       0.024338813 -0.09383072 0.069948815 -0.14690763
0003f0 7b 63 6d 3d 30 66 19 3d 6a ac 09 be 6c d6 28 3e
       0.0579562 0.03745097 -0.13444677 0.16488045

main_trunk.0.bias f4 [128]
000000 9b 75 d2 bc 14 64 13 3d 5e f6 28 be 02 3b 76 bd
       -0.025690844 0.035984114 -0.16500232 -0.060114868
000010 22 77 ec 3d d6 6f 78 bd 36 ff 16 3e 75 ea ac 3d
       0.1154616 -0.06065353 0.14745793 0.08443157
000020 c2 c8 32 3e a5 d9 cd bc ff fb cc bd 28 bd 3d be
       0.17459396 -0.025128195 -0.10009002 -0.18529189
000030 6c c5 59 bc 56 f2 57 3d 2d 23 3e 3e 38 66 a0 bd
       -0.013291698 0.052721344 0.18568106 -0.07831997
000040 94 cf 20 3e c8 26 9d bc 44 86 89 bd ee b6 73 3c
       0.15704185 -0.019183531 -0.06715062 0.014875157
000050 12 8c 93 3d 4b 9a 3b be 6b 9c 4c 3e f6 de 4a bd
       0.07204451 -0.18320577 0.19981544 -0.04952904
000060 a4 49 a7 bd 10 30 3d 3e d2 39 58 3e 8f 27 f8 bd
       -0.08168343 0.18475366 0.21115807 -0.1211692
000070 34 86 cc 3b 02 ae 84 bd 01 bb 14 3e 5c e0 3b 3e
       0.006241584 -0.06478502 0.14524461 0.18347305
000080 34 e8 9f bd d7 0c e4 3c de ea 08 3e b6 7f f4 bd
       -0.07807961 0.027838154 0.13370845 -0.119384214
000090 98 24 f0 bd ba b8 9a 3d bd fd 1c ba 0b 09 c8 3b
       -0.1172573 0.07554765 -0.00059887377 0.0061045936
0000a0 49 34 02 bd 6b 00 32 3e 27 7a 37 3e 70 90 8a 3d
       -0.031788144 0.17382972 0.17917691 0.067658305
0000b0 cc 15 21 be 7c 8e f1 bd 65 82 ab 3d 0e 38 99 3d
       -0.15730971 -0.11794755 0.0837448 0.07481395
0000c0 12 cf e2 bd 38 a4 f6 3d 36 c1 aa bd 0a dd a5 3d
       -0.11074652 0.12043041 -0.08337633 0.080988005
0000d0 95 98 de 3d 2b ca 92 bd 0e 71 31 3c 11 81 0b 3e
       0.108689465 -0.07167467 0.010830177 0.13623454
0000e0 b1 08 5b 3d 63 6e 03 be 5a b8 c6 bd 02 a8 0b 3e
       0.053475086 -0.12835078 -0.09703131 0.13638309
0000f0 6d a6 29 be c1 4e 4a be 02 83 fd bd c5 7e f0 3d
       -0.16567393 -0.19756605 -0.123785034 0.11742929
000100 58 df 08 3e fe 62 d3 bd 2d 2b 08 bd 1e 80 a7 3d
       0.13366449 -0.10321616 -0.0332443 0.08178733
000110 37 cf 18 be 08 ca e9 3d a8 4b 2e be 28 60 c3 bd
       -0.14922796 0.114154875 -0.17021048 -0.09539825
000120 2b b4 3d 3e 19 18 dd 3d ef 05 24 be ed 82 02 3e
       0.1852576 0.10795612 -0.16017888 0.12745257
000130 4f c6 1e be 6d 6a fc 3d 2c 0c df 3d b2 1f 2f be
       -0.15505336 0.123249866 0.108909935 -0.17101935
000140 89 7f 39 3e 90 57 5d 3d 44 cc 70 bd ce d4 e2 bc
       0.18115057 0.054038584 -0.058788553 -0.027689364
000150 88 85 40 bd 5d 7f 1d be 79 7f 61 bd 66 98 74 3e
       -0.047002345 -0.15380616 -0.055053208 0.2388626
000160 2f cf 45 bd da 64 3a 3e 18 4d 32 3d 18 68 77 3d
       -0.04829329 0.18202534 0.043530554 0.060402006
000170 f1 7c eb bb c7 b4 27 be db c1 93 bc 63 bb 0d be
       -0.007186525 -0.16377555 -0.018036773 -0.13841014
000180 13 a7 1c be 14 a0 1f be d2 7c 23 3e ad 27 c8 3b
       -0.15298109 -0.15588409 0.15965584 0.0061082453
000190 8d 9b 8c 3d a6 30 da 3c ca 8e 1a 3e 8b 60 ec 3d
       0.068656065 0.026634526 0.15093532 0.115418516
0001a0 0d 7f d4 3d c0 a0 c7 3d 76 70 b2 bc 9b db 28 3e
       0.103757955 0.097474575 -0.021782141 0.16490023
0001b0 71 3d 03 3e 0d f1 05 3d e1 c1 09 3d 7c 03 8b bb
       0.12816407 0.032700587 0.033632163 -0.0042423587
0001c0 e5 9d c3 bd 15 ec e5 3d cd 38 0a 3d 62 29 b3 bd
       -0.095516 0.1122667 0.033745576 -0.087481275
0001d0 1b 72 0f 3c 0b b7 4f bd 24 f7 9b 3c 90 c3 bb bd
       0.008755232 -0.050711673 0.019038744 -0.0916816
0001e0 27 69 b2 bd 00 ea 5f 3e ba 88 a5 3d a0 dc 35 3d
       -0.087114625 0.21866608 0.08082719 0.044399858
0001f0 45 62 0b bc 0d 64 c8 bd a5 c7 28 bd 0f 75 e3 3d
       -0.008507316 -0.09784708 -0.04120602 0.111063115

main_trunk.2.weight f4 [64, 128]
000000 58 7c 2c 3d 90 e8 9b 3d 7d ef 4a bc e9 e8 57 3d
       0.04211077 0.07612717 -0.0123862 0.052712355
000010 1e 59 5b 3b d3 e5 82 bd e2 d2 7f 3d 17 1e b4 bd
       0.0033469866 -0.06391492 0.062456973 -0.08794802
000020 b7 80 f8 bb 6c 69 87 3d 30 a9 04 3c b1 f0 22 bd
       -0.0075837034 0.066119045 0.008096978 -0.039780322
000030 af 4c 3c bd e3 63 a9 bd 5f ec ca 3c 8f 91 a5 bd
       -0.04597157 -0.08271005 0.024770914 -0.08084404
000040 a7 31 80 3d 58 44 20 3d a4 c2 1c bd b4 7c a2 bb
       0.062594704 0.039127678 -0.03827156 -0.0049587134
000050 43 43 6c bc 25 28 27 bd 45 f3 04 bd fc c4 1e 3d
       -0.014420333 -0.04080977 -0.032458562 0.038762078
000060 a5 81 39 3b 29 6b 8c 3d 58 ab 98 bd cc df 20 bd
       0.0028306034 0.06856377 -0.07454556 -0.03927593
000070 bb 02 af 3d ca 91 fa 3c 2e 38 7f 3c ea 93 af bd
       0.08545443 0.030587096 0.015577359 -0.08573134
000080 bd 6a 9a bd ab 94 20 3c 62 02 e0 3c e9 b4 7c 3d
       -0.0753989 0.00980107 0.027344886 0.061695967
000090 6d 3d 82 bd e2 f2 dc 3a b3 98 96 3b 08 63 dc 3c
       -0.06359372 0.0016857053 0.00459584 0.02690269
0000a0 64 40 b5 3c b6 d7 0d 3d 9f 15 0d 3d 50 87 00 bc
       0.02212543 0.034629546 0.034444448 -0.007844761
0000b0 91 ad 99 bd fb 5c 2d 3d 8b 41 8a bd 8b 98 ab bd
       -0.07503808 0.042325 -0.067507826 -0.08378705
0000c0 50 0a 71 bd 41 20 aa 3d f3 28 a8 3d 8e c9 a4 bd
       -0.058847725 0.08306933 0.082109354 -0.08046256
0000d0 3f e2 a6 3d 75 13 3b 3c 19 f7 ff bc c0 94 b0 bd
       0.08148622 0.011418213 -0.031245755 -0.08622122
0000e0 c6 5d b3 bd 27 95 87 bc 03 d2 81 3d 59 5b 87 3d
       -0.0875812 -0.016550614 0.06338885 0.0660922
0000f0 01 6e da 39 ac 9e 95 bd 9e 72 9a 3d db 09 80 3d
       0.0004166216 -0.07305655 0.07541393 0.0625188
000100 7c 1d 95 3d 5a 8e b9 bc 2f a8 93 3d 4a b1 d6 ba
       0.07281014 -0.022650886 0.07209813 -0.001637974
000110 5d ab 93 bc ef 20 09 bc 08 7d cd bc 08 46 f7 3c
       -0.018026048 -0.008369668 -0.025084034 0.03018476
000120 ff 76 b3 bd 89 e9 80 3d b2 28 85 3d 01 d6 8c bd
       -0.08762931 0.06294543 0.06501903 -0.068767555
000130 74 28 90 bd 44 0a d0 3c 0b 75 0c bc b6 d1 97 3d
       -0.07038966 0.02539552 -0.008572827 0.07413046
000140 66 82 5e ba ce b4 fb 3c 35 7f a8 3d 85 d4 5d bd
       -0.0008488059 0.030725863 0.08227388 -0.054157753
000150 36 02 61 bd bb 9e 4f 3d 92 a9 be 3c fd bf ee 3c
       -0.05493375 0.050688487 0.023274217 0.029144282
000160 0b cd 8d 3d 50 67 89 bd d4 2c 90 bc b4 84 22 3c
       0.069238745 -0.067091584 -0.0175995 0.009919334
000170 41 7c 78 3d 53 74 f7 3c ad f4 34 bd 2d 8f 51 3c
       0.060665373 0.030206835 -0.044178654 0.012790483
000180 37 16 77 3d 42 78 c9 bc d7 ad 9d bd 0c 8b e5 3a
       0.06032392 -0.024593476 -0.07699173 0.0017512753
000190 42 23 aa bc 1b 5d 7f bd b2 65 da bb 5e 1b 4a bd
       -0.020768765 -0.06234465 -0.006664955 -0.049342506
0001a0 63 cd 9d 3d 8a d8 a2 3b 37 6a 77 bd d8 15 91 3b
       0.0770519 0.004969661 -0.06040403 0.004427653
0001b0 b7 0f 98 bd cd db b9 3a 0a 96 ca b8 22 fa 08 3a
       -0.07424872 0.0014179886 -9.6600575e-05 0.0005225261
0001c0 cf ab 36 bd 12 fc 3e bd fe 06 c8 3c 9b e3 60 3d
       -0.044597443 -0.04662711 0.024417397 0.05490456
0001d0 f5 c3 95 bd e8 67 36 3d e2 59 aa bc 14 3b ae 3c
       -0.073127665 0.044532686 -0.020794813 0.021268405
0001e0 5e 9c 98 bd 23 a0 b0 bd 4a 33 b0 bd 84 0c 6e bd
       -0.074517 -0.08624294 -0.086035326 -0.058117405
0001f0 e1 d9 fc bb e5 9c 45 bd fd e3 00 3d 7c 19 a4 3d
       -0.007716403 -0.04824533 0.031467427 0.08012673
000200 d8 57 af bc 8b 68 bd 3c 12 7a 01 3c a7 51 de 3c
       -0.021404192 0.023121139 0.007902639 0.027138544
000210 f8 86 b1 3c a6 96 76 3c 3a 8d 36 3d 0b 31 ee 3c
       0.021670803 0.015050566 0.044568278 0.02907612
000220 6d 38 a5 bd a0 33 25 bd ae 01 a1 3d 23 85 98 3d
       -0.08067403 -0.040332437 0.078616485 0.07447269
000230 89 a7 5c bc 3f 56 93 3d c0 60 c8 3c 61 6b 42 bd
       -0.013467678 0.071941845 0.024460196 -0.047465686
000240 5e bf 10 3d 01 d0 5c bd 12 c3 57 bd 9b df 64 bd
       0.035338752 -0.053909305 -0.052676268 -0.05587731
000250 8a 70 40 bd b5 de 82 bd 32 4b 11 bd d4 29 b3 3d
       -0.046982326 -0.06390134 -0.035472102 0.087482125
000260 69 38 6c 3d 01 41 38 bd b7 96 43 3d 6d f6 99 bd
       0.057670984 -0.044983868 0.047751155 -0.07517705
000270 59 e3 cc bc 2e 00 1b 3b 46 39 2f bd 38 99 9f bd
       -0.025010752 0.002365123 -0.04277923 -0.07792896
000280 a9 a7 1c 3d 1e 2c e1 bc 77 de 56 bd 04 b2 93 bd
       0.03824583 -0.027486857 -0.052458253 -0.07211688
000290 8c 6b f0 bc fa 98 70 3c 28 d9 9c bd 9a b3 3e 3d
       -0.029348157 0.01468491 -0.07658607 0.046558
0002a0 7c c5 82 bd 85 40 23 3d ca 45 92 3c a7 9b 97 3c
       -0.063853234 0.039856452 0.017855544 0.018506838
0002b0 e5 87 98 3d 63 dd be bc b9 a2 8a bd 42 be 58 bd
       0.07447795 -0.023298925 -0.06769318 -0.05291582
0002c0 88 d9 7f bc 03 63 66 bd f8 3b 4f bc a4 f9 a2 3c
       -0.015615828 -0.05624677 -0.012648575 0.019894429
0002d0 f1 4b c3 bc fd 81 92 3d 1a 34 a5 3d 18 bb 6e bd
       -0.023839923 0.071536995 0.08066578 -0.058283895
0002e0 78 f5 2e bc a3 74 55 3c 52 f3 ea bc e7 1a 5b bd
       -0.0106786415 0.013028297 -0.028680477 -0.053492453
0002f0 48 f6 c4 bb 4f ef 1c bd 4e 2a 5b 3d 69 20 38 3d
       -0.0060108043 -0.03831416 0.05350714 0.044952784
000300 e5 97 86 3d fb a5 22 ba f6 00 f6 bb 82 20 56 3d
       0.0657194 -0.00062045426 -0.007507439 0.052277096
000310 b9 3d 9e bd e3 38 1e 3d 17 79 42 bd 87 77 6b bc
       -0.077266164 0.03862847 -0.04747876 -0.014371759
000320 24 ed 27 3d 73 e8 4c bc 0b 12 4c 3d 67 19 e9 bc
       0.04099764 -0.012506592 0.049821895 -0.028454496
000330 8f 23 ac 3d 2d 85 57 bd b5 53 7a bd a8 07 a6 bd
       0.0840522 -0.05261724 -0.061114985 -0.08106929
000340 9a a3 a5 bc 9e db 87 bd c6 8a b3 bd 28 30 42 bd
       -0.020219613 -0.066336855 -0.08766703 -0.047409207
000350 d4 e8 6d 3d 44 d2 80 bc c8 80 9b 3d 02 67 7c bd
       0.05808337 -0.015725262 0.075929224 -0.061621673
000360 6b ed 55 3a 59 fa c4 bc ec 0e a3 3c 21 bb 89 bd
       0.0008160683 -0.024045156 0.019904576 -0.06725145
000370 fd 69 72 3c 88 88 9f bd 7d 99 69 3d f7 d5 9b bd
       0.014795777 -0.07789713 0.057031143 -0.0760917
000380 f4 98 77 bd c9 4a 55 bc 66 ed ac bd 91 1b 67 3d
       -0.0604486 -0.013018318 -0.08443718 0.056422774
000390 bf b9 a9 3d f3 bf 19 3d 2e 27 86 3d 50 4d 96 bd
       0.082873814 0.037536573 0.06550442 -0.07338965
0003a0 4d e8 9e 3d 16 35 ea 3b ae c4 38 bd 63 38 12 3d
       0.077591516 0.0071474416 -0.045109443 0.035698306
0003b0 f3 2c 81 3d f6 cd 47 3d c6 b2 82 3d 5b 2d 37 3d
       0.063074015 0.048780404 0.063817546 0.04472099
0003c0 40 1a 88 3d 9f b0 a5 bd e7 2f 99 bd 41 76 9a bd
       0.06645632 -0.080903284 -0.0747984 -0.075420864
0003d0 c8 ce 01 bd 5d c7 85 bd 70 df 5c bd 03 2c 23 3d
       -0.031691343 -0.06532166 -0.053924024 0.039836895
0003e0 d1 19 81 bb 1d 87 13 bd dc ac b6 bc 29 cf 09 bd
       -0.003939845 -0.036017526 -0.022299223 -0.03364483
0003f0 c5 32 76 bc 28 92 4b bd 02 55 0f bc 04 e1 98 bd
       -0.015026753 -0.049699932 -0.008748295 -0.07464793

main_trunk.2.bias f4 [64]
000000 b7 c2 aa 3d 0a 84 44 bc 2f 51 84 3d 08 eb 18 3d
       0.0833792 -0.011994371 0.06460797 0.03733352
000010 59 f6 86 3c 07 9d 8e bd ea 58 25 bd 5a c1 85 3d
       0.01647489 -0.06963544 -0.040368 0.065310195
000020 32 cc ad 3c 60 bf 9f 3d ab c9 a2 3d 91 8f 5d 3d
       0.021215532 0.07800174 0.07948621 0.054091994
000030 83 84 a5 3d fc 7e 87 3d 1f 6b ed 3c b1 aa 17 bd
       0.08081915 0.06616017 0.028981743 -0.03702802
000040 9b 2c 80 bc 33 b9 fa 3c 92 3f 94 3c 92 33 0e bd
       -0.01564627 0.030605888 0.018096719 -0.03471715
000050 23 41 95 3d 13 c7 05 3d 89 e5 a9 bd 2c 99 ec bd
       0.072878145 0.032660555 -0.082957335 -0.11552653
000060 e4 b3 70 3c 66 84 32 bd ae 11 8f bd a8 17 9e 3d
       0.014691327 -0.043583296 -0.06985794 0.07719356
000070 f1 37 47 bc 47 c5 0c be a1 d5 d4 bc 62 c2 b9 3c
       -0.012159334 -0.1374713 -0.025980772 0.022675697
000080 82 22 17 bd cf ca 5d bd 72 d1 aa bd f3 52 c3 bd
       -0.036898144 -0.05414849 -0.0834073 -0.09537306
000090 ea e9 4b bd f6 3e 2a 3d 9b 59 a3 3d 22 14 18 3d
       -0.049783625 0.04156395 0.07976075 0.037128575
0000a0 c2 c8 b4 3c 5e 6c 87 3d 90 51 a9 bd bb fa 82 3d
       0.022068385 0.06612466 -0.0826751 0.06395479
0000b0 b8 ec 98 bd d1 6c 73 3d 18 5c 54 3d da 12 c0 bc
       -0.074670255 0.059429947 0.05184564 -0.02344649
0000c0 5e 8a 2c 3e bf f2 20 3d 45 1c 92 bc 0c 6b fc 3c
       0.16849658 0.039294 -0.017835746 0.030812763
0000d0 29 12 77 3d 2e 9a 5a 3c 3d f6 97 bb aa 2f bb bc
       0.060320053 0.013342423 -0.004637508 -0.022849876
0000e0 79 90 7e bd f4 5c 13 3d 3e 8b 00 be df bc a4 bc
       -0.0621495 0.03597732 -0.12553117 -0.020109592
0000f0 ff e2 2e 3d bf 4a 02 bd 4d eb a6 bd b6 bc 65 3c
       0.04269695 -0.031809565 -0.08150349 0.014022043

keyword_head.0.weight f4 [64, 64]
000000 68 59 5a bd 28 e6 ff 3d f0 45 85 bc b4 6f 97 bd
       -0.05330792 0.12495071 -0.0162687 -0.073943526
000010 ff 87 a4 3d a4 63 fb 3d 78 19 2d 3d 3f 62 01 be
       0.08033752 0.12274864 0.042260617 -0.12635134
000020 28 38 54 bd 9e 73 fb bd b0 dc 1c bc 68 e2 ca bd
       -0.051811367 -0.122779116 -0.0095741 -0.09906465
000030 1a f6 de 3d fc ad d0 3d 8a 96 ba bd e4 89 98 bd
       0.10886784 0.10189435 -0.09110744 -0.074481755
000040 0c 26 bd bd d2 4b d6 3d 62 af 92 bd 78 b2 fd bc
       -0.092357725 0.1046368 -0.07162358 -0.03096889
000050 be 34 32 3d e8 13 f2 bd f6 34 d1 3d 6f e1 e9 bd
       0.04350733 -0.11820203 0.102151796 -0.11419951
000060 e0 23 ab 3d c2 c4 d0 bd 58 c6 c5 bd e1 4b 2d bd
       0.08356452 -0.101937786 -0.09656972 -0.042308692
000070 90 2e be bd ed b6 3f bd 89 b6 6c 3d 8a 7c cb bd
       -0.09286225 -0.04680531 0.057791267 -0.09935863
000080 70 15 6b 3d 2b e9 ee bd 80 72 b3 3c a4 6e 46 3d
       0.05739349 -0.11665567 0.021905184 0.04844536
000090 1b 4f 04 be 7c 26 94 bd 80 de 72 bb 70 a4 67 3d
       -0.12920801 -0.07233903 -0.003705889 0.056553304
0000a0 50 99 89 bd 10 c4 a4 3d f8 51 5f 3d 00 8e 86 bd
       -0.06718695 0.080452085 0.05452153 -0.06570053
0000b0 b4 e8 16 3d 83 5b fe 3c 90 ca dd bc b4 12 8c 3d
       0.036843017 0.031049496 -0.027074128 0.06839505
0000c0 93 e8 43 bd 06 bf 9f bd d0 02 74 3d 7b 0e d0 3d
       -0.047829222 -0.07800107 0.059572995 0.10159012
0000d0 d4 e9 8e 3d 6c ac 7d bd 6c a6 91 bd 71 69 a6 ba
       0.06978193 -0.061932012 -0.071118206 -0.0012696219
0000e0 be c9 d0 3d 0c a0 c1 3d e4 ea b4 bd 4c ca e9 bd
       0.10194729 0.09454355 -0.08833864 -0.11415538
0000f0 1b f2 6a 3c 08 1c 96 3c 10 d4 3b bd 85 92 a0 bc
       0.014339949 0.018323913 -0.045856535 -0.019601116
000100 60 06 77 3c 80 c7 b2 3d f8 e8 e9 bd b8 6b ae bd
       0.0150772035 0.08729458 -0.114213884 -0.085166395
000110 6d f0 43 bb 70 0b c6 3d 2c 87 5d bd a5 93 88 bc
       -0.0029897944 0.0967015 -0.054083988 -0.016671965
000120 1a f9 b9 3d 40 f7 fa 3b cc b0 57 3d 49 a3 2d 3d
       0.090807155 0.007658869 0.05265884 0.04239205
000130 48 c2 da 3d ec 91 4e bd 70 59 25 3c 56 6f ee 3d
       0.106815875 -0.05043213 0.010092124 0.116423294
000140 3a b9 e8 bd d0 f5 f8 bb 88 cd 0a bd bc 51 58 bd
       -0.11363454 -0.0075976625 -0.033887416 -0.052812323
000150 8f dd 3f 3c 2e 6c c1 3c 62 11 ef bd 42 af f7 bd
       0.0117105385 0.023611154 -0.116732374 -0.12093975
000160 08 72 d8 bd 08 dd 5a 3d 08 83 de bc 05 95 2f bc
       -0.10568625 0.053433448 -0.02716209 -0.010716681
000170 7c 18 de bd b1 ce 6e bc a7 21 02 be e0 49 a0 3d
       -0.10844514 -0.014575646 -0.1270815 0.078265905
000180 5c d2 e6 3d 8e e7 87 bc c8 f6 5a bd 97 b6 54 3d
       0.112705916 -0.016589906 -0.053458005 0.051931944
000190 8d a7 50 3c 1a c5 f4 3d be d2 e8 3d 72 2b 9d 3d
       0.01273526 0.11951657 0.11368321 0.07674302
0001a0 15 28 d2 3c 38 c8 e9 bd bc 03 af bd 10 f7 34 3d
       0.025653878 -0.11415142 -0.08545634 0.04418093
0001b0 34 45 d4 bd 7c ce 7a 3d 74 c5 f8 3d 2b a9 26 3d
       -0.10364762 0.061232075 0.12147036 0.040688675
0001c0 1a 95 07 bd 00 f5 82 3c b6 e0 9c 3d af a7 bb bd
       -0.03310118 0.015985966 0.07660048 -0.091628425
0001d0 ea b3 ed 3d d3 4a 0b bd a3 eb 11 bd c3 e8 66 3d
       0.116065815 -0.034006905 -0.03562511 0.056374323
0001e0 74 b2 18 bd c8 b5 ab bc 09 67 0d 3d 97 32 b4 bd
       -0.03727956 -0.020960703 0.03452209 -0.08798712
0001f0 97 2a bd 3d a4 04 6a bd 12 d7 d6 bd 75 39 f6 bd
       0.09236639 -0.057133332 -0.1049024 -0.12022678
000200 90 41 e3 bc 0e 4b 96 bd f6 b1 83 3d e2 6e a3 bd
       -0.027741224 -0.07338534 0.06430428 -0.079801336
000210 30 2a dc bc 18 c5 94 3d 70 30 ac 3d 68 86 8e 3d
       -0.026875585 0.07264155 0.08407676 0.0695923
000220 68 e9 85 bc 26 65 c3 bd 10 ce b9 bd e0 4c 91 3c
       -0.016346648 -0.09540777 -0.090725064 0.017736852
000230 ba 77 e5 3d e0 54 cb bc f2 2d d8 bd 98 ca ab bc
       0.11204477 -0.024820745 -0.105556384 -0.020970628
000240 82 f9 97 3d fc 9d 74 3d 6c 1e 85 bd 50 85 8c bd
       0.07420637 0.05972098 -0.06499943 -0.06861365
000250 f0 59 88 bd 80 34 14 3d 18 29 f9 3c 2c a7 1a bd
       -0.06657779 0.03618288 0.030415103 -0.037757084
000260 14 ec d7 bd 20 b1 41 3d d0 18 5e bc d6 ab f2 bd
       -0.10543075 0.04728806 -0.01355572 -0.11849181
000270 ae 86 d5 3d 68 03 dd 3c ee 40 f7 3d b4 33 45 3d
       0.10426079 0.026979163 0.12072931 0.04814501
000280 6a 96 9a 3d 68 b8 85 3d 18 36 ba bd 38 9d 4b bd
       0.075482205 0.06529313 -0.09092349 -0.049710482
000290 24 ff 1f 3d f6 b9 ed bd 00 1f 5b 3d 7c c1 ee 3d
       0.03906168 -0.11607735 0.05349636 0.11657998
0002a0 94 58 4d bd 68 a5 91 bc fa 86 ca bd 1a f9 d4 3d
       -0.050133303 -0.017779067 -0.09889026 0.10399075
0002b0 40 15 18 bc e0 58 25 bd ec 6e f0 bd 14 51 d6 3d
       -0.00928241 -0.04036796 -0.11739907 0.10464683
0002c0 36 f8 cd bd 00 92 bf 39 60 1a 0f 3d 20 ea dd bc
       -0.10057108 0.00036539137 0.034937263 -0.027089179
0002d0 d0 96 35 bd e0 2f b8 bb a4 a6 53 3d 98 b7 3d 3d
       -0.04433328 -0.0056209415 0.051672593 0.046317667
0002e0 ca 40 e4 3d 58 49 8f bd 6e b6 ad bd 4a bf e2 bd
       0.1114517 -0.06996411 -0.08482061 -0.11071642
0002f0 d0 8a 9a bc 90 17 e5 3d ee 09 81 bd 1c c9 07 bd
       -0.01886502 0.11186135 -0.06300722 -0.033150777
000300 d8 92 e1 bd f0 cb 9d bd e0 ac 6e bc 74 a2 b1 3d
       -0.11014336 -0.077049136 -0.014567584 0.086735636
000310 e8 8e fd 3d 10 ef 9c bd 76 ce 8c bd f8 e1 1e 3e
       0.12380773 -0.07662785 -0.06875317 0.15515888
000320 e6 84 d2 3d 00 72 d3 bc 88 49 df 3d 89 42 ea 3d
       0.102792546 -0.025811195 0.10902697 0.11438472
000330 2d 8c 26 3d c8 ad 12 3d d0 12 58 bc 28 a4 e1 3c
       0.040661026 0.035810262 -0.013188079 0.027544096
000340 14 bf f5 bd 07 20 25 bd 22 77 8b bd 62 c1 81 3d
       -0.11999336 -0.040313747 -0.06809832 0.06335713
000350 b8 7e 11 3d 4b 5a 0f 3d 18 55 7f bd ee 4d dd 3b
       0.03552124 0.03499822 -0.06233701 0.0067536747
000360 88 45 18 bd 74 9b 92 bd e6 f2 a4 bd 80 b8 f1 3d
       -0.037175685 -0.071585566 -0.08054142 0.11802769
000370 14 bb 24 bd 41 3c c8 3d 99 6a b4 3c 4b 23 6e bd
       -0.040217474 0.097771175 0.022023486 -0.058139127
000380 1c 91 88 3d 44 58 e9 bd da 34 d9 3d 3e 3a 7b 3d
       0.066683024 -0.113937885 0.10605784 0.06133484
000390 44 f0 fe 3c 56 2c c1 3d e4 8d fe bd 50 67 65 bd
       0.031120427 0.094322845 -0.12429407 -0.05600673
0003a0 a1 8d b8 bc 1a bb dc 3d a0 28 15 bd 70 d4 82 bd
       -0.022528471 0.10777874 -0.036415696 -0.063881755
0003b0 0a ca de bd e2 b4 ea 3d 6a 45 a6 bb 18 e7 98 3d
       -0.1087838 0.11460282 -0.005074193 0.07465953
0003c0 0b c8 bb bd e8 1d 7f 3d a0 58 6b bc 0e ea 71 3d
       -0.091690145 0.06228438 -0.014364392 0.059061103
0003d0 18 ab 77 3d 04 ac f0 3d be 53 24 bd 3c 0e c1 3d
       0.060465902 0.117515594 -0.040118925 0.09426543
0003e0 a9 98 1d bd aa c6 8e bd d3 b7 6c bd 37 66 4f bd
       -0.038475666 -0.06971486 -0.057792496 -0.05063459
0003f0 c6 31 f8 bc ca 85 ca 3d 2e 56 ea 3d c9 28 00 3e
       -0.030297171 0.098887995 0.11442219 0.12515558

keyword_head.0.bias f4 [64]
000000 69 fa 2b bd 71 d9 2d 3d 40 df 3b 3d 62 01 31 bb
       -0.041986857 0.042443696 0.045867205 -0.002700888
000010 e4 8f da 3a 68 ae 0a 3e e6 73 2b 3d 0e 4a 13 3e
       0.0016674963 0.13543093 0.041858576 0.14383718
000020 92 8c 45 3e cc db 6b bd f9 a6 1c 3e 9e 6b ee 3c
       0.19291905 -0.05758266 0.1529807 0.02910405
000030 00 3b 24 ba 93 c6 d8 3d b6 95 f8 3d 8a b6 ed 3d
       -0.0006264895 0.1058475 0.1213793 0.11607082
000040 b7 b1 1a bc a7 21 cd 3d f5 0e 5b bb 43 3a 2d bd
       -0.009441785 0.10016184 -0.0033425663 -0.04229189
000050 b2 6a 03 bd e0 61 50 bc 50 82 3f 3d af 3d bf 3d
       -0.032084174 -0.012718648 0.046755135 0.09337937
000060 c2 29 f2 3d fd e1 0d 3e ea fb d2 bd 7e 09 40 bd
       0.11824371 0.13855739 -0.10301955 -0.046884052
000070 60 b8 85 bd 21 e6 46 3d 36 86 a8 3d 0f c6 30 3e
       -0.06529307 0.04855931 0.08228724 0.17263053
000080 61 77 a8 bd 85 a0 8d bd 8c 1a 2e 3d 3a 8b 02 be
       -0.08225895 -0.06915382 0.042505786 -0.12748423
000090 b0 04 9a 3d 90 58 9e bc 6a d7 9b bd bf 2a fa 3c
       0.07520425 -0.01932934 -0.07609446 0.030537961
0000a0 78 6f 4a bd 94 69 f6 3d c7 26 b6 3d 00 0b 19 ba
       -0.04942271 0.12031856 0.08894115 -0.0005838126
0000b0 c0 d3 1d 3b 6b d7 87 3d a8 d6 1a be 75 a1 12 3e
       0.0024082512 0.066328846 -0.15120947 0.14319403
0000c0 7e a0 b4 3d f8 e3 d4 3d ba 1b ca bd 4c 5f 6f 3c
       0.08819674 0.10395044 -0.0986857 0.014610123
0000d0 94 c2 24 3d 99 0f ee 3d d4 ba 47 3d a2 f9 51 bb
       0.040224627 0.11624069 0.048762158 -0.0032039662
0000e0 be b1 5c bd 2c 63 92 bd 58 1f a1 3d fc 0a 31 3e
       -0.053880446 -0.07147822 0.078673065 0.17289346
0000f0 44 54 a2 bd 54 41 ad 3d 7c 74 86 bd b0 3c 82 3c
       -0.07926229 0.08459726 -0.065651864 0.015898079

keyword_head.2.weight f4 [27, 64]
000000 83 12 af bc 63 ee 81 3c 18 f9 aa 3c d2 d6 4f 3d
       -0.021371132 0.015860742 0.02087073 0.050741978
000010 7d a0 3d 3d e9 3b bf bd 35 4f f0 bd c0 5a 3c 3d
       0.04629563 -0.09337599 -0.117338575 0.045984983
000020 24 9e d4 bd 4c 1a e0 3d d4 64 f7 3c 6e 6d c7 bd
       -0.103817254 0.10942516 0.030199446 -0.09737669
000030 40 15 06 bb b6 7e 88 bb 80 c0 93 3c 28 55 b5 3d
       -0.0020459443 -0.0041654957 0.018036127 0.08854133
000040 12 c1 21 bd ac fd 88 bd c8 d9 62 bd 61 b6 24 be
       -0.039490767 -0.06689009 -0.055383474 -0.16085197
000050 34 ff df bc 7a a9 a2 3d 58 b0 e0 3c 8f d7 82 3d
       -0.02734337 0.07942481 0.027427837 0.06388771
000060 c4 11 b4 bd 8e b3 ed 3a c9 58 93 bd 3e a9 87 bd
       -0.08792451 0.0018135177 -0.07194669 -0.06624077
000070 8e b0 f5 bd 9c 79 ab bd 3e 30 8e bd 32 a5 02 be
       -0.11996566 -0.083728045 -0.06942795 -0.1275833
000080 8d d3 69 bc 28 45 83 bc b0 e4 b5 3d fc e3 e2 3d
       -0.014271629 -0.016024187 0.08881509 0.11078641
000090 3c d3 fb bb 84 3c 38 3d 70 55 86 3c 85 93 df bd
       -0.007685093 0.044979587 0.016398162 -0.10916809
0000a0 70 f2 db 3c c8 0f b8 3d 01 56 f1 3d 3e 8b 97 3d
       0.026849002 0.08987385 0.11783982 0.07399605
0000b0 84 15 09 3d e5 fc 12 bd 43 e0 b9 bd 91 87 94 3d
       0.033467785 -0.03588571 -0.09075978 0.0725242
0000c0 be 0c e1 3d 84 d2 c7 3d b0 9c 94 bc 76 94 6d 3d
       0.109887585 0.097569495 -0.01814112 0.05800291
0000d0 32 d6 fd 3d 18 f1 4c bb b6 c8 e0 3d cb c5 5a 3d
       0.1239437 -0.0031271633 0.109757826 0.053411286
0000e0 0b 0b 01 bb 40 1f 73 bc 7c d9 9a bc d2 d8 07 3d
       -0.001969042 -0.014838994 -0.018902533 0.03316576
0000f0 24 53 89 3d 07 0d 7c bd 32 38 e8 3d cc af 75 3d
       0.06705311 -0.06153586 0.113388434 0.059982106
000100 14 b9 ff 3d 10 9b a8 bd 10 a4 e3 bd db 28 08 be
       0.12486473 -0.08232701 -0.11115277 -0.13296835
000110 1b 55 38 3d 0e 7e 57 bc cc db e0 3c 2b 53 22 bd
       0.045003038 -0.013152612 0.027448557 -0.039630096
000120 8a 4d 72 bd 60 b5 c4 bc 08 b1 cb 3d de 2d be 3d
       -0.05915598 -0.024012268 0.099458754 0.09286092
000130 7a 3d 98 3d f9 d0 0f 3d a0 39 af bd c4 75 06 3d
       0.07433601 0.0351114 -0.08555913 0.032827154
000140 69 d8 2f bd b1 ca 6e bc 89 24 f3 bd 41 91 03 bb
       -0.042930994 -0.014574693 -0.11872203 -0.0020075592
000150 3b e3 d4 bd 18 8a 2b 3d b8 96 a6 bd 1c 10 b8 bd
       -0.10394903 0.041879743 -0.08134216 -0.089874476
000160 18 6d d1 bc 2a 48 9a bd 07 1f 04 bd 5c af 95 bd
       -0.025564715 -0.075332955 -0.032256152 -0.07308838
000170 a8 de 9e 3d 0f c4 81 bd b0 1b c2 3c f7 48 50 bd
       0.07757312 -0.06336223 0.023694843 -0.050850835
000180 c1 5d 24 3d 61 4b ad bd b9 61 b5 3d 3d 7a 69 3c
       0.040128473 -0.08461643 0.0885653 0.014250335
000190 5d 7b eb bd b8 00 ae bd 48 dd ff bc 03 6b 13 3d
       -0.11498139 -0.08496231 -0.031233445 0.035990726
0001a0 f8 c2 c4 3d 5a a4 cc 3d 33 42 95 3d 92 48 e0 3d
       0.096075 0.09992285 0.07288017 0.10951342
0001b0 a0 be 91 3c a2 7d 0a be a8 07 b7 bd c7 35 e0 3d
       0.017791092 -0.13524488 -0.08937007 0.10947757
0001c0 36 df dd bd dc 02 3c 3d 90 bf 35 bd 62 3b 27 3c
       -0.1083359 0.045901164 -0.04437214 0.010207029
0001d0 1e eb c0 bd ac 7d 91 bc e6 b4 c2 bd 13 44 32 3d
       -0.09419845 -0.01776012 -0.0950716 0.043521952
0001e0 7b c0 7e bd 68 3f 7a bd 6b f2 9a bd 4e 02 4e bd
       -0.062195282 -0.061095625 -0.07565769 -0.050295167
0001f0 80 84 79 3d 34 99 2b bd 4c 21 94 bd 42 4e 87 3d
       0.060917377 -0.041894153 -0.072329134 0.06606723
000200 0c 94 a7 3d 06 48 0d 3d c0 d1 9b 3d f5 84 96 3d
       0.081825346 0.034492515 0.07608366 0.07349578
000210 27 d8 01 be 4d a0 d2 bd 23 d2 4b bd 93 1f 94 3d
       -0.12680112 -0.10284481 -0.04976095 0.07232585
000220 54 1f e9 bd a4 10 ff 3d 8e 35 8d bc f8 63 0d 3d
       -0.113829285 0.12454346 -0.01723745 0.034519166
000230 54 87 14 3d bd 57 a6 bd 00 17 5b ba cc b0 e6 bd
       0.03626187 -0.081222035 -0.0008357614 -0.1126419
000240 31 f8 90 bd 10 05 48 3d f1 2f 18 bd 30 0a 19 bd
       -0.07078589 0.048832953 -0.037155095 -0.03736323
000250 9d f5 bb 3b 84 16 c4 bd 18 14 2c 3d 4e 11 53 bd
       0.0057360665 -0.09574607 0.04201135 -0.051530175
000260 68 f4 25 bd ab e4 87 3d d8 b2 e8 3d d3 bc 0b be
       -0.040516287 0.06635412 0.11362237 -0.1364625
000270 c0 22 fa bc e2 77 ba bc 68 a3 e4 bd 09 6b 97 bc
       -0.030534148 -0.022762243 -0.1116398 -0.018483656
000280 8e f8 11 bd 8e dc 3e bc e9 68 e5 bc 75 2b 7a 3d
       -0.03563743 -0.011649264 -0.028004127 0.0610766
000290 0a 7f a5 bd 4c 08 55 3d 30 60 f1 bd 8a fe 84 3c
       -0.080808714 0.052009866 -0.117859244 0.016234655
0002a0 54 33 78 3d 1c fc a9 3d dd bd 5e bd 54 3f 1d 3d
       0.060595825 0.08300039 -0.054380286 0.038390473
0002b0 fc 7c f2 3d fc 5c a1 3d 4a 20 12 3e 1b 88 f8 3c
       0.11840245 0.078790635 0.1427013 0.030338338
0002c0 80 4a bb bc 80 22 d8 ba 80 d7 4d 3b 05 64 94 bd
       -0.022862673 -0.0016489774 0.0031408966 -0.0724564
0002d0 ee 1e c7 bd d1 e0 b5 3d 80 ed f0 3b da dd 04 bd
       -0.09722696 0.08880771 0.007352531 -0.032438137
0002e0 ce fc d3 3d e8 b2 60 3d 7a bb cb 3d 98 37 01 3d
       0.10350953 0.05485812 0.09947868 0.03154716
0002f0 10 bb a7 bc a8 a1 30 bd 79 b5 7c bd 28 94 a7 3c
       -0.02047494 -0.043122917 -0.061696503 0.020456389
000300 74 61 eb 3d 2a 78 dc 3d 18 dc 8d bd 2c 8a 69 bd
       0.11493197 0.10765107 -0.06926745 -0.057016537
000310 c0 7f a9 3d 90 4d e6 bb 4f c7 8e 3d f7 2b 9e bd
       0.082763195 -0.007028289 0.06971609 -0.077232294
000320 18 38 ee bd e0 33 f7 bd 06 1f c4 bc cd e9 bc 3d
       -0.11631793 -0.12070441 -0.023940574 0.092242815
000330 9c 6d bd bd 69 9a 2a bd 2a 3a f9 3d f0 6f 99 bd
       -0.09249422 -0.041651163 0.12169297 -0.074920535
000340 54 96 4f bd 00 91 06 3b ea 31 b5 3d 82 6f 42 3d
       -0.050680473 0.0020533204 0.08847411 0.047469623
000350 56 ba bd bd e0 3c 11 bd 9c d2 36 3d 2c 14 2f 3d
       -0.092640564 -0.035458446 0.044634447 0.042743847
000360 ca 61 f1 bd 27 11 a5 bd 58 39 e5 bd b8 20 08 bd
       -0.1178623 -0.08059912 -0.11192578 -0.033234328
000370 60 ce d7 3d d6 f2 81 bd 78 df 79 bd a4 05 cc bd
       0.1053741 -0.063451454 -0.061004132 -0.09962013
000380 68 af fb bc 61 06 c4 3d af 17 c7 3c 0e 49 f2 3d
       -0.030723289 0.09571529 0.024303285 0.1183034
000390 df 75 d1 bd 8e c4 b5 bd c4 c1 86 bd 8c 9c a2 bd
       -0.1022756 -0.088753805 -0.065799266 -0.07940015
0003a0 4c 45 d5 3d 4e e4 e7 bd 40 e6 34 bd 3a cd f8 bd
       0.10413608 -0.113228425 -0.044164896 -0.12148519
0003b0 08 80 c5 3c 3e e9 b5 bc b6 bb 6b bd eb 94 28 bd
       0.024108902 -0.022205945 -0.057552062 -0.041157644
0003c0 7c 23 6b 3d b4 83 e3 3d 40 d5 03 bb 37 e0 98 bc
       0.057406887 0.11109105 -0.002011612 -0.018661601
0003d0 d6 4f f7 3d 62 1a c7 3d 34 f1 95 3d b7 93 13 3d
       0.12075774 0.09721829 0.073213965 0.036029544
0003e0 b8 60 b0 bb e8 ff fa bd 18 b9 46 bd bb 15 02 be
       -0.0053826235 -0.122558415 -0.048516363 -0.12703602
0003f0 d0 64 4f 3c 20 89 01 3c 8a 52 c5 3d 36 53 bd bd
       0.012658313 0.007906228 0.09634884 -0.09244387

keyword_head.2.bias f4 [27]
000000 58 f4 5c 3d b5 39 d9 bd 75 36 c9 bc fb 77 a7 bc
       0.05394396 -0.1060671 -0.0245621 -0.020442953
000010 ca 17 26 be af 7c ec bd 62 d8 5c bc 3d ae cf bd
       -0.16220012 -0.11547219 -0.013479324 -0.10140655
000020 fc 11 e2 3b bb 57 30 3d ad 7c 87 bc 04 13 4a bd
       0.0068991166 0.043052416 -0.016538942 -0.04933454
000030 01 34 14 be 43 ee 53 3c 23 f1 86 bd fa 44 ce 3c
       -0.14472963 0.012935224 -0.06588962 0.025179375
000040 73 5e fb bd 50 e7 21 be 00 82 89 3d 24 2e 98 bd
       -0.12273874 -0.15810895 0.06714249 -0.074306756
000050 a0 d7 02 bd b4 dc 36 3d 4e f4 e0 ba 4f 47 a2 bd
       -0.031943917 0.044644073 -0.0017162652 -0.07923757
000060 f4 cc a6 3d c1 f9 37 3d fb 00 3f be
       0.081445605 0.04491592 -0.18652718

price_head.0.weight f4 [32, 64]
000000 f0 b7 66 3c 8a b0 de 3d 60 56 c9 3b 28 6a d0 3d
       0.01408194 0.10873516 0.00614433 0.10176498
000010 5e 25 ec bc e0 7b 84 bc be 90 ce bd c7 fc 9e bd
       -0.028826412 -0.01617235 -0.10086201 -0.07763057
000020 d0 82 e1 3d 82 f2 9e bd 3a 3f 80 3d 43 55 34 3d
       0.11011279 -0.077610984 0.062620595 0.044026624
000030 18 9e 0b 3d 12 92 e7 bd ea f3 ec 3d 60 55 4d bd
       0.034086317 -0.113071576 0.115699604 -0.050130248
000040 e0 7f 59 3c 60 4c 55 bc 06 b0 9e bd e0 1f ad bc
       0.013275117 -0.0130186975 -0.077484176 -0.021133363
000050 58 dc 5a bd 40 6f 59 3d 40 5f c3 bd 86 2f 67 3d
       -0.053432792 0.053084612 -0.09539652 0.056441806
000060 28 bb 86 bd 86 3c 85 bd 3e 5e d5 bd c2 72 c0 bd
       -0.06578666 -0.065056846 -0.10418366 -0.09396888
000070 18 1c 3a 3d 3e e9 9c 3d cf ff 7d 3c 6d 6d 22 bd
       0.04543695 0.07661675 0.015502884 -0.039655138
000080 f2 b4 f1 3d 81 e4 1e 3d fe e3 d2 3d 1a 30 26 3d
       0.11802091 0.038792137 0.10297392 0.040573217
000090 41 df 99 3d cb 8d ae bc f8 d5 74 3d 56 a7 d4 3d
       0.075132854 -0.021307847 0.05977437 0.10383479
0000a0 80 ae e8 bd 50 96 5f 3c f8 37 9b bc 40 19 48 bc
       -0.11361408 0.013646677 -0.018947586 -0.012213051
0000b0 60 ba 9c bc 7f 77 2c bd 88 b8 39 3d 10 32 bc bd
       -0.01913184 -0.042106148 0.045342 -0.09189236
0000c0 73 09 f0 3d 96 a3 c1 bd e0 18 cb 3d 35 48 a1 3c
       0.11720552 -0.0945503 0.09916854 0.019687751
0000d0 20 82 2e 3c 59 25 99 3d d0 d7 9b 3d b4 8c 00 3e
       0.010651141 0.074778266 0.07609522 0.12553674
0000e0 23 ca cc 3d 30 ca bf 3d 98 f9 b8 bc e0 4f aa 3c
       0.09999492 0.09364736 -0.022579953 0.02079004
0000f0 3a 81 a6 bd b4 5f 4a 3d 00 8c 71 3d ea ad cd bb
       -0.08130117 0.049407676 0.058971405 -0.0062768357
000100 84 37 60 bd 38 d4 ea 3d a4 41 68 3d ca a5 ef bd
       -0.054740444 0.11466259 0.056703225 -0.11701544
000110 04 9d f5 3d 90 c9 98 bc fc 10 54 bd dd 9f 44 3d
       0.11992839 -0.0186508 -0.05177401 0.04800402
000120 0e 47 f2 bd 20 e8 0b 3d d0 b9 1f 3c 9d 52 0e 3d
       -0.11829959 0.03415692 0.009748891 0.034746755
000130 31 d9 b1 bd 30 c8 5a 3c a4 d4 fb bd 82 4d d8 bd
       -0.08684004 0.0133533925 -0.12296417 -0.105616584
000140 62 9c db 3d 5b 62 9e 3d 4a 5e aa bd 4a 6d ce 3d
       0.10723187 0.077336036 -0.083187655 0.10079439
000150 fa 72 0d bc f6 be f0 3d e4 15 c0 3d f2 a9 b6 bd
       -0.00863337 0.11755173 0.09379175 -0.08919133
000160 40 05 e2 bc 64 51 9e bd d0 5d 78 3c 83 43 66 3a
       -0.027590394 -0.07730368 0.015159085 0.0008783864
000170 38 11 8b 3c e4 ab 8d bd 27 34 9c 3d 46 32 ef 3a
       0.016975984 -0.06917551 0.07627135 0.0018249236
000180 40 21 dc bd 22 3a 86 3d 16 61 df bd bb b5 73 bd
       -0.107485294 0.06554057 -0.109071895 -0.059499484
000190 5a 83 e1 3d 4b 7e 95 3c c4 c5 98 3d 20 37 39 bc
       0.110113814 0.018248698 0.07459596 -0.011304647
0001a0 fd 1d 5b bd 76 6c 96 bd 42 a4 87 3d a0 6a 5f 3d
       -0.053495396 -0.07344906 0.066231266 0.054545045
0001b0 2e db b1 bd 90 73 e7 3c 48 f5 5b bd 56 55 a4 3d
       -0.08684383 0.028253347 -0.053700715 0.08024089
0001c0 cd 3f 96 bd 00 20 36 bc 18 f1 b0 3d 7a d0 92 bd
       -0.07336388 -0.011116028 0.08639735 -0.0716867
0001d0 80 83 80 3d 29 ee 8b bc 81 8b e5 bd eb 14 31 bb
       0.06275082 -0.017081337 -0.11208249 -0.0027020525
0001e0 b6 f1 bc 3d 94 22 d6 bd ed de 9a 3c c5 9a f9 bd
       0.0922579 -0.10455814 0.018905127 -0.12187723
0001f0 7d bb 18 3c ac 71 ac bd d8 0c b5 3c d8 71 90 bd
       0.009322044 -0.08420119 0.022100851 -0.07052964
000200 cc 5a b2 3d dc 59 5d 3d 6a 62 c4 bd b0 e2 71 bd
       0.087087244 0.054040775 -0.095890835 -0.059054077
000210 9a 52 45 3d f8 71 99 3c 70 9d d3 bc 95 24 e3 3d
       0.048174478 0.018731102 -0.025831908 0.11090962
000220 1c 10 cc 3d 08 60 87 bc a0 12 9d bb 7d 41 e2 bd
       0.0996401 -0.016525283 -0.00479348 -0.11047647
000230 ac f6 cc 3d a8 23 36 3d 2c 12 ec bd 98 2b 52 bd
       0.100079864 0.0444676 -0.115269035 -0.051311105
000240 a8 57 70 bd 6d ee fe bd f8 4a 4a 3d c0 50 d0 bd
       -0.058677346 -0.1244782 0.049387902 -0.10171652
000250 ac 21 e8 3d 40 70 3d bb ec 8d 9d 3d ba 27 a3 bd
       0.113345474 -0.0028906018 0.07693085 -0.079665616
000260 8c d4 0a 3d c4 a4 84 3d 94 f5 ad 3d 74 36 ad bd
       0.033894107 0.06476739 0.08494106 -0.08457652
000270 b0 bc f9 bc 33 35 ba 3c 74 5b c3 bd d5 3d e3 3d
       -0.030485481 0.022730445 -0.09538928 0.11095778
000280 66 b5 81 bd 24 d4 74 bd a0 ad 9a bc 9c 52 9c bc
       -0.06333427 -0.059772626 -0.018881619 -0.01908236
000290 17 a9 db 3d 3a 85 e6 3d e0 d5 53 3c 32 f0 c2 3d
       0.10725611 0.1125588 0.01292941 0.0951847
0002a0 96 23 cb bd f4 01 ea 3d e8 f4 99 bc e4 cd 80 bd
       -0.09918897 0.11426154 -0.018793538 -0.062892705
0002b0 c8 7c 80 3c 68 4a 3a 3c d0 84 87 3d 5c 23 54 3d
       0.0156845 0.011370279 0.06617129 0.051791534
0002c0 51 04 66 bd c0 5f 59 3c d8 fc b2 bc 3e 65 c2 bc
       -0.05615646 0.0132674575 -0.02184908 -0.023729917
0002d0 80 c6 7f 3b 61 7e 8e bd 08 31 12 bd 5f ee ea bd
       0.0039028227 -0.069576986 -0.03569129 -0.11471247
0002e0 a0 7d ee 3d 06 9b d5 3d bc 74 3f 3d 4a 0a 91 3d
       0.11645055 0.10429959 0.046742186 0.070820406
0002f0 c9 30 72 bd 80 e4 56 bb 14 72 fc 3d c7 82 f2 bd
       -0.059128556 -0.0032790005 0.12326446 -0.1184135
000300 64 14 6c 3d f0 73 04 3d 2c 4e 4b bd 10 d6 75 bc
       0.057636634 0.03233713 -0.049635097 -0.01500465
000310 b0 17 0a bd d0 ac b1 3c 4a 4d d4 3d 84 1d 0d 3d
       -0.033713996 0.021688849 0.10366304 0.034451976
000320 1c b4 c8 3d b8 99 96 bc ec 5f 31 3d 0a 38 cc 3d
       0.09799978 -0.018383846 0.04330437 0.09971626
000330 90 04 58 bd 20 9b 41 bc 6a 69 85 bd 00 2e 4e ba
       -0.052738726 -0.01181677 -0.06514247 -0.0007865131
000340 e8 2e 87 bd 00 c0 12 b8 ba d0 99 3d bc 8c 64 3d
       -0.066007435 -3.4987926e-05 0.075105146 0.055798277
000350 8c b8 30 bd 7e c0 d3 bd 84 2f e7 3d ca 96 ca bd
       -0.043144748 -0.10339449 0.1128836 -0.09892042
000360 8c 9e 12 3d ba 28 b3 bd e6 07 e8 3d 42 6d e7 3d
       0.035795733 -0.08748002 0.113296315 0.11300136
000370 52 02 da 3d 78 61 f3 bc 48 f7 53 bd 88 4a c0 3d
       0.10644974 -0.029709563 -0.051749498 0.09389216
000380 b4 51 4b bd e0 39 c0 bb 02 c3 a1 3d 80 29 a9 3c
       -0.049638465 -0.0058662742 0.07898523 0.020649672
000390 9a 54 ba 3d 82 0b f3 bd 8c fa 6d bd d6 f4 ed bd
       0.09098168 -0.11867429 -0.05810027 -0.116189644
0003a0 16 52 b4 3d 88 5a d8 3d 4c 0d a2 bd 58 95 af 3d
       0.08804719 0.105641425 -0.079126924 0.08573407
0003b0 50 6f 4e bc 24 20 46 bd b0 86 91 3d 6e dc 90 bd
       -0.012599781 -0.048370495 0.07105768 -0.070732936
0003c0 2e e7 ee bd 70 22 6b 3c 70 b7 a6 3d 4c b3 bd bd
       -0.11665188 0.014351472 0.08140457 -0.09262714
0003d0 40 fc 5f bc 84 ba 9b bd a8 46 c2 bc 90 80 4a 3d
       -0.013670981 -0.076039344 -0.023715332 0.049439013
0003e0 24 1b fe 3d 58 88 cd 3c 58 3e f4 3d e0 e2 a8 3b
       0.124075204 0.025089428 0.119259536 0.0051539987
0003f0 28 c9 96 bd 82 3f a5 bd bc 75 25 bd 60 53 0c bd
       -0.07362586 -0.08068754 -0.040395483 -0.0342592

price_head.0.bias f4 [32]
000000 dc 74 86 bc 47 30 84 bd 44 32 ef 3b f8 15 9e bd
       -0.016413145 -0.06454521 0.0072996933 -0.07719034
000010 26 78 a5 3d 54 22 1f bc 96 5b 97 bd a0 88 e4 bd
       0.08079557 -0.009712774 -0.073905155 -0.11158872
000020 98 74 71 bd 40 59 97 bb cc 96 1e bc dd a4 e1 bd
       -0.058949083 -0.0046187937 -0.009679507 -0.11017773
000030 80 73 0b be 20 d0 3f 3c 74 f3 a1 bd 76 e2 b5 bd
       -0.13618279 0.011707336 -0.07907763 -0.088810846
000040 fd d7 e7 bb e0 f6 4e bd dc 10 29 3d 54 b7 00 bd
       -0.0070753084 -0.050528407 0.041275844 -0.031424835
000050 be cd 24 be 1a e4 d5 3d d0 d0 43 bc 98 2b b1 bd
       -0.1609411 0.104438975 -0.01195164 -0.08650893
000060 00 57 1a 3c bc 36 f6 3d 10 4c 4b 3d 30 54 52 3d
       0.0094201565 0.120221585 0.049633086 0.05134982
000070 d8 86 38 3d 58 fa 64 bd 7e 1d ec bd 12 35 98 3c
       0.045050472 -0.05590281 -0.11529063 0.018579993

price_head.2.weight f4 [1, 32]
000000 76 b2 08 be bf 78 f9 bd ef db b7 bd 6d f1 3f bd
       -0.13349327 -0.121812336 -0.08977496 -0.0468611
000010 3e 62 18 3d fd ec 6c 3d 9b fb 92 bd 4e e2 c6 bd
       0.037203066 0.057843197 -0.07176896 -0.09711133
000020 a6 41 7c bc da a6 85 3d 9f 0f 14 3d 7d 2a 8a bd
       -0.015396511 0.06525965 0.03614771 -0.06746385
000030 2e 30 27 bd 38 2f 83 3d ed 23 1c bd 14 61 b4 bd
       -0.040817432 0.06405491 -0.0381202 -0.08807579
000040 e3 15 b0 bd 93 dd 2b bd f6 95 3b bd 92 71 15 3c
       -0.085979246 -0.041959357 -0.04579731 0.009121316
000050 e5 51 fb bc 8b cb f2 bd cc 76 0a bd c5 ea 26 bd
       -0.030678699 -0.11855229 -0.0338047 -0.040751237
000060 09 e6 e2 bc 97 d6 34 3e 4b f8 dd 3d 74 a9 11 3e
       -0.02769758 0.17659985 0.10838374 0.14224797
000070 d3 3a 13 3c f7 0c 24 bd f9 72 a6 bd d6 70 b8 3d
       0.008986193 -0.040051427 -0.08127398 0.09005897
